data/N-MNIST/mnist_ann.pt (torch, 493660 bytes, 5 tensors)

0.weight f4 [20, 2, 5, 5]
000000 a5 f4 1a 3e 45 77 82 bc 21 99 3d 3e 8a 4c e0 3d
       0.15132387 -0.015926013 0.18515445 0.10952099
000010 2d 90 d2 3d ee 7f b6 3d 87 87 2b bd 36 ad bb bc
       0.102814056 0.089111194 -0.041877296 -0.022909742
000020 82 7b 1b bd b9 f2 d2 bd 9e d2 25 bd 1b 19 03 3e
       -0.037959583 -0.10300202 -0.040484063 0.12802546
000030 f7 fd 68 bc ba 5a 2c be 45 dc 9a 3d 77 49 19 3d
       -0.014220706 -0.16831484 0.07561544 0.037423577
000040 cb 95 0b 3d 6c d6 22 3b e0 ac 40 3d d5 03 41 be
       0.0340784 0.0024847044 0.047039866 -0.18849118
000050 1d 10 1f be 23 10 ff bc c8 fb 3d be 5c 5a 46 bd
       -0.1553349 -0.031135624 -0.18553078 -0.048426017
000060 7d 74 3e bd 1c 21 1d 3e 7f f8 0a 3e 94 df 99 bd
       -0.04649781 0.15344661 0.13571356 -0.07513347
000070 a8 a5 c3 3d 09 be 4f 3e b3 69 28 3d 9a 33 f0 3d
       0.09553081 0.20287336 0.041116428 0.11728592
000080 8b 5b c6 3d 35 c4 c5 3d c8 d8 00 3e 24 79 9b 3d
       0.09685429 0.09656564 0.12582695 0.07591465
000090 fe df d6 bc 7c 35 e4 bb 09 c8 94 bd eb 96 6c 3d
       -0.026229855 -0.0069643836 -0.07264716 0.057761114
0000a0 d5 76 f1 bd a3 57 90 bb b5 05 a3 bd d9 e4 5b be
       -0.117902435 -0.0044049784 -0.07960073 -0.21474017
0000b0 4d ff 50 be a9 59 9f bd df 57 57 be c7 5c 04 be
       -0.2040989 -0.07780773 -0.21029614 -0.12926017
0000c0 c6 b1 96 be cc e6 b7 be 84 d1 cb 3c 30 92 14 3c
       -0.29432505 -0.35918272 0.024880178 0.009068057
0000d0 c6 24 4a be 43 00 80 bd a9 ff d6 bc 4f 44 4f bd
       -0.1974059 -0.0625005 -0.026244955 -0.050602254
0000e0 9e 88 e5 3d 94 12 c1 3c 10 02 22 be 52 b2 29 be
       0.11207698 0.023568429 -0.158211 -0.1657193
0000f0 24 50 a5 3c 8a 2d 28 3e ab 7e d0 3c 48 fe d2 bc
       0.020179816 0.16423622 0.025451025 -0.025756016
000100 b4 0c 16 be b5 6f df bc 78 d8 2c 3e 40 ed a4 3d
       -0.14653283 -0.027274946 0.16879451 0.08053064
000110 6d ee c3 3d 6b 7f 09 bd ca af 0b be 54 97 1e 3e
       0.095669605 -0.03356878 -0.13641277 0.15487415
000120 49 fa 31 3e 38 e2 1d 3c 9c 94 af 3d 88 ec d4 bb
       0.17380632 0.009636454 0.08573267 -0.0064979233
000130 ca 22 2e 3e ca 9f 14 3e a5 ed 43 3e b6 db 04 bd
       0.17005458 0.1451408 0.19133623 -0.032436095
000140 32 b5 2a be e0 71 bf bc d1 f4 b5 3d 2f 96 54 3e
       -0.16670683 -0.02336973 0.08884586 0.20760415
000150 38 0e 55 3e 31 05 50 be e9 32 6f be 30 27 21 be
       0.20806205 -0.2031448 -0.23359264 -0.15737605
000160 e4 e2 20 3e 2c cd 22 3e 43 69 72 be 69 cd 12 be
       0.15711552 0.1589858 -0.23672967 -0.1433617
000170 53 09 22 be 4c b7 11 be f1 27 d3 3d 52 3f 61 3d
       -0.1582387 -0.14230078 0.103103526 0.054992028
000180 54 51 8a be a6 a1 86 bd 44 a7 c7 bb cb 03 15 be
       -0.27015173 -0.06573801 -0.0060929377 -0.14552228
000190 03 24 0a bc 6b 87 3d bd 08 91 58 bc f2 f9 a4 bd
       -0.008431437 -0.046271723 -0.013218172 -0.08055486
0001a0 5c fc b2 3c fe d0 8f 3c ca b0 cf 3d 0b 58 c8 3d
       0.02184885 0.01755571 0.10141142 0.09782418
0001b0 0e 49 bd bd 95 be a9 3d f8 3c 14 bb 89 f7 38 bd
       -0.0924245 0.08288304 -0.0022619348 -0.045157943
0001c0 b2 3d b9 bd ac 45 8b bc 60 3e 52 bc 60 0e ab 3b
       -0.090449706 -0.017000996 -0.012832254 0.0052202195
0001d0 44 f8 e5 bd 94 9e 82 bd 67 78 24 3d 47 03 cd bc
       -0.112289935 -0.063779026 0.040153887 -0.025025977
0001e0 8c c2 b9 3d 54 e3 33 be 89 ed cf bd 0e 95 75 bd
       0.0907031 -0.17567188 -0.10152728 -0.059956603
0001f0 ac 93 f5 bd db 25 e7 3d 22 cf cf 3d 69 fc bd b9
       -0.11991057 0.11286517 0.10146929 -0.0003623695
000200 6d 2b 0c 3d ca 2a 01 be 2a 60 a5 3c eb 55 33 3e
       0.0342211 -0.12613979 0.020187456 0.17513244
000210 e3 55 d3 3d 97 00 05 3e ee 41 a3 3d 6c b3 85 3d
       0.10319116 0.12988506 0.079715595 0.06528363
000220 45 2c b4 3d c2 9f 04 3e 50 ad d2 bc 7a 5b cd bb
       0.08797506 0.12951568 -0.025717407 -0.0062670084
000230 07 ec 23 3e d3 45 00 bd a7 93 e4 bc f4 0e 52 3d
       0.16008006 -0.03131659 -0.027902437 0.05128379
000240 d6 83 a1 bd 4c e3 04 3e b9 5b 05 be f1 1e d3 bd
       -0.07886474 0.12977332 -0.1302327 -0.10308636
000250 c6 b8 d1 3c 9a ab 31 be 10 8e fa bd 53 5f fb bd
       0.025600802 -0.17350617 -0.122341275 -0.12274041
000260 81 dd ab 3d 53 4f 3b bb 00 4a 41 bc 60 3c 83 3d
       0.08391858 -0.0028581216 -0.011797428 0.06408
000270 5e a3 be bd d9 f5 15 bd ce ef 45 3e 90 fc c3 3d
       -0.093085036 -0.03661141 0.1932976 0.09569657
000280 4f f9 8e bc c9 77 0a 3e 28 bd 70 3c 9a 95 3c 3e
       -0.017452864 0.13522257 0.014693536 0.18416443
000290 02 42 10 3e 53 ab 12 bd 37 a6 df 3c df f9 3c bd
       0.1408768 -0.03580792 0.027300937 -0.046136733
0002a0 a5 2f 9a 3d 5a 66 77 bc 6e ab 9c 3c 21 dd ed bd
       0.07528619 -0.015100086 0.019124713 -0.116144426
0002b0 14 2d 98 3d fb 8d ed bd b4 e7 19 bd 13 5f e9 3c
       0.07430473 -0.11599346 -0.037574485 0.028487718
0002c0 be 2d a6 3d 04 0f e4 3d 88 83 00 3b 46 88 1f 3e
       0.081141934 0.111356765 0.0019609649 0.15579328
0002d0 db 3e cb bc a1 2a b9 3d dd 50 53 bd e7 29 f8 3d
       -0.024810245 0.09041334 -0.05159079 0.12117367
0002e0 2a 76 a2 3d 5b 3e 04 3b 77 67 1a 3d 74 9c 24 bd
       0.07932694 0.0020178768 0.037696328 -0.040188268
0002f0 d5 4f 1c 3e 6f bd 4d 3c b6 81 ab bd 80 87 26 3d
       0.15264829 0.0125573715 -0.0837435 0.040656567
000300 6c ac 43 bb b0 18 b1 3d 1b a7 c8 bc 31 a2 99 bc
       -0.002985741 0.08647287 -0.024493745 -0.018754097
000310 40 44 bc bd d6 48 a2 3d ad a8 b0 bd 79 bf 58 bd
       -0.09192705 0.079240486 -0.08625922 -0.052916978
000320 28 85 18 3e 4e e6 a2 bd b1 92 1c be 4c 50 9f bd
       0.14894545 -0.079540834 -0.15290333 -0.07778987
000330 24 38 17 be 58 f1 bc 3d 6c bb b7 3d 25 aa df 3c
       -0.1476751 0.0922572 0.08971295 0.02730281
000340 bd be d8 3c c8 9e 70 be 8d a2 5f bd 39 bd 31 bd
       0.026458139 -0.2349807 -0.05459838 -0.043393347
000350 86 4c 13 3c d2 73 20 be d3 c3 d1 bd 69 50 97 3d
       0.008990413 -0.15669182 -0.10242429 0.07388384
000360 bb 20 4b bd d8 13 7d 3d c4 52 d1 bd a8 44 b3 bd
       -0.04959176 0.061786503 -0.102208644 -0.087533295
000370 95 a1 1c 3e 99 5a f5 3d 38 bc 96 bd b1 7c 77 3b
       0.15296014 0.11980171 -0.07360119 0.003776353
000380 35 a2 a9 bd 82 dc 4d bd a2 61 9b 3d 3e 09 05 3e
       -0.08282892 -0.05025912 0.07586981 0.12991807
000390 a5 4b 1d bc 2b a1 31 be 5b 94 15 be c0 92 29 3d
       -0.009600555 -0.17346637 -0.14607374 0.041399717
0003a0 85 d9 c8 3d 05 94 8a bd 63 62 6f bd e2 6b 07 be
       0.098071136 -0.06766514 -0.05844344 -0.13224748
0003b0 73 94 1b 3e 13 09 bc 3c d5 78 0d 3c 02 d6 09 3e
       0.15193348 0.022953546 0.008634766 0.13460544
0003c0 91 97 e0 bd 8e b6 60 3c 23 8d cc 3d f1 48 87 3d
       -0.10966409 0.013715399 0.09987857 0.06605709
0003d0 05 be a1 3d ee a0 e2 bc b8 47 98 bd 96 26 60 bd
       0.078975715 -0.027664628 -0.07435554 -0.0547243
0003e0 11 fe 8d 3d 7a 5d d8 bc 5b 99 cd 3d 02 f5 80 3d
       0.06933225 -0.02641176 0.10039016 0.062967315
0003f0 cf 85 a3 3d 20 ce 08 be 90 cb df 3b 47 60 8e bd
       0.07984506 -0.1335988 0.0068296865 -0.06951957

3.weight f4 [32, 20, 5, 5]
000000 ab 79 1c 3e 1e a7 a7 3d a8 d4 60 bb ab 03 41 bd
       0.15280788 0.08186172 -0.003430644 -0.04712264
000010 2b 5b 0a bc 37 d3 a5 3d d3 f5 97 3d 0b 9d 9e 3c
       -0.008444588 0.08096927 0.07419934 0.019361993
000020 47 0a a3 bb e8 de c2 3c 80 bf 8d ba a8 50 2d 3c
       -0.0049755904 0.02378793 -0.0010814518 0.010578312
000030 3b a9 c5 bc 91 ff 44 bc ea 31 01 3d 67 74 06 3d
       -0.024128547 -0.012023822 0.031541742 0.032825854
000040 bf e0 53 bd 01 4f 10 bd 0b 53 74 bd 94 45 38 3c
       -0.051728006 -0.035231594 -0.05964951 0.0112470575
000050 44 39 ec 3c 06 69 c6 bc 61 fd 9b bd b2 5d 9a bd
       0.0288359 -0.024220001 -0.076166876 -0.07537402
000060 bf 53 4c bd 6d 13 24 3d 43 70 e6 3b e1 1e dd 3b
       -0.049884554 0.04005759 0.0070324256 0.006748066
000070 a0 c9 9e 3d 87 b0 fb 3c e7 73 ae 3b 08 ef 61 bd
       0.07753301 0.030723823 0.005323875 -0.0551596
000080 a6 14 2f 3d a6 03 f8 3d 2e 59 0c 3e 25 ab 34 bd
       0.0427443 0.12110071 0.13705894 -0.04410853
000090 52 6b a6 bd 80 a5 81 bd db 79 0d 3d 2b 8d 02 3e
       -0.081259385 -0.06330395 0.03454004 0.12749164
0000a0 56 37 6f 3c 1e 0f 71 bb bf 37 75 3b da 50 24 3d
       0.014600595 -0.0036782692 0.003741726 0.04011617
0000b0 c7 f5 b8 3d 56 27 7b 3d ae 8b 4b 3d 24 ff bc 3c
       0.09031253 0.06131681 0.049693756 0.02307088
0000c0 62 e6 5d bc 1e 9c e4 bc 42 6c 06 3d 4d 19 f7 bc
       -0.013543697 -0.027906474 0.032818086 -0.030163432
0000d0 07 a7 37 bd 02 cb 12 bd 36 f2 81 bd b5 59 0a bd
       -0.044837024 -0.035838135 -0.06345026 -0.033776958
0000e0 e2 58 8d bd 9b 3a 7d bc 59 b0 83 bd 62 8a 71 3d
       -0.06901719 -0.015455867 -0.0643012 0.058969863
0000f0 7d 5b 66 bd ac a0 80 bd 4d 2e 31 3c 3c 22 88 3a
       -0.056239594 -0.06280646 0.010814262 0.0010386179
000100 80 08 5d 3d 2c ab b1 bc 89 75 e9 bc e7 c4 f4 bc
       0.053963184 -0.021688066 -0.028498428 -0.029879047
000110 cc 36 db 3c 70 32 de 3c e4 5e d1 bc 4d 15 a7 bd
       0.026759528 0.02712366 -0.025557943 -0.0815836
000120 d2 a5 e6 bc 84 43 48 3d ae e6 71 3a ef 05 c5 3b
       -0.028155241 0.048892513 0.00092277944 0.00601267
000130 84 18 54 bc 04 1b dd bc 89 a1 94 3c c8 67 9c ba
       -0.012945298 -0.026990421 0.018143432 -0.0011932785
000140 ad 46 b6 bc 26 be c9 bc fb 2f 02 bd 4d c2 b2 3b
       -0.022250498 -0.024626803 -0.03178404 0.0054552914
000150 95 31 f4 bc 51 62 0e bc d5 1c 91 bd 73 73 dd 3b
       -0.029808799 -0.008690433 -0.070855774 0.0067581474
000160 04 c6 86 3d e6 64 98 3c 6c c2 d7 bb 2c 9f 48 bd
       0.06580737 0.0186028 -0.006584456 -0.048979923
000170 3b 9d 00 3c 40 07 6c 3d 8a cd 89 3d ab ec 0c bd
       0.007849987 0.0576241 0.067286566 -0.03440539
000180 5a 46 40 3c 7a 8e 64 bc 2d 08 0a bc d3 df 37 3d
       0.011735523 -0.013949985 -0.008424801 0.04489119
000190 ff 93 bd 3c 7a 8e cf bd 81 7b 0d bd 27 27 5c 3d
       0.02314186 -0.10134597 -0.03454161 0.053748276
0001a0 51 ea 02 3e c9 ae c3 bc 0c a6 e0 bd 30 f1 a9 bd
       0.12784697 -0.023887055 -0.10969171 -0.08297956
0001b0 85 81 90 3d f2 58 31 3e 0e cb b8 bb 3a 6d 7f bd
       0.07055954 0.17319086 -0.0056394404 -0.062360026
0001c0 5d 57 ff bd b4 83 e0 3c 01 d0 09 3e 40 3c 1f 3d
       -0.12467835 0.027406551 0.13458253 0.03887582
0001d0 f0 1b 7e bd cc d0 90 bd 60 64 b4 bd 70 c4 e2 3c
       -0.062038362 -0.07071075 -0.088082075 0.02768156
0001e0 7f 61 b8 bb bb 89 b7 bd 02 55 c3 bd 7e 61 dc bd
       -0.005626857 -0.08961817 -0.09537698 -0.10760783
0001f0 af 47 38 bd 67 a7 22 bd 19 b4 19 3c 03 67 9b bc
       -0.044990238 -0.03971043 0.0093813175 -0.018970018
000200 21 c7 0d bc 90 3b d0 3c 89 05 3a bd 67 88 98 3b
       -0.008653433 0.025419027 -0.045415435 0.0046549323
000210 9d 83 07 3d 5b 56 8f 3d d8 4b 40 3d fb 1d fd 3c
       0.0330845 0.06998893 0.04694733 0.030898085
000220 46 5e 25 bb 81 ec 99 3c 07 81 37 3b 95 31 80 3d
       -0.0025233193 0.018789532 0.002800049 0.06259457
000230 b3 a2 53 3d 48 10 da 3b ee e9 21 3d c2 df 61 3d
       0.051668834 0.006654773 0.039529733 0.055145033
000240 d1 28 86 3c df f4 22 bd 94 e1 aa bc 6d 6d d8 bc
       0.016376885 -0.03978431 -0.020859517 -0.026419366
000250 0e ca 88 bc 65 27 f1 bc e7 1b c5 3d f6 6e 93 3c
       -0.01669791 -0.02943773 0.096244626 0.017997246
000260 67 59 cd 3d f1 fe f0 3d 45 69 37 bc ea 08 b2 ba
       0.10026818 0.11767376 -0.011194532 -0.0013582979
000270 0c 92 76 3d 7f 80 93 3d 41 63 eb 3c 05 dc 4e bd
       0.060197875 0.07202243 0.028733851 -0.050502796
000280 c6 5d 0a 3d f4 52 7d 3d 56 8c 80 3c 67 0e 4d bd
       0.033780836 0.06184669 0.015691917 -0.050062563
000290 fd 23 ea bc 61 e9 70 3b 20 4c 54 bc b0 85 b8 bc
       -0.028581614 0.0036760198 -0.012957603 -0.022524685
0002a0 d6 58 5e 3c ad d4 8f 3d f7 46 03 3d 41 dc b7 bb
       0.013570985 0.070229866 0.0320501 -0.005610973
0002b0 78 f6 32 3c 3d 63 e4 bc d0 86 68 3d af 2f 21 be
       0.010923021 -0.027879352 0.056769192 -0.15740846
0002c0 00 68 20 be 76 ea 50 bd 28 9c 41 3d 8c 18 84 3d
       -0.15664673 -0.05100485 0.047268063 0.064499944
0002d0 04 ea ce bd a3 16 82 bd 63 2a 2f bc e4 f2 9e 3d
       -0.10103229 -0.06351974 -0.010691258 0.077611715
0002e0 e3 74 0e 3e d0 66 8e bc 79 59 94 3c 55 2a 85 bd
       0.13911776 -0.01738301 0.01810907 -0.06502215
0002f0 56 d8 27 bc cd 3c b2 3d 9a 2f 5b bd 46 2a 7e bd
       -0.01024445 0.08703003 -0.053512193 -0.062052034
000300 98 7e b1 bc 0b 8a 5e bd 6a 16 07 3d b1 e6 d7 bd
       -0.02166681 -0.054330867 0.03298036 -0.10542048
000310 b2 03 04 be 3b e0 d1 bc af 37 d4 bd ed 09 2f bd
       -0.12892035 -0.025619617 -0.10362183 -0.042734075
000320 f0 1b 94 3c 6b f5 40 3d c6 46 74 3c 63 21 a7 bb
       0.018079728 0.04710905 0.014909452 -0.0051004156
000330 85 a9 0d 3d da ec 98 bc 78 44 2b bd 76 df 7e bd
       0.034585495 -0.018667627 -0.041813344 -0.062224828
000340 5f a9 8e bd bd 0e 3a 3c b0 2b f4 bc 53 26 8d bd
       -0.06965899 0.011356053 -0.029805988 -0.068920754
000350 e9 99 90 bd 2f 79 67 bd 4e 5e bc bd 97 8f 9d bd
       -0.07060606 -0.056512054 -0.09197675 -0.07693403
000360 a5 f2 2d bc 11 ec bf bd 7a a8 43 bd 2c 83 6d 3b
       -0.010616933 -0.09371198 -0.047768094 0.0036241515
000370 08 69 a2 bd 7b 96 11 be c3 e6 2b be 39 1c 8f bd
       -0.07930189 -0.1421756 -0.16787247 -0.06987805
000380 a7 9d 90 3d d1 fd 9a bd 04 23 df bd 7c a2 2d 3c
       0.0706132 -0.07567943 -0.108953506 0.010597821
000390 91 d8 6b 3d 8b 2d cb 3d f4 60 6e bd 45 cf 55 3c
       0.05757958 0.09920796 -0.05819793 0.013049905
0003a0 55 88 35 3d c3 ee b1 3d e5 14 bf 3d a6 7f 7d 3d
       0.04431947 0.08688118 0.09330157 0.061889313
0003b0 81 ca 19 bc ca b7 96 3b 6c 1c 0b 3c e2 cd 2b 3d
       -0.00938666 0.004599546 0.008490663 0.041944392
0003c0 31 09 59 3d a6 e9 1a 3d f0 f6 74 3d c3 f1 2a bd
       0.05298728 0.03782048 0.05980581 -0.04173447
0003d0 5f 57 25 bd dc 90 83 3d e0 fc cf 3d 14 b7 b9 3d
       -0.040366527 0.06424114 0.10155654 0.090681225
0003e0 8e 67 e6 bc 4d 4f 86 bd 9e f4 18 3d de 23 e7 bc
       -0.02812555 -0.06558094 0.03734266 -0.028215345
0003f0 ab d7 db bc f1 6f 26 3d 84 fd 8f bc 00 3c 8e bb
       -0.026836237 0.0406341 -0.01757694 -0.0043406487

6.weight f4 [128, 32, 3, 3]
000000 e8 9b 82 bd 91 5f 8a bd 59 2a d7 bd cc 59 9b bd
       -0.06377393 -0.06756509 -0.10506124 -0.07585487
000010 03 6d 52 bd c7 fc 5f bd 95 9f 79 3d 14 47 c2 3c
       -0.051373493 -0.054684427 0.060943205 0.023715533
000020 9b 3b cf bd 5e 0e 94 3d 4f a6 1f bd 6e a5 83 3d
       -0.10118791 0.07229303 -0.038976964 0.064280376
000030 9d 6c a5 3d 24 6f 99 bd 65 ee 04 bd fd bd b9 bd
       0.08077357 -0.074919015 -0.032453913 -0.090694405
000040 71 3b 29 bd 6e 7a 77 3d bc 03 15 3d c2 16 00 3d
       -0.041316453 0.060419492 0.036380515 0.031271704
000050 a6 aa 9f 3b 4b c0 03 bd 40 10 66 3d bc 7e 84 bc
       0.004872638 -0.032165807 0.05616784 -0.016173713
000060 d6 5e 1d 3d 71 52 9c 3b 88 77 48 bd 75 ff b5 bd
       0.03842052 0.00477057 -0.04894212 -0.08886615
000070 9c d4 5a 3d 47 4b 1a 3c eb 0c 99 bd d1 56 e8 bd
       0.053425416 0.009417362 -0.07473167 -0.11344684
000080 b1 32 cd bc d6 d6 23 3d cb c0 1d 3d 42 6f e4 bd
       -0.025048586 0.039999805 0.03851394 -0.11154033
000090 12 3a df 3d db a7 20 3d 9b 23 92 3c 37 6d 24 3d
       0.10899748 0.03922258 0.017839244 0.040143218
0000a0 be e0 db 3d 98 b7 66 3d df 0e 89 bd d6 c8 17 bd
       0.107362255 0.056327432 -0.066922896 -0.037056766
0000b0 47 08 fc bc d6 12 c6 bd cb 6f bd 3c 9a 3d 8a 3c
       -0.030765666 -0.096715614 0.023124596 0.016875077
0000c0 82 08 d4 bd e8 88 90 3c b3 f2 30 bd e3 e4 6a bd
       -0.10353185 0.017643407 -0.043200206 -0.05734719
0000d0 13 74 5c 3d 4f 63 5e 3d 66 40 3d bd 6e 06 ac 3c
       0.053821635 0.054293927 -0.046203993 0.02099916
0000e0 9c 57 b9 3c 91 72 e5 3d 42 b5 8c 3b 6f b3 07 3c
       0.022624783 0.112034924 0.0042940686 0.008282526
0000f0 89 24 89 bc 81 09 b4 bd 58 15 10 be 54 d2 2f bd
       -0.016741054 -0.08790875 -0.14070642 -0.042925194
000100 28 b7 f5 bc 1d d0 8f 3c 39 4b 48 bd a8 76 45 3a
       -0.029994562 0.01755529 -0.048899863 0.0007532635
000110 79 88 29 3d 46 07 05 3c d3 09 7f bd 99 cf 84 3c
       0.041389916 0.00811941 -0.06226523 0.016212272
000120 e0 81 e4 bd be f3 b8 bd 1d b6 f8 bc 0c 00 3e 3e
       -0.11157584 -0.09030865 -0.030360276 0.18554705
000130 8f bd e3 3d 0a 63 d3 3c b3 cf 0c 3c a2 b4 39 bd
       0.1112014 0.025804061 0.008594441 -0.04533828
000140 b1 8e 59 bd d7 b6 cb bd 93 65 c1 3c be 69 fa 3c
       -0.053114597 -0.09946983 0.023608005 0.030568
000150 1a 54 92 bc 96 58 2b 3d e6 bd 8b 3b 1c 80 cf bd
       -0.017862368 0.04183253 0.004264581 -0.10131857
000160 3b 02 b6 3d 9b 08 58 bd 17 43 94 bb b4 a9 e0 3c
       0.08887144 -0.05274258 -0.0045245993 0.02742467
000170 30 80 71 bd 55 bc 6c bb 22 80 2f 3d fe b0 51 bc
       -0.05896014 -0.0036122997 0.042846806 -0.012798546
000180 9f 41 29 3d 61 92 19 3d 52 ce 61 3d 70 19 33 be
       0.041322347 0.037493113 0.055128403 -0.17490172
000190 56 2d be bc 4e 6d 86 3d b5 2a b8 bb a3 04 e5 bd
       -0.023214977 0.06563817 -0.0056203254 -0.11182525
0001a0 1c bd d9 bc cc 02 19 be 9c 0a c1 bd 2f 19 cb bd
       -0.026579432 -0.14942473 -0.09425852 -0.09916913
0001b0 1e 17 f0 bb 6d f1 a2 3d 78 dd 00 3e 31 19 3f bd
       -0.0073269745 0.079562046 0.12584484 -0.046654884
0001c0 70 5e 9d bb 94 c3 1a bd fc 81 f8 3d f7 54 26 3e
       -0.0048025176 -0.037784174 0.121341676 0.16243349
0001d0 fe b9 ee 3d ba 31 95 3c 3b 87 8e 3d 5b ea e8 3d
       0.11656569 0.018212188 0.06959387 0.11372825
0001e0 05 cd dd bd ed c4 88 bd a9 82 de 39 e9 77 43 3c
       -0.1083012 -0.066781856 0.0004244049 0.011930444
0001f0 be 9e b4 3c a9 4e b1 3d 3a 9b 4e be 8e 69 45 be
       0.02204835 0.08657581 -0.20176402 -0.19278547
000200 6e 19 a6 bc 8e 69 a9 3d ca 3d 16 3d 15 77 48 3c
       -0.020275798 0.08272086 0.03668002 0.012235423
000210 b9 5d b5 bd 86 db dd bd 61 e1 46 bd d7 54 cc bb
       -0.08855767 -0.108328864 -0.04855478 -0.0062356996
000220 58 96 d4 3c 80 11 22 3b 98 65 8b bd 1f 34 36 bb
       0.025950596 0.002472967 -0.06806487 -0.0027802063
000230 81 88 20 bd 94 06 db 3d 89 62 93 3d 1f 31 b2 bd
       -0.03919268 0.10694614 0.071965285 -0.08700775
000240 60 f6 81 3d 3d 1e e0 bd 0b 91 92 bd e9 4a d4 3d
       0.063458204 -0.109432675 -0.07156571 0.103658505
000250 19 3f aa 3c 47 d1 94 bc 81 3f a8 3c 74 d2 a5 3d
       0.02078204 -0.018166197 0.020538094 0.080967814
000260 cb 02 ec 3d 0a 34 72 bc 68 0a f5 3d 0b 4d 12 3d
       0.1152397 -0.014782915 0.119648755 0.035718005
000270 b8 a1 b9 bd d8 7d 26 bb 27 9d a1 39 93 36 90 3d
       -0.090640485 -0.0025404599 0.000308254 0.07041659
000280 52 a3 05 3d 15 24 7f bd 57 4b 11 bd 51 f3 00 bd
       0.032626458 -0.06229027 -0.03547224 -0.031482045
000290 f9 15 ad 3d 92 77 7f 3c 54 b6 ab 3d 4c 76 4d bc
       0.084514566 0.015592473 0.08384386 -0.012540411
0002a0 4b de 2c be ea c9 85 bd e9 93 7b bd 31 25 1d bd
       -0.16881673 -0.06532653 -0.061420355 -0.038365547
0002b0 e0 06 22 3d 21 6c 6b 3d d7 96 3e bd b0 6a 44 bd
       0.039557338 0.057476167 -0.04653057 -0.047953308
0002c0 4e 76 9e bc a5 51 7e 3c da c5 00 3b cd 6c 58 3d
       -0.019343521 0.015522395 0.0019649179 0.052838136
0002d0 e1 6a 9a bc 55 70 be 3d c4 6c a3 3d 28 b5 8d bc
       -0.018849792 0.092987694 0.0797973 -0.017298296
0002e0 bf 91 59 bd 70 3d e6 bd 59 93 89 3c 27 ab 81 3c
       -0.05311751 -0.11242187 0.016793894 0.015828682
0002f0 6c d9 6d b9 92 a5 a5 bd 4f 54 54 bd 16 53 81 bc
       -0.00022683077 -0.08088221 -0.051838215 -0.015786689
000300 ea 5a a6 3d aa 24 61 3d 70 f4 14 3d b5 5f 50 bc
       0.08122809 0.054966606 0.036365926 -0.012718131
000310 0b 8b 61 bd 09 61 d8 bd c2 c5 fa bc 36 85 6e 3d
       -0.055064242 -0.10565383 -0.030611876 0.05823251
000320 b2 2a 0a bd 37 b8 e2 bd 49 07 48 bd 72 24 86 bd
       -0.033732124 -0.110702924 -0.048835073 -0.0654992
000330 04 5a d3 bd e4 13 6f bd 6e e3 19 3d f4 7e b5 bc
       -0.103199035 -0.05836858 0.03757041 -0.022155263
000340 ac 8e ef bb 20 fc 36 bd 0e 19 36 bd ab 8b c6 bd
       -0.007310709 -0.04467404 -0.044457488 -0.09694608
000350 48 b4 0a be c6 19 fe 3d 44 fb 98 3d 8c 9e 89 3b
       -0.13545334 0.1240726 0.074698 0.0041998085
000360 c3 6b 5a be d3 eb 61 bc 5d 99 c9 3c a0 3d 09 be
       -0.2133017 -0.013789135 0.024609262 -0.13402414
000370 81 4f ce 3b 43 b8 81 bd 69 d2 cc bd e0 1e 3c bd
       0.0062960987 -0.06333973 -0.1000107 -0.045927882
000380 2a e2 87 bd 8f 32 e3 bd cc e0 19 3b 41 d7 38 bd
       -0.06634934 -0.11093628 0.0023479937 -0.045127157
000390 b0 9e ff bb 03 6d 25 3e 72 9b a0 3c 7f d3 92 bd
       -0.0078008994 0.16154866 0.019605372 -0.07169246
0003a0 23 82 2a be 60 6c a0 be 99 18 b7 bd 2d 4a 50 3b
       -0.16651206 -0.31332684 -0.089402385 0.0031782493
0003b0 1f cd 09 bd 0c 88 5e 3c f9 4f 8b bd 04 dd 0e 3a
       -0.033642884 0.013582241 -0.06802363 0.0005449804
0003c0 90 a8 ce bc 39 e4 50 bc 0a 3e c6 bc af 10 20 bd
       -0.025226861 -0.012749725 -0.024199504 -0.03907841
0003d0 82 82 1e be 57 cc 91 3d c9 6c 2f 3d 4c ee ca bd
       -0.15479472 0.07119053 0.042828355 -0.09908733
0003e0 20 d9 57 bd e2 88 28 3b 1a 83 23 bd c4 97 2a 3d
       -0.0526973 0.0025716354 -0.03991995 0.04164864
0003f0 d9 a8 22 bd b9 98 56 3d 07 88 24 3d 3e 54 c7 3b
       -0.039711807 0.05239174 0.04016879 0.0060830405

10.weight f4 [500, 128]
000000 15 fe aa 3d 3e c0 9e 3d e6 c8 79 3d 7f 1e 97 3d
       0.083492436 0.07751511 0.060982607 0.073788635
000010 f3 8d ad bd ce 25 82 bd b3 4c e9 3c 16 a7 c9 bd
       -0.0847434 -0.06354867 0.028478956 -0.09846322
000020 84 c6 4c 3c 1f 7c a5 3d fd f0 53 3d 0f 21 89 3d
       0.012498502 0.08080315 0.051743496 0.066957586
000030 58 0f b9 bd be d5 2b bb dc ad a4 bd e6 59 b1 3d
       -0.0903613 -0.002621993 -0.080409735 0.08659725
000040 70 91 af 3d f4 5e 3c bd 76 ad 66 bd 93 37 00 3c
       0.08572662 -0.04598899 -0.05631777 0.00782575
000050 23 aa 0a 3d 1f 42 0e be 98 9d 29 3d de c8 e9 bb
       0.03385366 -0.1389241 0.04141006 -0.007134541
000060 4d 2d 6a bd 9e e6 38 bc 47 55 72 3d 5d d4 64 bd
       -0.05717211 -0.011285452 0.059163358 -0.055866588
000070 e3 98 dc 3d 04 30 fa 3c 4c fb 03 bd e6 bf a7 bc
       0.10771348 0.030540474 -0.032222077 -0.020477246
000080 cc 62 00 3e 35 18 83 bd 60 17 01 3e 5d 68 65 bd
       0.12537688 -0.064011015 0.12606573 -0.05600773
000090 7d e1 c1 3d 3f 3f cb 3c bd b5 77 3d 0c 70 e7 bd
       0.094668366 0.024810432 0.060476054 -0.11300668
0000a0 72 4f d3 3d 63 bb 83 3b d5 63 08 bd f8 ce 90 3d
       0.10317887 0.004020141 -0.033298332 0.07070726
0000b0 06 eb e1 3c df df 61 bd 7f c7 fe 3d ad cc f8 3b
       0.027577888 -0.05514514 0.124403946 0.0075927586
0000c0 2f ef 90 bd dd 47 a8 3c 10 72 cc 3d 4c 51 e4 3c
       -0.07076871 0.02054208 0.09982693 0.027870797
0000d0 c2 33 07 3e 98 87 f5 3c ff 0b dc bc ba 7c 99 bd
       0.13203338 0.029971883 -0.026861189 -0.07494493
0000e0 b9 a8 fa 3c 51 ee f0 bd df 60 f2 bd 33 1a af bc
       0.030598031 -0.11764205 -0.11834883 -0.021374797
0000f0 b1 17 e6 bd cc c3 22 3d e0 c8 0d bb 07 f4 d5 3d
       -0.112349875 0.039737508 -0.0021634623 0.10446935
000100 95 12 ed bc 2a 33 d5 bc 60 fc 49 3d af fb 88 3d
       -0.028939525 -0.026025373 0.04931295 0.0668863
000110 6a a5 e9 bc ee 29 5a bd d2 6f 3d 3d b4 d3 7d bc
       -0.028521258 -0.053262644 0.04624922 -0.0154923685
000120 59 2d b8 3d f9 46 80 bd 6b bd 26 3c 92 45 f2 bc
       0.089930244 -0.06263537 0.010176997 -0.02957419
000130 85 7e 57 3c 2e 44 a0 3d 2c 4b 65 3c 3a 4e d9 bd
       0.013152723 0.07825504 0.013994973 -0.10610624
000140 06 42 09 3d 7d 72 4e 3d bc 30 ed bc 23 40 98 bc
       0.03351023 0.050402153 -0.028953902 -0.01858527
000150 66 eb 28 3d f9 70 ee 3d ea ea 0b bd ea 5d 6d bd
       0.04124012 0.116426416 -0.03415958 -0.05795089
000160 5f 2b 69 3d 84 92 bd 39 4e f4 4a bd 65 dc 36 bd
       0.056926128 0.00036158052 -0.049549393 -0.04464378
000170 95 ff 85 3c 35 b6 11 bd 9a 5e 03 3e 25 5e d9 3d
       0.016357223 -0.035574157 0.12829056 0.1061366
000180 4a 96 86 3d 6e 95 ba bd 32 8b 7e ba 33 b1 a1 3c
       0.06571634 -0.09110533 -0.0009710073 0.019737815
000190 7b 81 a1 3d f2 fd 6a bd c4 78 c5 3c 54 20 44 bd
       0.078860246 -0.057371087 0.024105437 -0.047882393
0001a0 74 7a a4 3d 96 24 a1 3d 9a ad 9e 3b d0 eb 82 3d
       0.080311686 0.07868306 0.0048424723 0.06392634
0001b0 e4 c4 a1 3d a8 01 16 be 43 db bf 3d 62 49 95 bc
       0.07898882 -0.1464907 0.09367993 -0.018223468
0001c0 32 99 3b be 33 72 07 3d 88 07 dc bb 3e a4 35 bd
       -0.18320158 0.033067893 -0.006714765 -0.044346087
0001d0 16 09 2f 3d 50 85 a7 3c f4 fc c6 bb 79 bd a4 bc
       0.042733274 0.02044931 -0.006072635 -0.020109879
0001e0 5d 82 9c bc 2c a7 9d bc e6 91 83 bd 38 db 9f bd
       -0.01910513 -0.019244753 -0.06424312 -0.078054845
0001f0 92 df 1a 3e a6 3c 50 3d 46 f8 4c ba d4 f9 15 3c
       0.15124348 0.05083909 -0.0007818978 0.009153802
000200 b7 88 9a bd 22 86 b5 3d 9a a5 95 bd 1f 5d 75 3d
       -0.075456075 0.088634744 -0.073069766 0.05990326
000210 db 9c 6d bd c7 92 e4 3c 75 0e 02 3d d4 24 e3 3b
       -0.058010917 0.02790202 0.03175207 0.0069318805
000220 9a e0 0b be 8b f1 3f be 15 85 27 be 27 5b a8 bc
       -0.13659897 -0.18744485 -0.1635936 -0.020551277
000230 a6 a4 76 bd 35 2c 93 3c 0d f2 df bc c1 af bd 3d
       -0.060215615 0.017965415 -0.027337098 0.09262038
000240 55 5f 92 3c c9 5a ee 3c e5 61 5a 3d 31 f7 d8 3d
       0.017867723 0.029096024 0.053316016 0.10594023
000250 20 a3 bf 3a 39 9c dc 3d c3 49 1f be 1c 45 9c 3d
       0.0014620759 0.107719846 -0.15555482 0.07630369
000260 3a 07 0c bd 66 07 5a 3c 2e 01 04 3e 20 f0 3e bc
       -0.03418658 0.013307428 0.12891075 -0.01165393
000270 6b 90 0d be e2 ba 22 bb 23 ad 41 be 22 83 a6 bd
       -0.13824622 -0.002483063 -0.18913703 -0.0813048
000280 ac c8 26 3e 05 58 f5 bb 0c ac 23 be a7 c2 87 bc
       0.16287488 -0.0074872994 -0.159836 -0.01657231
000290 0d 85 40 bd 37 a6 56 be a9 67 10 3d 05 ef f4 bd
       -0.047001887 -0.20961843 0.035255108 -0.11959652
0002a0 8e fe d0 3d f8 9a b6 3d 27 db 3a bd b7 97 6d 3d
       0.102048025 0.08916277 -0.045619156 0.058006015
0002b0 6b 1c 97 bd 0b a4 5b 3c 22 ca 18 bd fc 5c 53 bb
       -0.07378467 0.01340581 -0.037302144 -0.0032251468
0002c0 1c 59 28 bc 69 a8 1a 3e ca 35 c5 bd e6 c8 a9 3d
       -0.010275152 0.15103306 -0.096294 0.082902715
0002d0 87 2e d5 3d 5d 5a 16 3e 14 6b 97 3d 44 07 bf 3d
       0.10409265 0.14682908 0.073934704 0.09327558
0002e0 91 f5 be bb 4b 29 f5 bd 9c 3a 31 3e 96 cc b5 bd
       -0.0058276136 -0.11970767 0.17307514 -0.08876912
0002f0 b9 f4 35 bd ea 66 34 3c f4 87 c1 3d 21 75 71 bd
       -0.04442284 0.011010865 0.09449759 -0.058949593
000300 db 39 b9 3d dd 2a 8c 3d 26 4d d6 bd a2 d9 7f 3d
       0.09044238 0.06844113 -0.10463934 0.06246341
000310 5c 3d a4 bc 11 f7 6d 3c a6 41 1c 3d 3c c2 b4 3c
       -0.02004879 0.014524237 0.038148545 0.022065274
000320 29 0c 80 bd 3c 77 cf bd 32 1f 8c bd b2 b8 1f 3c
       -0.06252319 -0.10130164 -0.068418875 0.009748625
000330 e5 b9 9e 3d 7b b3 5b bd 58 8d 90 3d 8f cb d3 3d
       0.077503 -0.053637963 0.07058209 0.1034156
000340 d6 56 9e bc 47 a6 44 bd 5b aa 9a bc 24 cb 91 bc
       -0.019328516 -0.048010137 -0.01888006 -0.01779706
000350 30 96 1b 3d d5 72 f7 bd b3 f8 62 3c 49 85 95 bd
       0.037985027 -0.12082449 0.01385324 -0.07300813
000360 95 58 7f bd d3 2c 88 bd 6b df 95 bd 6d 03 e7 bc
       -0.062340338 -0.066491745 -0.07318004 -0.028199876
000370 55 c5 b6 3d d1 88 48 3d ef 3b 98 3c 22 fa da bd
       0.08924357 0.048958603 0.018583266 -0.1069224
000380 7b 08 b6 bd 9d eb 76 3d f9 02 ab bd 86 81 2b 3d
       -0.08888336 0.060283292 -0.08350176 0.04187157
000390 b2 f3 28 3c eb 14 31 3d 29 88 80 3d a2 af c5 3c
       0.010312008 0.04323284 0.062759705 0.0241316
0003a0 f5 7d 57 3d 10 d2 c6 bd 60 e1 e9 3d 7c 09 c4 3d
       0.052610356 -0.09708035 0.1141994 0.095721215
0003b0 5b cf 6b 3d 9d 74 a6 3d e0 eb 4f 3d 8a d6 f5 bd
       0.057570796 0.08127711 0.050762057 -0.12003811
0003c0 80 85 36 3e 43 3b be bd 1f c5 12 3d c6 30 f5 3d
       0.17824364 -0.09288647 0.03583252 0.119721934
0003d0 e9 1b 6e bd 5a 42 b8 bd bb d6 91 3c f6 2d 2e bc
       -0.058132086 -0.089970306 0.017802587 -0.010631075
0003e0 13 f5 db 3d 6b c6 a6 3d bc d9 d5 bd 80 e0 65 3d
       0.107401036 0.08143314 -0.1044192 0.056122303
0003f0 b4 22 11 be b4 d8 6f bd 98 81 e3 bc cf d3 5a 3c
       -0.14173394 -0.058556274 -0.027771756 0.013356163

12.weight f4 [10, 500]
000000 7e 80 8b bd 3a de b0 bd 1a 49 9b bd 9e 97 79 bd
       -0.06811617 -0.08636136 -0.075823024 -0.06093561
000010 db 3a ba bc 21 23 06 3c ae 0a 35 3d 8d 14 5a bd
       -0.022733143 0.008187086 0.044199638 -0.053242255
000020 c3 8a b8 bc cf 21 3c bc f5 fc e9 bd 1b 4d e1 bc
       -0.022527104 -0.01148267 -0.11425201 -0.027502587
000030 46 df 92 be 5c 63 c9 3c 95 c2 a5 3d b5 c0 84 bb
       -0.2868597 0.024583511 0.08093754 -0.004051293
000040 d8 88 e5 3b 84 b4 d5 3c 2f a0 ae bd 1b b8 c5 3d
       0.0070048384 0.026087053 -0.08526646 0.09654256
000050 6d 6e a2 3d 66 8a cb 3c b0 01 c5 3b 41 21 6b 3d
       0.07931218 0.024846267 0.006012164 0.05740476
000060 aa 8e 3f 3c 1f ba 5d 3d ec 6b ea bb 6e 27 d8 3c
       0.011691729 0.054132577 -0.0071539786 0.026385989
000070 62 63 09 3d e5 e3 66 be 6b 2b 21 be b8 72 83 3d
       0.033542044 -0.22547872 -0.15739219 0.06418365
000080 48 b3 93 3b ed 32 e9 bd e7 ad f5 bd 32 4d 32 bd
       0.004507456 -0.113866664 -0.1199606 -0.04353065
000090 01 77 fa bc a9 ad 31 bd 40 94 e4 bc a3 d4 d5 3b
       -0.030574324 -0.043378506 -0.027902722 0.0065255924
0000a0 e1 8b 95 3d e3 74 54 3d 29 10 79 bd 0d 93 ac bd
       0.073020704 0.051869284 -0.060806427 -0.08426485
0000b0 82 1f 13 be 34 37 ed ba bb 90 52 3b d1 5f 7f 3d
       -0.14367488 -0.0018098117 0.0032129723 0.062347237
0000c0 4a ff 11 bd 69 21 d6 3d d4 f4 bc bd 92 40 4f 3d
       -0.035643853 0.10455591 -0.09226385 0.05059869
0000d0 35 d3 15 3d 56 ee ee 3c cb c2 f8 bd 25 c8 14 bd
       0.036578376 0.029166382 -0.12146529 -0.036323685
0000e0 5c 50 7d 3c 30 95 86 3d 79 95 9d bd 76 fe 52 3e
       0.015461054 0.06571424 -0.07694525 0.20604882
0000f0 73 ae 97 3b 74 52 6d bd d7 2a e9 bc 6c 92 10 3d
       0.0046289503 -0.05793996 -0.02846281 0.03529589
000100 f6 bd c4 bd e2 03 6e 3d 84 91 b5 bd 17 ae 8e 3c
       -0.09606545 0.05810917 -0.088656455 0.017416997
000110 85 97 35 bc a9 47 69 3c c8 d7 b1 3d fa 1f 3e 3d
       -0.011083488 0.0142382765 0.08683735 0.046417214
000120 67 f9 d9 3c 4e 0e b6 3b 9e 75 12 bd 9c 1b bd bd
       0.026608182 0.0055559045 -0.0357567 -0.09233782
000130 fb 44 6a bd 66 7c 5d 3d 89 a1 d4 bc 15 88 df bc
       -0.05719469 0.054073714 -0.025955932 -0.027286569
000140 f0 87 75 bc b6 b5 ae bd 64 e3 77 3d 17 90 20 3c
       -0.014986023 -0.08530752 0.06051959 0.009799979
000150 49 91 05 3d 66 7a 06 3d af bd 04 bd 39 88 2a 3d
       0.032609258 0.032831572 -0.03240746 0.04163382
000160 5c 48 8a bd 4f d8 70 bd cf 27 99 bc 0f c9 67 bd
       -0.06752083 -0.058800038 -0.01869574 -0.05658823
000170 fb 61 b5 3c 52 a6 c8 bd ad 7d db 3c bd e0 3e 3c
       0.022141447 -0.09797348 0.026793325 0.0116502615
000180 7d 3a 0a be 38 b0 33 be 6d 58 c8 bd 35 9c 68 bb
       -0.13498874 -0.17547691 -0.09782491 -0.0035493497
000190 c7 8a 0e be ad 6b 96 bd 94 88 13 bd b0 00 9d 3d
       -0.13920127 -0.07344756 -0.036018923 0.07666147
0001a0 c7 32 98 bb 8f 2b 34 3d 51 aa e1 bd 14 ca 06 be
       -0.004644725 0.043986853 -0.110188134 -0.13163024
0001b0 16 27 13 3d 78 3e 13 be b5 34 20 be 3d d0 ed bd
       0.035925947 -0.14379299 -0.15645106 -0.11611984
0001c0 d9 85 59 3c 69 11 14 bd 08 ea ab bd 64 f5 0e bd
       0.013276541 -0.036149416 -0.08394247 -0.03490199
0001d0 40 49 f0 bc f6 56 9f bd c3 49 0b bd 05 e5 23 bd
       -0.029331803 -0.07780258 -0.03400589 -0.040013332
0001e0 ab 27 1d bd e4 22 1e 3d e3 17 1b 3c a2 e1 e3 bb
       -0.03836791 0.038607493 0.009466144 -0.0069543878
0001f0 eb 59 c1 bd ca 4b 5d 3d 38 04 96 3c ea f5 dc 3c
       -0.094409786 0.054027356 0.018312559 0.02697273
000200 71 53 41 bd 64 b1 4c 3c 23 1d 5d 3d 35 18 88 3d
       -0.047198717 0.012493465 0.053982865 0.06645242
000210 a9 33 45 3d d7 7d 0f be 90 a3 d3 3c c4 b4 3c 3d
       0.04814497 -0.14012848 0.025834829 0.04607083
000220 23 b2 72 3d a7 a0 24 bd 3a 9b 73 3d 24 80 be 3d
       0.059251916 -0.040192273 0.059474207 0.09301785
000230 11 63 11 be bf dc db 3c 4a 15 fa 3d bb 05 a0 3d
       -0.14197947 0.026838658 0.12211092 0.07813593
000240 c7 e2 0b bd 4e 46 2a 3c cf 60 d0 3c 67 c5 a4 3c
       -0.03415182 0.0103927385 0.025436787 0.02011366
000250 bd 88 17 bd 23 87 f3 3c 49 72 ed bd 20 2e c9 bd
       -0.03699564 0.029727524 -0.11594064 -0.09823251
000260 f9 9c 98 3d 0f 21 05 be df 26 af bc 25 f9 74 3d
       0.07451815 -0.13000892 -0.02138084 0.059807915
000270 bd 6b 6b 3d 3a 3b ac bc f5 a2 c4 3c b2 37 a3 3c
       0.057475794 -0.021024335 0.024003485 0.019924019
000280 3b ad 8a bc 72 26 d3 bc 8a cd e6 bc 06 4f f7 bd
       -0.016928306 -0.025775168 -0.02817418 -0.120756194
000290 73 aa ed bd 87 c4 88 bd 27 6d 75 3d c6 7f da bd
       -0.11604776 -0.066781096 0.05991855 -0.10668902
0002a0 a6 2b a5 3d 00 1b f5 3c 22 cd d5 bb b6 d4 96 bd
       0.08064966 0.029920101 -0.006524698 -0.0736479
0002b0 35 69 61 bd 8f 16 88 bd 64 b7 0c bd cc 6c c6 3c
       -0.055031974 -0.06644928 -0.034354582 0.0242218
0002c0 ad 07 2a bd 9b 19 ab bd ec c2 25 3d 3e e0 8d 3d
       -0.041511226 -0.08354493 0.040469095 0.069275364
0002d0 32 44 d5 3c a8 f2 8a bd 35 29 d2 bc 82 4e 27 bd
       0.026033495 -0.06784564 -0.025654415 -0.040846355
0002e0 4a 9c 98 bd 6f d6 85 bd bc 68 b1 bc e7 4c 37 bd
       -0.07451685 -0.065350406 -0.021656387 -0.044751074
0002f0 a2 f0 1a be 80 8d 59 3d e0 57 57 bd c1 9e 02 bc
       -0.15130857 0.05311346 -0.05257404 -0.00797242
000300 9d 63 a9 bd 49 69 66 bc a3 3e ef bd f0 04 91 3d
       -0.08270953 -0.014063188 -0.11681869 0.0708102
000310 89 f5 1d 3b e3 3b 37 bd 24 e0 2f bd 2f 6a 93 bc
       0.002410265 -0.044734847 -0.042938367 -0.017994968
000320 9d ad 8e bc c0 cf 02 3d 68 12 f2 3d 43 34 9e bd
       -0.01741677 0.031936407 0.11819917 -0.07724812
000330 39 59 06 be b2 52 8c bd ab ce 04 bd 34 44 2f be
       -0.13119973 -0.068517104 -0.032423656 -0.17115861
000340 c8 ac a6 bd 44 3b 07 bc ab 21 d5 3d bc ad 5c 3d
       -0.08138424 -0.008253876 0.10406812 0.053876624
000350 d8 11 ba 3d 67 be df bd ff 50 86 3d 08 80 34 bd
       0.09085435 -0.10924988 0.065584175 -0.044067413
000360 78 3f 2e 3d c8 d0 42 bd 25 ee 2c bd cb 02 5d bd
       0.042540997 -0.04756239 -0.0422193 -0.05395774
000370 36 b9 81 3c d8 b9 8f bb e7 4c 71 bd 68 da a2 bd
       0.015835386 -0.004386168 -0.05891123 -0.07951814
000380 48 98 a0 bd 1f b8 12 bd c1 12 d8 3c 42 7a d2 bd
       -0.07841545 -0.035820123 0.02637613 -0.10277225
000390 5e 8b 25 bb cf c4 ce bc 65 a8 df bd c3 79 0b bd
       -0.0025260071 -0.02524033 -0.109207906 -0.034051668
0003a0 1a 18 24 bd 93 a3 6c bd a5 ca bd bd 55 e9 ca 3d
       -0.040062048 -0.057773184 -0.09267167 0.09907786
0003b0 7c f0 be bd c5 df 83 3c b6 51 58 bd 92 ee 25 3c
       -0.093232125 0.016097913 -0.0528123 0.01012768
0003c0 a2 0a 24 bb a4 4d 55 3d 5c ba ee bd eb a4 9a bb
       -0.0025030752 0.052075997 -0.11656639 -0.004719367
0003d0 e7 b6 0d be af 0d 15 bd b5 f6 50 3d 30 c8 5c bd
       -0.13839303 -0.036390003 0.05101653 -0.05390185
0003e0 d0 db a9 3c fb 22 cd bd 4d 49 3c 3d d8 43 8d bc
       0.020734698 -0.100164376 0.045968343 -0.017244264
0003f0 6d 88 19 3d 04 85 b8 bd 01 77 0d 3e 4a 0e 92 bb
       0.03748362 -0.09009746 0.13814928 -0.00445727
