data/N-MNIST/mnist_ann.pt (torch, 493339 bytes, 5 tensors)

0.weight f4 [20, 2, 5, 5]
0	0x3e0a881b	0.13528483
1	0xbd33e9f4	-0.043924287
2	0x3e3139ed	0.17307253
3	0x3e07c96d	0.13260432
4	0x3e1ca274	0.15296346
5	0x3d6e2804	0.05814363
6	0xbd821d08	-0.063531935
7	0xbbb78526	-0.0056005893
8	0x3d1c5e0b	0.038175624
9	0x3bc38955	0.005967299
10	0xbd48c778	-0.049018353
11	0x3e11612a	0.14197221
12	0x3c94671a	0.018115569
13	0xbddf3e53	-0.10900559
14	0x3e3ea961	0.186193
15	0x3ca5a85b	0.02022188
16	0x3c13804a	0.009002754
17	0xbd5b619b	-0.05355988
18	0xbcb1e74c	-0.021716736
19	0xbe6a08a9	-0.22854866
20	0xbe47382b	-0.1945502
21	0xbe222bda	-0.1583704
22	0xbee2bba8	-0.44283795
23	0xbeac0b42	-0.3360234
24	0xbe72c23f	-0.23706912
25	0x3e3c72e8	0.18403208
26	0x3e238fde	0.1597285
27	0xbd8ff614	-0.070293576
28	0x3dcaebb1	0.09908236
29	0x3e4d43ea	0.20045438
30	0x3d47665b	0.0486816
31	0x3dd9eecc	0.1064125
32	0x3da4c791	0.08045877
33	0x3dccda3b	0.10002562
34	0x3e06e075	0.13171561
35	0x3db1c96a	0.08680995
36	0xbd078069	-0.033081446
37	0xba932df4	-0.0011228905
38	0xbd25141f	-0.040302392
39	0x3defbd81	0.11706067
40	0xbdc0e83f	-0.094192974
41	0x3c95f83a	0.01830684
42	0xbd272674	-0.040808156
43	0xbe26dfb3	-0.16296272
44	0xbe037648	-0.1283809
45	0xbd7a5113	-0.061112475
46	0xbe6277a6	-0.22115955
47	0xbe3ad40b	-0.1824495
48	0xbeaefbe2	-0.34176546
49	0xbea2f107	-0.31824514
50	0x3e0a81b9	0.13526048
51	0x3d44c5c8	0.04804018
52	0xbdfb8869	-0.122818775
53	0x3dadb9f2	0.08482732
54	0x3e0128e8	0.12613261
55	0xbdc7ce7b	-0.0975618
56	0xbd3905f3	-0.04517169
57	0xbb8515a9	-0.00406142
58	0x3c1f1370	0.009709224
59	0x3d6d8b52	0.057994194
60	0xbe3db5e3	-0.18526416
61	0xbe0ac40b	-0.13551347
62	0xbd625e1f	-0.055265542
63	0x3e03943a	0.12849513
64	0x3d80c5a3	0.06287696
65	0xbe849379	-0.25893763
66	0xbd8c1e5f	-0.0684173
67	0x3d3efda6	0.046628617
68	0x3e6fb90a	0.2341043
69	0x3dcd71f2	0.10031499
70	0xbe7fdf6c	-0.24987572
71	0x3dbf1e21	0.093319185
72	0x3e52c1e2	0.20581773
73	0x3dc008f5	0.093767084
74	0x3e07a56c	0.13246697
75	0x3de4a05b	0.11163398
76	0x3d80a412	0.06281294
77	0xbd80b466	-0.06284408
78	0x3d27487d	0.040840615
79	0xbdd10c23	-0.10207393
80	0xbb6ddc62	-0.0036294688
81	0xbe079ae4	-0.1324268
82	0xbd9ecb45	-0.07753614
83	0x3ddda125	0.108217515
84	0x3e23364c	0.15938681
85	0xbdf19f1b	-0.11797925
86	0xbe9b3816	-0.30316228
87	0xbe2ffe77	-0.17186914
88	0x3e3e69e5	0.18595083
89	0x3e083b0c	0.13303775
90	0xbe939e79	-0.28831843
91	0xbe13bf91	-0.14428546
92	0xbc55098b	-0.0130027635
93	0x3b973f19	0.004615676
94	0x3db75663	0.08952024
95	0xbbae9ccb	-0.00532875
96	0xbe426176	-0.18982491
97	0x3e07e899	0.13272323
98	0x3e205d18	0.15660512
99	0xbe058a3c	-0.13041013
100	0xbdd6c0fd	-0.10486028
101	0xbe0ce8cc	-0.1376068
102	0xbdd62b09	-0.10457427
103	0xbe2733fd	-0.16328426
104	0xbd98ffa7	-0.07470637
105	0x3cf6724d	0.0300838
106	0x3e12339c	0.142775
107	0x3e401967	0.1875969
108	0x3ce37231	0.027764412
109	0x3e35c145	0.17749508
110	0x3d2befe8	0.04197684
111	0x3d20652e	0.039158992
112	0x3d6b4628	0.057439953
113	0x3e0abfad	0.13549681
114	0x3e0027e6	0.1251522
115	0xbd078076	-0.033081494
116	0xbe090102	-0.1337929
117	0xbd9759ac	-0.073901504
118	0x3ccee704	0.025256641
119	0xbc998b50	-0.018743187
120	0x3d5d1985	0.053979415
121	0xbe76afb0	-0.24090457
122	0xbe482ea8	-0.19549048
123	0xbe3157cc	-0.17318648
124	0xbe2d87b0	-0.16946292
125	0xbca803fb	-0.02050971
126	0xb92e2fc6	-0.0001661173
127	0xbda8ca48	-0.08241707
128	0xbce61e69	-0.028090673
129	0xbe55812f	-0.20850061
130	0x3c22fb55	0.009947618
131	0x3e461d19	0.19347037
132	0x3e354d88	0.17705357
133	0x3e6f6116	0.23376879
134	0x3e181bfc	0.14854425
135	0x3d9eac20	0.07747674
136	0x3e0c2ced	0.13689013
137	0x3e6e4f59	0.23272456
138	0x3dc1e40c	0.094673246
139	0x3dc2632d	0.094915725
140	0x3daea48e	0.0852748
141	0xbda69b83	-0.0813513
142	0xbd7b5f3a	-0.061370112
143	0x3d06177b	0.032737236
144	0xbd86a598	-0.06574553
145	0x3d672ae1	0.056437377
146	0xbe53b21b	-0.2067341
147	0xbe393d96	-0.180899
148	0xbd3c3f92	-0.045959063
149	0xbe1b7e7c	-0.15184969
150	0xbe2542be	-0.16138741
151	0xbe44dc82	-0.19224742
152	0xbc705ab4	-0.014670063
153	0xbdd04bb1	-0.10170687
154	0xbe1d09ce	-0.15335771
155	0x3d87b635	0.0662655
156	0xbdcb35d4	-0.09922376
157	0xbd2b616c	-0.041840956
158	0x3e227bbe	0.15867516
159	0x3d65f2f9	0.05613992
160	0x3d0f8f45	0.03504874
161	0x3e3f63ca	0.1869041
162	0x3db98a7a	0.090596154
163	0x3e6f9aff	0.2339897
164	0x3e563cf1	0.20921685
165	0xbc7937bc	-0.015211042
166	0x3ce1a877	0.02754615
167	0xbd679d04	-0.056546226
168	0x3d623730	0.055228412
169	0xbbbcf4cf	-0.005766488
170	0xbd22ee6e	-0.039778166
171	0xbe53efb1	-0.20696904
172	0xbc70faae	-0.014708204
173	0xbe53d296	-0.20685801
174	0xbe012618	-0.12612188
175	0xbca42418	-0.020036742
176	0xbc8b1b6d	-0.016980851
177	0xbcf0faf0	-0.029416531
178	0xbe21ec8b	-0.1581289
179	0xbcceb5c5	-0.025233159
180	0xbcb2d959	-0.021832155
181	0x3d9e958d	0.07743368
182	0xbd837be4	-0.06420115
183	0x3d8be786	0.06831269
184	0x3c98af69	0.01863833
185	0x3d7be427	0.06149688
186	0x3dcf957f	0.10135936
187	0x3d443f54	0.047911957
188	0x3e50365b	0.20333235
189	0x3da83042	0.082123294
190	0xbdbbfe16	-0.091793224
191	0x3d0c1e88	0.034208804
192	0x3afba4a6	0.0019198849
193	0x3da6e301	0.08148766
194	0x3c073e73	0.008254635
195	0xbdfbfd65	-0.123041905
196	0xbe495f2c	-0.19665211
197	0xbc2a9a71	-0.010412798
198	0xbe2bcc10	-0.16777062
199	0xbdd8f4a6	-0.10593538
200	0x3d9b59ac	0.07585463
201	0xbd1c805d	-0.038208354
202	0xbda2022a	-0.07910569
203	0xbdcc17e5	-0.09965495
204	0xbe7bd584	-0.24593168
205	0x3d9b0151	0.075686105
206	0x3e4112ce	0.1885483
207	0x3dd48f08	0.103788435
208	0xbbe020ac	-0.0068398323
209	0xbea22371	-0.31667665
210	0xbcbc7564	-0.023005195
211	0x3d8f7830	0.07005346
212	0x3d9586aa	0.07301076
213	0xbe516c33	-0.20451431
214	0xbe168552	-0.14699295
215	0x3de5d527	0.11222296
216	0x3d179871	0.037010614
217	0x3da43f78	0.08019918
218	0xbe1c4b21	-0.15263034
219	0xbd97c9ee	-0.07411562
220	0x3e41e432	0.18934706
221	0x3e4d3ed1	0.20043494
222	0xbd35d1fd	-0.044389714
223	0x3b78ad3f	0.003794506
224	0xbc570d74	-0.013125766
225	0xbd8e13bd	-0.069373585
226	0x3dd42196	0.103579685
227	0x3e14b262	0.14521173
228	0xbd832544	-0.06403592
229	0xbe96b688	-0.29436135
230	0xbe264a6f	-0.16239332
231	0x3d8fb2bc	0.07016513
232	0x3dafb27e	0.085789666
233	0xbe310050	-0.17285275
234	0xbe3db687	-0.1852666
235	0xbdc74d64	-0.09731558
236	0x3e62f8dd	0.22165246
237	0x3c5a3e0e	0.013320459
238	0xbded48fa	-0.11586185
239	0x3d284073	0.04107709
240	0xbd144309	-0.036196742
241	0x3ddbafc8	0.10726887
242	0x3db16742	0.08662273
243	0xbd7e75a4	-0.06212391
244	0x3c27ba0f	0.010237231
245	0x3d844bda	0.0645978
246	0x3d385b35	0.045008857
247	0xbd5165e5	-0.051122565
248	0x3bafbf7d	0.0053634034
249	0xbd815bdd	-0.0631635
250	0x3d9b97ff	0.0759735
251	0xbd4887fe	-0.048957817
252	0xbd0d7092	-0.034531184
253	0xbe1091b1	-0.14118077
254	0xbb023e25	-0.0019873467
255	0xbe24c247	-0.16089736

3.weight f4 [32, 20, 5, 5]
0	0xbe07cb87	-0.13261233
1	0xbdef2781	-0.11677457
2	0xbe23bc74	-0.15989858
3	0xbe03cc3f	-0.12870882
4	0x3c6dbce7	0.01451037
5	0xbd960c41	-0.07326556
6	0xbe075f34	-0.13219911
7	0xbe027fad	-0.12744017
8	0x3c979c2b	0.018507084
9	0x3c09925f	0.008396714
10	0xbde6f13a	-0.11276479
11	0xbe03ccbd	-0.1287107
12	0xbe0a5c97	-0.13511883
13	0xbdbc6694	-0.09199253
14	0xbdc06a2b	-0.0939525
15	0x3dcb2513	0.09919181
16	0xbd646e37	-0.05576917
17	0xbd9ee642	-0.07758762
18	0xbdd2b21c	-0.10287878
19	0xbcd9f5b9	-0.026606428
20	0x3dec9dfc	0.11553571
21	0x3cb7e186	0.022446405
22	0xbdc72c9a	-0.09725304
23	0xbd6cb84b	-0.057792943
24	0x3e327825	0.17428644
25	0xbda5653c	-0.080759495
26	0x3bc6793d	0.006056933
27	0x3c749cea	0.014929989
28	0x3d2d94eb	0.042378347
29	0xbd251ade	-0.040308826
30	0x3c8e71a1	0.017388167
31	0xbc90b368	-0.017663673
32	0xbc6a4ba0	-0.014300257
33	0x3cac1c03	0.02100945
34	0xbd0aa44f	-0.033848103
35	0xbd16ca3c	-0.03681396
36	0xbe13bb65	-0.14426954
37	0xbe2d51c7	-0.16925727
38	0xbcfe1124	-0.031014033
39	0x3cc7fa70	0.02441141
40	0xbd3a4237	-0.045473304
41	0xbd3f2c7b	-0.04667328
42	0x3d3a2840	0.04544854
43	0x3e28b5d0	0.16475606
44	0x3e024e0b	0.12725084
45	0x3d7c2219	0.061555956
46	0x3dcd1bf8	0.100151
47	0x3e1104cf	0.1416199
48	0x3d95f72a	0.073225334
49	0xbd9f36db	-0.07774135
50	0x3e00793a	0.12546244
51	0xbcbbdbc3	-0.022931939
52	0xbd077645	-0.033071775
53	0x3b5e23ea	0.0033895918
54	0xbd802b2a	-0.06258233
55	0xbcbbae0f	-0.022910146
56	0x3d4216a9	0.04738489
57	0x3e3f0247	0.18653212
58	0x3d51e033	0.051239204
59	0xbc118930	-0.008882806
60	0xbceb1285	-0.028695354
61	0xbc1ef9b8	-0.009703092
62	0x3cde9628	0.02717121
63	0xbd8e9a73	-0.069630526
64	0xbd564af1	-0.052317563
65	0x3de2ea94	0.110798985
66	0x3cc60d9e	0.024176415
67	0xbd7fac9b	-0.06242047
68	0xbde40747	-0.111342005
69	0xbc0e21d9	-0.008675062
70	0x3d2b017a	0.041749455
71	0xbda6f182	-0.08151533
72	0xbd810597	-0.06299894
73	0x3d4bcc20	0.049755216
74	0x3dfefeb7	0.12450927
75	0xbdd12418	-0.102119625
76	0xbdbcf176	-0.092257425
77	0xbd931abd	-0.07182834
78	0x3c0339ce	0.008009387
79	0xbd56444d	-0.05231123
80	0xbd4081a1	-0.046998624
81	0x3d332154	0.043732956
82	0x3d001163	0.03126658
83	0x3d98eec7	0.07467418
84	0xbba8fbd2	-0.0051569724
85	0x3da56b6b	0.08077129
86	0x3bd0f4f9	0.0063768593
87	0x3c6267a0	0.013818651
88	0x3d827cef	0.063714854
89	0xbc067b66	-0.008208131
90	0x3dbb59e1	0.091480024
91	0xbd60f27b	-0.054918747
92	0xbdeb22dc	-0.11481258
93	0xbd9d2647	-0.076733164
94	0xbc237566	-0.00997672
95	0xbdea68f7	-0.11445802
96	0xbd7b24a0	-0.061314225
97	0xbc8bf528	-0.017084673
98	0x3d132f58	0.035933822
99	0x3dd87778	0.10569662
100	0xbe2800b7	-0.16406523
101	0xbe57d930	-0.21078944
102	0xbd627f6a	-0.055297293
103	0xbd67ccf9	-0.05659196
104	0x3e0cbcff	0.13743971
105	0xbf11bd5c	-0.56929564
106	0xbedd767e	-0.43254465
107	0xbe2dc488	-0.16969502
108	0xbe0ade03	-0.13561253
109	0x3dd79bf2	0.10527791
110	0xbf0f655d	-0.56014043
111	0xbf3171ab	-0.6931407
112	0xbf2641fe	-0.64944446
113	0xbeb08325	-0.34475055
114	0xbc765659	-0.015035235
115	0xbed1f2a2	-0.41005427
116	0xbee0c64a	-0.43901283
117	0xbece5072	-0.4029575
118	0xbdd07076	-0.101777
119	0xbd8410ab	-0.06448492
120	0xbeaf6db1	-0.34263375
121	0xbea55fa1	-0.32299522
122	0xbe8b0cc1	-0.27158168
123	0xbd7f3042	-0.06230188
124	0x3cb582b9	0.02215706
125	0xbe435521	-0.19075443
126	0xbda76211	-0.081730016
127	0xbd632ed7	-0.05546459
128	0x3ca9bc18	0.020719573
129	0xbbeb5723	-0.0071820184
130	0xbda00fbf	-0.07815503
131	0xbd22b63a	-0.039724566
132	0xbd00ec65	-0.031475443
133	0x3dad40b5	0.084596075
134	0x3daa4c88	0.083153784
135	0x3da14543	0.07874539
136	0xbd04ab16	-0.032389723
137	0xbd64863c	-0.05579208
138	0xbbbee3a6	-0.0058254777
139	0x3d92562b	0.071453415
140	0x3dba9a6c	0.09111485
141	0xbd5b8828	-0.053596646
142	0xbd8018db	-0.06254741
143	0xbd2edfe8	-0.042694002
144	0x3caa03e5	0.02075381
145	0xbda94ac3	-0.08266213
146	0xbca1167e	-0.019664045
147	0xbcc191d4	-0.023629107
148	0xbc2b41ad	-0.01045267
149	0x3dbe7f35	0.093016066
150	0xbde14091	-0.10998643
151	0xbd9810d7	-0.07425087
152	0xbc98b760	-0.018642128
153	0x3cad6579	0.02116655
154	0xbc8483e9	-0.01617618
155	0xbdfccaac	-0.12343344
156	0x3bfa0461	0.0076299165
157	0x3a6aa802	0.0008951427
158	0xbab29f70	-0.0013627838
159	0xbc77de83	-0.0151287345
160	0xbd96d9aa	-0.07365735
161	0xbba1a09c	-0.004932476
162	0xbd5dcb25	-0.05414881
163	0xbdd25c47	-0.10271507
164	0xbd971ac1	-0.0737815
165	0xbe7322da	-0.23743764
166	0xbe2839bf	-0.16428278
167	0xbd952e57	-0.07284229
168	0x3cc8cdf0	0.024512261
169	0xbbd8fdb6	-0.0066220416
170	0x3d103426	0.035205983
171	0x3d5cc6e3	0.05390061
172	0x3df59475	0.119912066
173	0x3c0bda0b	0.008535872
174	0xbd0a826d	-0.03381579
175	0xbcb92a19	-0.022603082
176	0xbb232a1e	-0.002489693
177	0x3d191084	0.037369266
178	0x3d6c4257	0.057680454
179	0x3d93da7c	0.07219407
180	0x3db9e3d0	0.09076655
181	0x3dbfe4e5	0.0936983
182	0x3dab9c62	0.08379437
183	0x3d9a9929	0.07548744
184	0x3dec97bf	0.11552381
185	0x3a88e04c	0.0010442822
186	0xbd823880	-0.06358433
187	0xbe56ab4f	-0.20963787
188	0xbe47fed8	-0.19530809
189	0xbd1c567f	-0.038168427
190	0xbe7bb89b	-0.2458214
191	0xbe072fe8	-0.13201869
192	0x3d31f013	0.043441843
193	0xbcb3f15f	-0.02196568
194	0xbccd9b15	-0.025098363
195	0x3b8a7f6e	0.0042266166
196	0x3d8158ea	0.06315787
197	0x3de9a35d	0.11408112
198	0xbdb49088	-0.0881663
199	0xbe3a93a2	-0.1822038
200	0xbe6040f6	-0.2189978
201	0xbe470eb7	-0.19439207
202	0xbdda4ac6	-0.10658793
203	0xbda79b38	-0.081839025
204	0x3d38d1bc	0.045121893
205	0xbeaa2f42	-0.3323918
206	0xbe41fd88	-0.18944371
207	0xbd7f8205	-0.062379856
208	0xbdb413e3	-0.087928556
209	0xbcb9f7c0	-0.022701144
210	0xbe0d9dc7	-0.13829719
211	0xbdecc4c7	-0.1156097
212	0xb9e33a52	-0.00043340266
213	0xbd8d33ea	-0.068946674
214	0xbe57e4a9	-0.2108332
215	0xbe08d130	-0.13361049
216	0xbd8c1b80	-0.06841183
217	0xbd72d905	-0.059288997
218	0xbe1a67b3	-0.1507862
219	0xbe419d83	-0.18907742
220	0xbe832b0b	-0.25618777
221	0xbe930527	-0.28714868
222	0xbe2c3997	-0.16818844
223	0xbe417506	-0.18892297
224	0xbda40283	-0.080082916
225	0xbd8036e4	-0.062604696
226	0xbd92ed6a	-0.071741894
227	0xbc7fe9f7	-0.015619746
228	0x3b1f3d7f	0.002429813
229	0x3d995836	0.07487528
230	0xbd213b38	-0.039363116
231	0x3dd2a2e0	0.10284972
232	0x3d992aa4	0.07478836
233	0x3cf9f494	0.030512132
234	0x3c80a365	0.015702913
235	0x3d604d49	0.054761205
236	0x3db072b7	0.0861563
237	0x3cf9477b	0.030429592
238	0xbd2dc27f	-0.042421814
239	0xbdb2891f	-0.0871756
240	0xbdef064a	-0.116711214
241	0xbd8ad2ed	-0.06778512
242	0x3c8d59a2	0.017254654
243	0xbdb16ad1	-0.08662952
244	0xbddb0d48	-0.106958926
245	0xbd4a2394	-0.049350336
246	0x3d5d7484	0.054066196
247	0x3d3b7a73	0.045771074
248	0xbdfc1d03	-0.12310221
249	0xbde0c276	-0.109745905
250	0x3bafe247	0.0053675505
251	0x3d277c90	0.040890276
252	0x3cf641d0	0.030060679
253	0x3e15aad2	0.14615944
254	0x3dc4c2bf	0.09607457
255	0x3d457a96	0.04821261

6.weight f4 [128, 32, 3, 3]
0	0xbd0a74a8	-0.03380266
1	0xbd83e753	-0.06440606
2	0x3db0f17f	0.08639812
3	0xbc1eb82f	-0.0096874675
4	0xbcadba76	-0.021207076
5	0xbda36bc1	-0.07979537
6	0x3da02522	0.078195825
7	0x3cd8a5f1	0.026446315
8	0xbe2353d3	-0.15949945
9	0x399a0bc3	0.00029381932
10	0xbc810df2	-0.01575372
11	0xbdaf2698	-0.08552283
12	0x3d1ebc72	0.038753934
13	0x3d31c553	0.043401074
14	0xbd80d57b	-0.06290718
15	0x3ccb20ec	0.024795972
16	0x3dd9703c	0.1061711
17	0xbe11125b	-0.14167158
18	0x3d7c8ca2	0.061657555
19	0xbd86843b	-0.0656819
20	0xbcee1540	-0.029062867
21	0x3d87fa05	0.06639484
22	0x3de644f2	0.11243619
23	0xbc527197	-0.012844465
24	0xbd3fd55e	-0.046834342
25	0xbd80fe71	-0.06298531
26	0x3e0063cb	0.12538068
27	0xbe04b354	-0.12959033
28	0x3d9511be	0.07278775
29	0x3df7037a	0.1206121
30	0x3e1ad7d3	0.15121393
31	0xbd0cde3b	-0.034391623
32	0xbdb51556	-0.0884196
33	0xbd9ca624	-0.07648876
34	0x3c471696	0.012151381
35	0x3d669a17	0.056299295
36	0x3d5c87fc	0.053840622
37	0x3c952fbb	0.018211236
38	0x3e115f27	0.14196454
39	0x3c00b5ef	0.007855876
40	0x3daf4e44	0.0855985
41	0xbdc8d26e	-0.09805761
42	0x3d132077	0.035919633
43	0xbdfc74ad	-0.12326942
44	0xbe08083f	-0.13284396
45	0xbe1695d2	-0.1470559
46	0xbc163e19	-0.009170079
47	0x3d72de23	0.059293877
48	0xbd7a4e90	-0.06111008
49	0xbad73253	-0.0016418196
50	0xbd810afd	-0.06300924
51	0xbd2b876f	-0.041877206
52	0x3d9b4bb3	0.07582798
53	0xbc3db10f	-0.011577859
54	0x3c128fa7	0.008945382
55	0x3d5c6cc8	0.05381468
56	0xb8c5ab4c	-9.4255985e-05
57	0xbc52f6ee	-0.012876255
58	0xbd76bd62	-0.060239203
59	0x3dcc4e77	0.099759035
60	0xbdd76645	-0.10517553
61	0x3b75731b	0.0037452641
62	0xbccbcbf3	-0.024877524
63	0xbdc71703	-0.09721186
64	0xbd3309e2	-0.043710597
65	0xbdd88a5a	-0.105732635
66	0xbdd4a01a	-0.103820994
67	0xbd9d9ad8	-0.0769555
68	0xbd9173c4	-0.07102159
69	0x3db06d21	0.08614565
70	0xbcd84e9d	-0.026404673
71	0xbc93034d	-0.01794591
72	0xbe548ffc	-0.2075805
73	0xbd59efc2	-0.053207166
74	0x3d110181	0.035401825
75	0x3dfd98c4	0.12382653
76	0x3d248baa	0.040172257
77	0xbd5dd801	-0.054161076
78	0xbe833a69	-0.256305
79	0xbe993fbf	-0.29931447
80	0x3e1723af	0.14759706
81	0x3b9a732c	0.0047134366
82	0x3c55e691	0.01305546
83	0xbdba57ae	-0.09098755
84	0x3e15e25a	0.14637128
85	0x3ddc4508	0.10755354
86	0xbda1cc9c	-0.07900354
87	0xbe2d6717	-0.16933857
88	0x3d596deb	0.05308334
89	0xbc96c507	-0.018404497
90	0xbc4b3842	-0.01240355
91	0x3d5c97a3	0.05385555
92	0xbd91a371	-0.07111252
93	0x3d03d4e3	0.032185446
94	0x3d4afa01	0.04955483
95	0x3db704c9	0.089364596
96	0x3d968ee9	0.07351477
97	0xbcea2737	-0.028583152
98	0x3dc7e892	0.09761156
99	0xbd842c36	-0.06453745
100	0xbaff1427	-0.0019460962
101	0x3e32d1cf	0.17462848
102	0x3e282527	0.16420422
103	0xbde09cf1	-0.10967434
104	0xbc17da0f	-0.009268298
105	0x3deac448	0.11463219
106	0x3d2cd5e4	0.04219617
107	0xbdc36681	-0.095410354
108	0x3d5abb26	0.053401135
109	0xbcd700a2	-0.026245419
110	0x3c64d954	0.013967831
111	0x3d1a0e7a	0.037611462
112	0xbd244d1f	-0.04011261
113	0xbd0807dc	-0.03321062
114	0x3cd28502	0.025698189
115	0x3d4ecc1c	0.050487623
116	0x3d55ef8c	0.052230403
117	0xbde41e72	-0.111386195
118	0xbc6ec46b	-0.014573197
119	0x3d20bdf6	0.03924366
120	0xbd7ab0ce	-0.06120377
121	0x3c9f4977	0.01944421
122	0xbda6298c	-0.08113393
123	0xbcee94d3	-0.0291237
124	0x3cd9ba67	0.026578141
125	0x3e15984b	0.14608876
126	0xbdf5a7a9	-0.11994869
127	0xbe2406da	-0.16018239
128	0x3d023322	0.031787045
129	0xbc35c0f9	-0.011093372
130	0x3cba8be8	0.02277179
131	0xbdaee2dd	-0.085393645
132	0x3d14d9f7	0.03634068
133	0x3c7f14d7	0.015568933
134	0x3e432b78	0.19059551
135	0x3c8ca8ce	0.017170336
136	0xbc385343	-0.01125032
137	0xbd18833b	-0.037234526
138	0xbd719c63	-0.058987033
139	0x3dff37af	0.12461793
140	0x3d675c17	0.056484308
141	0x3cca660f	0.024706868
142	0x3cf1ec60	0.029531658
143	0xbd012cdf	-0.031536933
144	0x3ae33ecd	0.0017337442
145	0xbe4d67ef	-0.20059179
146	0xbdddae6d	-0.10824285
147	0xbb815298	-0.0039466135
148	0xbc1b5e75	-0.0094829695
149	0xbe1b2a8b	-0.15152948
150	0xbc2c0da9	-0.010501304
151	0x3b093971	0.0020938779
152	0x3e06823b	0.13135616
153	0x3d33ca6d	0.04389422
154	0x3e19eb5d	0.1503119
155	0xbd579eeb	-0.05264179
156	0xbc6b385f	-0.014356702
157	0xbdcba4a3	-0.09943511
158	0x3c80f890	0.015743524
159	0x3d945de0	0.07244468
160	0xbd6a3b79	-0.057185624
161	0xbd49c876	-0.04926344
162	0x3d5e84a4	0.054325715
163	0xbdb7bb82	-0.08971311
164	0xbce33e04	-0.027739532
165	0xbd1a7f09	-0.037718806
166	0x3d91991d	0.07109282
167	0xbd621870	-0.055199087
168	0xbc14ddbf	-0.0090860715
169	0x3bb900df	0.005645856
170	0xbdddea73	-0.10835733
171	0x3d0879f3	0.033319425
172	0x3d5c3119	0.05375776
173	0x3d46b034	0.048507884
174	0x3ca14eb7	0.019690854
175	0xbdf98d10	-0.12185109
176	0xbe3b3b15	-0.18284257
177	0x3d59acbb	0.053143244
178	0xbcff9bf7	-0.0312023
179	0x3e00e117	0.12585865
180	0xbdf81801	-0.121139534
181	0x3d0c8582	0.03430701
182	0x3e05133e	0.12995622
183	0x3e2b31c9	0.1671821
184	0x3ddd8c57	0.10817783
185	0xbdcb7fde	-0.09936498
186	0xbb45d41e	-0.0030186246
187	0xbd50243a	-0.0508158
188	0x3b63018a	0.0034638369
189	0x3a1b5f1d	0.0005926954
190	0xbd27ee05	-0.040998477
191	0xbe5454d6	-0.20735487
192	0x3d76150c	0.060078666
193	0xbdf7a93b	-0.12092825
194	0xbda241d6	-0.079227135
195	0xbe441139	-0.19147195
196	0xbd4ff01a	-0.050766088
197	0x3de63913	0.11241355
198	0x3d9e9f38	0.07745212
199	0xbd3639c2	-0.044488676
200	0x3d2f5bb9	0.042812083
201	0xbd771521	-0.060322884
202	0x3da4944b	0.08036097
203	0x3da4080d	0.08009348
204	0xbd71d7f6	-0.059043847
205	0xbe4a5a93	-0.19761114
206	0x3d16ec32	0.036846347
207	0x3d07a941	0.033120397
208	0xbd0269d3	-0.031839203
209	0xbd89529e	-0.06705211
210	0x3b8e44ba	0.004341689
211	0xbd9f6f11	-0.07784856
212	0xbe142a3c	-0.14469236
213	0xbdc563d1	-0.09638179
214	0x3c88ecff	0.016714571
215	0x3e44f74b	0.1923496
216	0xbde64bb9	-0.11244912
217	0xbd28de5b	-0.04122768
218	0xbd41a7a6	-0.047279023
219	0x3cd61a31	0.026135536
220	0xbbb7ab5c	-0.0056051444
221	0xbe67f745	-0.2265292
222	0x3dc8e74e	0.09809743
223	0x3dd65b36	0.10466616
224	0xbe09321b	-0.1339802
225	0x3c90397b	0.017605534
226	0x3cb2fc8e	0.021848943
227	0x3c7f4b24	0.01558188
228	0x3b702f87	0.0036649422
229	0x3de549a9	0.1119569
230	0xbd2ae6db	-0.041724067
231	0xbd115068	-0.035477072
232	0xbe01e75a	-0.1268591
233	0xbe57d1d2	-0.21076134
234	0xbd306425	-0.043064255
235	0x3d688abf	0.056772944
236	0xbda69ed9	-0.081357665
237	0x3e172717	0.14761005
238	0xbd1c1aff	-0.038111683
239	0xbe854259	-0.26027182
240	0x3cc345eb	0.02383705
241	0x3d9d4dfe	0.076808915
242	0xbe10e6ba	-0.14150515
243	0x3e33d86a	0.17563024
244	0xbe1216bc	-0.14266485
245	0xbe038cf5	-0.1284674
246	0x3e10579c	0.1409592
247	0xbb2a2738	-0.0025963318
248	0xbd63c086	-0.055603527
249	0x3d327be4	0.043575183
250	0x3d829933	0.06376877
251	0x3d74f7f2	0.05980677
252	0xbd402bdd	-0.04691683
253	0x3d3a9cc1	0.04555965
254	0x3d16db9c	0.03683053
255	0xbba38867	-0.0049906257

10.weight f4 [500, 128]
0	0x3d97572b	0.07389673
1	0x3dec6ab8	0.115437925
2	0x3de64956	0.112444565
3	0xbcfefcbf	-0.031126378
4	0xbd53c553	-0.051701855
5	0xbda8c229	-0.08240158
6	0x3e0ce4f6	0.13759217
7	0xbe0bdf21	-0.13659336
8	0x3da62f60	0.08114505
9	0xbde073d0	-0.109595895
10	0xbdc96223	-0.09833171
11	0x3db390eb	0.08767875
12	0xbd52bf37	-0.051451888
13	0x3d8dbd63	0.06920888
14	0xbdbb5753	-0.09147515
15	0x3d80d0c4	0.06289819
16	0x3d4c9890	0.049950182
17	0x3c1bda62	0.009512516
18	0xbd9107e5	-0.07081584
19	0x3d7113a5	0.058856625
20	0xbcd0eaac	-0.025502525
21	0xbdb572a5	-0.08859757
22	0xbe25cfd2	-0.16192558
23	0x3da6562e	0.08121906
24	0xbdb0afa7	-0.08627253
25	0xbdcc239c	-0.099677294
26	0x3cde9787	0.027171863
27	0xbb5ec2a1	-0.003399052
28	0x3debfbd6	0.11522643
29	0xbd21114f	-0.039323147
30	0xbdfa27f9	-0.122146554
31	0x3b94a8f3	0.004536742
32	0x3defba8a	0.117055014
33	0xbdc7cd9c	-0.09756014
34	0x3d219778	0.039451092
35	0xbdedc209	-0.11609275
36	0x3c96c6ff	0.018405436
37	0xbd329c31	-0.043605987
38	0x3c73d0b8	0.014881305
39	0xbe534981	-0.20633508
40	0xbc14c3d2	-0.00907989
41	0xbdcdab16	-0.10042398
42	0x3d89a9ac	0.067218155
43	0x3d967ff4	0.07348624
44	0xbd518527	-0.051152375
45	0xbd9deea3	-0.07711532
46	0x3e27a6f7	0.16372286
47	0x3e18b1f7	0.14911638
48	0x3d79c7d5	0.06098159
49	0xbda98515	-0.082773365
50	0x3d9fb94e	0.07799016
51	0x3dccb961	0.09996296
52	0x3e0a9700	0.13534164
53	0x3d1662a2	0.036715157
54	0xbcbd8e4b	-0.02313914
55	0xbd4fc1b4	-0.05072184
56	0x3ca57ff2	0.02020261
57	0xbe35086e	-0.17678997
58	0x3b873397	0.004126023
59	0xbe157900	-0.14596939
60	0xbd22bf97	-0.039733496
61	0x3dd76392	0.105170384
62	0x3d2dd738	0.042441577
63	0x3dc52b6d	0.096274234
64	0x3cf7d7b0	0.030254215
65	0xbd791d27	-0.060818817
66	0x3d401b6b	0.046901148
67	0x3e134efa	0.14385596
68	0xbdf1ec9a	-0.11812706
69	0xbd4687d7	-0.04846939
70	0x3dd08692	0.10181917
71	0xbe15de9e	-0.14635703
72	0x3d66a257	0.056307163
73	0xbe124ff8	-0.14288318
74	0x3d2a67aa	0.041602768
75	0xbd2c9cd5	-0.042141754
76	0x3dd4cfe3	0.10391214
77	0x3dccbaa7	0.099965386
78	0x3d96b60f	0.07358944
79	0xbcd3fe60	-0.025878131
80	0x3d91b0f3	0.071138285
81	0x3d88077e	0.06642054
82	0xbd2e152c	-0.04250066
83	0xbd86639d	-0.065619685
84	0x3d7532f5	0.05986305
85	0xbbdd3254	-0.0067503843
86	0x3cda4b71	0.026647301
87	0xbe3d74db	-0.18501608
88	0xbc05f6a2	-0.008176478
89	0x3e558f3d	0.20855422
90	0xbe52a485	-0.20570572
91	0xbe255ce3	-0.16148715
92	0x3dcee877	0.10102933
93	0xbe10fee3	-0.14159732
94	0x3d8645de	0.06556295
95	0x3c18d803	0.009328845
96	0x3d787019	0.06065378
97	0xbe5bd208	-0.2146684
98	0xbd959bdd	-0.07305119
99	0x3d4862c9	0.048922334
100	0x3de667ad	0.11250243
101	0xbe0ef219	-0.1395954
102	0xbe05e6a5	-0.13076265
103	0xbe54f558	-0.20796716
104	0x3e168ed6	0.14702925
105	0x3e2af3f5	0.16694625
106	0x3d8c5212	0.06851591
107	0x3d721408	0.059101135
108	0x3ccd25cd	0.025042439
109	0xbdd4ba7f	-0.10387134
110	0x3de7515f	0.11294817
111	0xbdc60c6d	-0.09670339
112	0xbe04242d	-0.12904425
113	0xbd6e2e88	-0.058149844
114	0xbd4f17aa	-0.050559677
115	0xbbc0b012	-0.005880364
116	0x3dcd688b	0.100297056
117	0x3c83f331	0.016107174
118	0xbdca43b3	-0.09876194
119	0x3c8e8edc	0.017402105
120	0xbcf0c582	-0.029391054
121	0x3d4fcca7	0.05073228
122	0xbd11a463	-0.035557162
123	0xbe149392	-0.14509419
124	0x3d0c211f	0.034211274
125	0x3bdfd84e	0.0068312054
126	0xbdbf8384	-0.093512565
127	0xbd552ef1	-0.05204672
128	0xbe09202d	-0.1339118
129	0x3c3b0af3	0.011416185
130	0xbe1c05e6	-0.15236625
131	0x3c97a943	0.018513327
132	0xbe0535fc	-0.13008875
133	0x3d9f2e13	0.0777246
134	0xbce56c4d	-0.028005743
135	0xbd72d681	-0.059286598
136	0xbc2814e1	-0.010258884
137	0x3d86c573	0.06580629
138	0xbe265059	-0.16241588
139	0xbd9af260	-0.075657606
140	0x3c916930	0.017750353
141	0xbd7a58b9	-0.06111977
142	0xbe0affdb	-0.13574164
143	0x3d9971b0	0.07492387
144	0x3c1825a6	0.00928632
145	0xbd96782e	-0.07347141
146	0xba25f8b9	-0.0006331313
147	0xbd30533e	-0.043048136
148	0x3ad8351f	0.0016495324
149	0x3d0eefdb	0.034896713
150	0xbdd24757	-0.10267513
151	0xbb61f942	-0.0034480845
152	0xbdbf231b	-0.09332868
153	0xbdcc4910	-0.09974873
154	0x3cb133ef	0.02163121
155	0xbd9746b4	-0.073865324
156	0xbd94d4a6	-0.07267122
157	0x3c216c83	0.009852531
158	0xbe25f773	-0.16207676
159	0xbe00a522	-0.12562993
160	0x3d72ab49	0.05924538
161	0xbdbbe7cb	-0.091750704
162	0x3d4d2f6d	0.050094057
163	0x3c6619b9	0.014044219
164	0x3c9d9d1a	0.01923995
165	0xbdf387ff	-0.118911736
166	0x3d47abc2	0.048747785
167	0xbe00e506	-0.12587366
168	0xbcc5abbb	-0.024129739
169	0x3da5b2bf	0.08090734
170	0xbe3183c2	-0.17335418
171	0xbcc0e853	-0.02354828
172	0xbda24ff5	-0.07925407
173	0xbcccf178	-0.025017485
174	0xbca9ce15	-0.02072815
175	0xbb618ec4	-0.003441737
176	0x3adc9700	0.001682967
177	0x3c8811d2	0.01661006
178	0xbd93a2b8	-0.072087705
179	0x3d7a350e	0.061085753
180	0x3d8b41b9	0.06799645
181	0x3e31e7b2	0.17373541
182	0xbd85ff9d	-0.06542895
183	0x3e0025b8	0.12514389
184	0xbe23d514	-0.15999252
185	0xbd8e2568	-0.069407284
186	0x3d07fe97	0.03320178
187	0xbd21c09a	-0.03949032
188	0x3bd8e976	0.0066196276
189	0x3cb7c47c	0.022432558
190	0x3d768007	0.06018069
191	0xbe0144b0	-0.12623858
192	0x3ca9716c	0.020683967
193	0x3c34f38a	0.011044392
194	0xbde6ea87	-0.11275201
195	0xbcf4aaf8	-0.02986668
196	0xbd647225	-0.05577292
197	0xbc55e123	-0.013054165
198	0xbde66227	-0.1124919
199	0xbc9f56ad	-0.01945051
200	0xba4e1575	-0.0007861474
201	0xbe07177e	-0.13192555
202	0xbe02974a	-0.12753025
203	0x3d1f27fc	0.03885649
204	0x3dfc4c2d	0.12319217
205	0xbd8c8daa	-0.06862958
206	0x3d3a5b53	0.04549725
207	0x3e01b01a	0.12664834
208	0xbd878467	-0.066170506
209	0xbd8f9b76	-0.07012074
210	0xbd3e0f82	-0.04640151
211	0x3d0e4e22	0.034742482
212	0xbdb5b3b7	-0.088721685
213	0xbd801e32	-0.06255759
214	0xbd6eb01a	-0.058273412
215	0xbd708fdb	-0.05873094
216	0xbd89106f	-0.066925876
217	0x3d8f8c03	0.07009127
218	0xbd071269	-0.03297654
219	0x3d65dbda	0.05611787
220	0xbd192faa	-0.03739897
221	0xbd384399	-0.04498634
222	0x3da18764	0.07887152
223	0xbe073f3f	-0.1320772
224	0xbe2ec13b	-0.17065899
225	0x3bab8ae4	0.005235063
226	0xbde7f60d	-0.11326227
227	0xbd41939e	-0.04725992
228	0xbc3770e4	-0.011196349
229	0xbd23fa3c	-0.040033564
230	0xbc361746	-0.011113947
231	0xbd657134	-0.056016162
232	0x3d6f95cd	0.05849247
233	0xbddd60aa	-0.10809453
234	0xbdd96485	-0.10614876
235	0x3c58e224	0.01323751
236	0x3ccf9f69	0.025344567
237	0x3d3f9817	0.046775904
238	0xbb54a25e	-0.0032445411
239	0x3cb11ed0	0.021621138
240	0xbbb24259	-0.005440038
241	0xbe36cf3b	-0.1785249
242	0x3daeb7f3	0.08531179
243	0xbd5bd811	-0.053672854
244	0xbe111089	-0.14166464
245	0xbd870603	-0.065929435
246	0xbd5f43ee	-0.054508142
247	0xbdf55a6b	-0.119801365
248	0x3d915f86	0.07098298
249	0x3d872deb	0.06600555
250	0xbdda6478	-0.10663694
251	0xbca77e98	-0.020446107
252	0xbd7c166d	-0.061544824
253	0xbe1ce072	-0.15319994
254	0xbdd40343	-0.103521846
255	0xbd9a7591	-0.07541955

12.weight f4 [10, 500]
0	0xbd2a76b0	-0.041617095
1	0xbcf956fa	-0.030436981
2	0xbe63da50	-0.22251248
3	0xbdac3d92	-0.08410181
4	0xbdb94ba4	-0.090476304
5	0x3d45df58	0.0483087
6	0x3d0379e3	0.032098662
7	0xbd6442bd	-0.05572771
8	0xbdcc6396	-0.09979932
9	0xbcdb277a	-0.026752222
10	0xbe1ca6e8	-0.15298045
11	0xbcdf8a43	-0.027287608
12	0x3d04920e	0.03236585
13	0x3dadd5bc	0.08488032
14	0x3dc52745	0.09626631
15	0xbd4244bf	-0.047428843
16	0x3cb8fad5	0.022580544
17	0xbdc993b2	-0.09842624
18	0xbe63c7fd	-0.22244258
19	0x3de12752	0.10993828
20	0x3dd5170d	0.10404787
21	0xbe7de901	-0.24795915
22	0xbd4d61cb	-0.05014209
23	0x3d9ff36b	0.078101
24	0x3d0b6e08	0.03404048
25	0xbb3052c4	-0.00269048
26	0xbc8c9598	-0.017161176
27	0xbe8a5c24	-0.27023423
28	0xbc9a706b	-0.018852433
29	0xbe46e5e0	-0.19423628
30	0xbde89081	-0.11355687
31	0x3e0b6205	0.1361161
32	0xbc2d331b	-0.0105712665
33	0xbdf3fed0	-0.11913836
34	0xbd0e62a8	-0.034762055
35	0xbb90b07c	-0.00441557
36	0xbe1bef48	-0.15227997
37	0xbd945318	-0.072424114
38	0x3d26c01d	0.040710557
39	0x3d12a5f9	0.035802815
40	0x3db159fa	0.0865974
41	0xbc1c1ff6	-0.009529104
42	0xbe0c19d2	-0.13681725
43	0xbe1eac79	-0.1549548
44	0xbc84b881	-0.01620126
45	0xbdc15b3c	-0.0944123
46	0xbe244ee1	-0.16045715
47	0xbd7a932b	-0.061175507
48	0xbd04dac7	-0.032435205
49	0x3d90b96b	0.07066616
50	0xbd950833	-0.072769545
51	0xbdedebd8	-0.11617249
52	0xbdff685a	-0.12471075
53	0xbd43346c	-0.047657415
54	0xbdafbf36	-0.085813925
55	0xbce6840f	-0.028139142
56	0x3cb9137b	0.022592297
57	0x3db99b0d	0.09062777
58	0x3d3373ee	0.04381173
59	0x3dc79c45	0.09746603
60	0xbcb5e4ce	-0.02220383
61	0xbda6e584	-0.081492454
62	0xbc983dc1	-0.018584134
63	0x3d1c59be	0.038171522
64	0xbd0429e6	-0.03226652
65	0x3dee959c	0.116496295
66	0xbe0c8697	-0.13723217
67	0x3d435564	0.047688857
68	0xbccdaf21	-0.025107922
69	0xbd6cf42a	-0.05785004
70	0x3d5169c9	0.051126275
71	0x3d2899c9	0.041162286
72	0xbcbf6afe	-0.023366448
73	0x3d1a908b	0.037735503
74	0x3b44f431	0.0030052776
75	0xbd9b41e3	-0.07580926
76	0xbc6ed1a9	-0.014576354
77	0x3d04844a	0.032352723
78	0xbce82158	-0.028336212
79	0x3cb2512a	0.021767218
80	0x3dee455e	0.116343245
81	0xbbce14ff	-0.006289124
82	0x3c600c56	0.013674816
83	0x3c8712a5	0.016488383
84	0x3ca12c8e	0.019674566
85	0xbc7b7e34	-0.015349913
86	0xbc1f7642	-0.009732785
87	0x3c878afb	0.016545763
88	0xbe18cb91	-0.14921404
89	0xbe6ead58	-0.23308313
90	0xbe1dbecf	-0.15404819
91	0xbddee064	-0.10882643
92	0x3de6173e	0.11234902
93	0xbdeb88fc	-0.11500737
94	0x3d0ade9b	0.0339037
95	0xbcce5a0b	-0.02518942
96	0xbe8cfef8	-0.27538276
97	0x3c833af9	0.016019331
98	0xbe78318e	-0.24237654
99	0xbb93cf02	-0.0045107612
100	0xbd8baf2c	-0.06820521
101	0xbdd6a206	-0.10480122
102	0xbd151ffe	-0.036407463
103	0x3d6ebd46	0.058285974
104	0xbd69c910	-0.057076514
105	0x3a4a9f47	0.00077294227
106	0xbd0793a9	-0.033099804
107	0xbe91c57f	-0.2847099
108	0x3cfff064	0.031242557
109	0xbd7b5718	-0.061362356
110	0x3b4633f9	0.003024338
111	0x3c101b65	0.008795594
112	0xbe15b5b6	-0.14620098
113	0xbe679a89	-0.22617544
114	0x3aeda0ff	0.0018129646
115	0xbd0e3845	-0.03472163
116	0xbd1f7b61	-0.038936023
117	0xbdd6588b	-0.10466107
118	0xbc0ebd5e	-0.008712141
119	0xbd9569a9	-0.07295544
120	0xbdb718a9	-0.089402504
121	0x3cae63b1	0.021287771
122	0x3d9cb517	0.07651728
123	0xbc730519	-0.014832758
124	0xbc8f4b4e	-0.017491963
125	0x3d203d25	0.039120812
126	0x3c06298b	0.008188616
127	0xbc5b1b8c	-0.013373267
128	0xbd35dc8f	-0.044399794
129	0xbdb7818e	-0.089602575
130	0xbd1ab671	-0.037771646
131	0xbd9dc721	-0.077039964
132	0xbe15e4c0	-0.14638042
133	0xbdade70e	-0.08491336
134	0x3d91bbd4	0.071159035
135	0x3d88aacd	0.06673203
136	0x3dda7150	0.10666144
137	0xbdb0f189	-0.08639819
138	0xbd4615f6	-0.048360787
139	0x3dd1dd0d	0.1024724
140	0xbdec87da	-0.11549349
141	0xbdad14c0	-0.084512234
142	0x3d35e060	0.044403434
143	0x3d43988e	0.04775291
144	0x3ccc6077	0.024948342
145	0x3dede420	0.11615777
146	0xbb9345ae	-0.0044943905
147	0x3ce9bf52	0.028533611
148	0x3d8e5b2a	0.06950982
149	0xbcaca054	-0.021072544
150	0xbdc7a13a	-0.097475484
151	0xbe346a4e	-0.17618677
152	0x3e122a88	0.14274037
153	0xbec89b5b	-0.39181027
154	0xbd978c36	-0.0739979
155	0x3c9272c6	0.017876994
156	0x3da3fc05	0.08007053
157	0x3dfb446c	0.1226891
158	0x3de35d2d	0.11101756
159	0x3de513af	0.11185395
160	0xbd6edfa4	-0.05831875
161	0xbde9a1bf	-0.11407804
162	0xbe48ac6a	-0.19597021
163	0x3d25ce6a	0.040480055
164	0xbcc2fb65	-0.023801515
165	0xbd2ab3d2	-0.041675396
166	0x3d88f128	0.06686622
167	0xbe0d3c6a	-0.13792577
168	0x3e05f11f	0.13080262
169	0xbe35a19b	-0.17737429
170	0x3c7d3a69	0.015455821
171	0xbd0b0271	-0.033937875
172	0xbd03d8b3	-0.032189082
173	0xbdf45038	-0.11929363
174	0xbcfe2fd7	-0.031028671
175	0x3d1aa6a1	0.037756566
176	0xbd0720ba	-0.032990195
177	0xbe25e52e	-0.16200706
178	0x3d90f5d1	0.07078136
179	0xbbac95e6	-0.0052668927
180	0xbd832625	-0.0640376
181	0xbdd8e045	-0.10589651
182	0x3d8f0ba3	0.069846414
183	0xbe2b5864	-0.16732937
184	0xbc44f455	-0.012021144
185	0xbddad6dd	-0.10685513
186	0xbdadb4d2	-0.08481754
187	0x3bc9a477	0.006153639
188	0xbe4d9b0c	-0.20078677
189	0x3dcb557c	0.09928414
190	0xbcb27ddc	-0.02178853
191	0x3ca38bbe	0.019964095
192	0xbe05d74f	-0.13070415
193	0x3c78fdd0	0.015197232
194	0xbe6240f8	-0.22095096
195	0xbbcee4e5	-0.0063139074
196	0x3e2e0000	0.16992188
197	0x3d8f763c	0.07004973
198	0xbd953e7f	-0.07287311
199	0xba9baccc	-0.0011877059
200	0xbd9f3404	-0.07773593
201	0x3ce345fb	0.02774333
202	0x3e50f4c7	0.20405875
203	0xbe184ed4	-0.1487382
204	0xbe299727	-0.16561566
205	0xbcab5b89	-0.02091767
206	0xbc92af3e	-0.017905828
207	0xbd008b0d	-0.03138261
208	0xbcae7cde	-0.021299776
209	0x3c8bcebd	0.017066354
210	0x3de399d8	0.11113328
211	0x3d967c3e	0.07347916
212	0x3e3554cd	0.1770813
213	0xbde3356f	-0.11094176
214	0x3e09dd7f	0.134634
215	0xbdb46769	-0.088087864
216	0xbcbebaf2	-0.023282502
217	0xbe28207d	-0.16418643
218	0xbe6822ac	-0.22669476
219	0xbde2fd78	-0.110835016
220	0xbd5bdc57	-0.05367693
221	0x3b2b2324	0.0026113475
222	0xbb08b0f7	-0.0020857432
223	0x3cb1587d	0.02164864
224	0xbe5626c0	-0.2091322
225	0x3cf86026	0.030319285
226	0x3d9b7863	0.07591321
227	0xbc4201ba	-0.011841232
228	0xbe346f56	-0.17620596
229	0xbe86cf9a	-0.26330262
230	0x3c05b753	0.008161384
231	0x3d4a4724	0.04938425
232	0xbe6b30bc	-0.2296781
233	0xbd1a9f93	-0.037749838
234	0xbe1be1e6	-0.15222892
235	0x3db2a8ea	0.08723624
236	0xb9e248b0	-0.00043160236
237	0x3d0fa7ba	0.035072066
238	0xbe441dc6	-0.19151983
239	0x3c5f3ba7	0.013625062
240	0x3c4b6e17	0.012416384
241	0x3d1cc7ec	0.038276598
242	0xbdbc4c00	-0.09194183
243	0x3c282194	0.010261912
244	0xbd038dcb	-0.032117646
245	0x3c5f5f7b	0.013633604
246	0x3da7f514	0.08201042
247	0xbcebbe9b	-0.028777411
248	0xbd6a2054	-0.057159737
249	0xbd7d20f8	-0.06179902
250	0x3d3e1a98	0.04641208
251	0xbd0065fa	-0.031347252
252	0x3cffe231	0.031235786
253	0xbddaa056	-0.10675113
254	0x3e210699	0.15725173
255	0x3aec6f42	0.0018038529
