speckNet_weight.pth (torch, 688907 bytes, 9 tensors)

main.0.weight f4 [16, 2, 2, 2]
0.1314688 0.11272129 0.1471745 0.09728974 -0.25863296 -0.09546522 -0.1487064 -0.14620936
-0.28080884 -0.13985151 -0.8350574 0.049022447 -0.50358474 -0.49494398 -0.76384604 0.04149459
0.06845623 -0.6234161 -0.037465017 -0.29947388 0.058461994 -0.465532 -0.28169543 -0.34225625
-0.045388266 0.073516026 -0.04975604 0.114971586 -0.015629685 -2.921502 -0.0051116967 -2.4576747
-0.47712472 0.09666209 -0.1500297 0.009264961 0.1751447 -0.26698896 0.060270235 -0.10763193
0.13943434 0.039392352 -0.7388373 -0.80229807 -0.37710378 -0.03217734 0.0909002 0.008038698
-0.79293483 -0.13240322 0.05120636 0.01643201 -0.232028 -0.4278011 0.05485933 0.08155789
-0.05728559 0.04576916 -1.241773 -0.21605706 0.044882208 -0.30869582 -0.06873597 0.16292073
0.06530035 0.030758962 0.04932377 0.0150031205 0.141551 0.07578942 0.1250846 0.10294654
-0.20122187 -0.14626084 -0.08763399 -0.16011642 0.1519022 0.12593476 0.08686025 0.13845304
0.06762937 -0.23262142 0.06679934 -0.38630304 -0.20471829 0.117479876 -0.34169608 0.15218933
-0.25359243 -0.4823675 0.06982222 0.05409811 0.13403708 0.1922588 -0.21197432 -0.19489235
0.040773857 0.07731804 0.11767775 -0.007912969 -0.86960286 -0.5914564 -0.026581721 0.0012437502
-0.23320967 0.05304428 -0.21256112 -0.07768936 -0.2495218 0.07654477 -0.11862974 -0.19268881
-0.06829581 -0.27826267 0.048250668 -0.5315247 -0.006589225 -0.20960574 0.120057285 -0.4605759
-1.199301 -0.0695773 -1.189676 -0.014429577 -0.13666312 -0.028323751 0.26072636 -0.085336015
00000000: c29f 063e 6bda e63d eab4 163e d83f c73d
00000010: 8a6b 84be 4583 c3bd 7e46 18be e8b7 15be
00000020: 2dc6 8fbe 3c35 0fbe 52c6 55bf c3cb 483d
00000030: eeea 00bf 4c69 fdbe 6a8b 43bf 3bf6 293d
00000040: c832 8c3d 3398 1fbf eb74 19bd a454 99be
00000050: d875 6f3d 365a eebe 623a 90be 363c afbe
00000060: 0ce9 39bd 928f 963d fdcc 4bbd 3976 eb3d
00000070: d309 80bc e4f9 3ac0 0580 a7bb 8b4a 1dc0
00000080: b149 f4be c6f6 c53d 63a1 19be 10cc 173c
00000090: 2259 333e c7b2 88be ecdd 763d 216e dcbd
000000a0: e0c7 0e3e e059 213d 7124 3dbf 6863 4dbf
000000b0: bf13 c1be 63cc 03bd e229 ba3d beb4 033c
000000c0: c7fd 4abf b694 07be c3bd 513d 6c9c 863c
000000d0: bf98 6dbe bf08 dbbe 2db4 603d d307 a73d
000000e0: 4ba4 6abd 7178 3b3d 6bf2 9ebf 103e 5dbe
000000f0: 68d6 373d 610d 9ebe 72c5 8cbd b1d4 263e
00000100: 31bc 853d 38fa fb3c b907 4a3d a6cf 753c
00000110: bff2 103e 7c37 9b3d 2d16 003e a3d5 d23d
00000120: 1b0d 4ebe 67c5 15be 7379 b3bd 8ff5 23be
00000130: 408c 1b3e 0bf5 003e c9e3 b13d a2c6 0d3e
00000140: 4481 8a3d 4f34 6ebe 18ce 883d 83c9 c5be
00000150: aca1 51be 4a99 f03d caf2 aebe 85d7 1b3e
00000160: ded6 81be dff8 f6be f4fe 8e3d fb95 5d3d
00000170: 0441 093e 7edf 443e cc0f 59be dc91 47be
00000180: 7d02 273d ec58 9e3d 0801 f13d 66a5 01bc
00000190: 4b9e 5ebf b069 17bf e9c1 d9bc 5505 a33a
000001a0: 84ce 6ebe f544 593d 9fa9 59be 991b 9fbd
000001b0: a582 7fbe 81c3 9c3d 26f4 f2bd 3750 45be
000001c0: acde 8bbd 7278 8ebe 7ea2 453d 0112 08bf
000001d0: 6dea d7bb e3a2 56be 98e0 f53d 9bd0 ebbe
000001e0: b282 99bf 8b7e 8ebd 4e47 98bf 086a 6cbc
000001f0: 6bf1 0bbe 3607 e8bc ed7d 853e a6c4 aebd

main.2.weight f4 [16, 16, 3, 3]
-0.32619336 -1.2806824 -0.69677794 -0.47940525 -0.07125328 -0.06791804 -0.44393888 -0.67693704
-0.8554923 -0.55222756 -0.4046347 -0.69297117 -0.15543224 -0.76559496 0.41430193 0.106231116
-0.4748181 0.4619109 -0.47460458 -0.32802448 0.31824607 0.04302738 0.9294877 -0.21626067
-0.5047906 -0.05431032 -0.23022711 -0.60754263 -0.6066061 0.116054386 0.1288588 -0.24741489
-0.48410806 -1.1310909 -0.2225832 -1.041674 0.15124087 -0.7999985 0.072073914 0.32163137
0.46723402 -0.47013727 -0.5957944 -0.83422494 -0.25593665 -0.40567484 -0.53860277 0.37174392
-0.74977624 0.19829068 -0.28640667 -0.30480045 -0.42767385 0.06461878 0.2643593 -0.35955253
-0.028308898 -0.3502082 0.49541804 0.5631061 0.5087005 -0.47054508 -0.038374405 -0.94802266
0.14463224 -0.13357292 -0.034656804 0.6727354 0.32343096 0.6951175 -0.37095785 -0.0049419124
-0.12166009 -0.45574644 -0.5991181 -0.86114246 0.3773496 -0.0067084963 -0.1413554 -0.68041974
-0.41413844 -0.052805796 -0.37088415 -0.38191664 -0.3157126 0.0042209737 -0.47243065 -0.3778662
-0.62398994 -0.13835378 -0.2574133 -0.16149259 -0.17286025 0.02539058 0.23796615 -0.4432784
-0.3023584 -0.40715918 0.13653724 -0.030587167 -0.7847964 -0.60437834 0.13612157 0.11403746
-0.33946162 0.19140984 -0.8982009 -0.18680082 0.48681867 -1.4902221 -1.0303121 -0.88373774
0.08786009 0.06784643 -0.17785506 0.05989405 -0.6846847 -0.2754608 -0.10310041 -0.031705625
-0.5804227 0.57387483 0.062720485 -0.49948397 0.3567742 0.1788744 0.72578335 -0.2988234
0.015090242 -0.117205985 0.6684612 -0.4908636 0.33879754 0.3256275 -0.5244867 -0.361303
-1.0266991 0.5353597 -0.1561032 0.23137967 -0.32630163 -0.6191153 -0.016048713 0.05118
-0.055044256 -0.17617935 -0.35523248 -0.1593518 -0.08638904 -0.0044896393 -0.0070420573 0.040004637
-0.2807198 0.2858693 0.37760633 0.45153505 0.038084015 -0.03260983 -0.30391094 0.34324738
0.08486306 0.18231182 -0.16825324 0.7809453 0.18837713 -0.11865351 0.08726125 0.11157025
0.13554978 0.083876304 0.23922835 0.17885469 -0.09659437 -0.055866644 -0.04662967 0.46979913
0.4006616 0.078381814 -0.071739726 -0.11263055 -0.020858958 0.0528138 -0.1345754 -0.17857791
0.5727321 -0.038351342 0.2589209 -0.26624885 0.14794919 -0.16819933 0.12997478 0.24099039
0.25148702 0.5038091 0.46185493 0.45345932 -0.1212641 -0.004540785 0.28619397 0.21093567
0.051169943 0.21116586 0.5238292 0.20712145 -0.4350078 0.5160019 0.19737573 -0.0053629563
-0.19727021 0.4149643 0.14781256 0.60974795 0.18968321 0.31540343 0.45252022 0.10995178
-0.03260975 -0.504093 -0.1250362 -0.10148809 0.6476727 0.27049094 -0.111462526 -0.024090596
-0.21527694 -0.26845148 -0.29101607 0.15623708 0.124012396 0.47699046 -0.54409987 -0.23651445
-0.6445442 -0.006458914 0.06827869 -0.12489839 -0.16927691 0.006314766 0.43894103 -0.015479977
-0.088162705 0.04998166 0.23845026 0.2909002 0.2385474 -0.038285613 0.23421872 0.76171947
0.24491833 0.03501669 -0.2982814 0.62198013 -0.07969701 0.13729338 -0.139885 -0.06147001
00000000: d102 a7be 67ed a3bf 0a60 32bf 9b74 f5be
00000010: 3ded 91bd 9d18 8bbd f54b e3be bf4b 2dbf
00000020: 8b01 5bbf c95e 0dbf 482c cfbe 8f66 31bf
00000030: a129 1fbe 08fe 43bf 621f d43e b38f d93d
00000040: 5c1b f3be 967f ec3e 5fff f2be d3f2 a7be
00000050: 26f1 a23e 7a3d 303d e8f2 6d3f 7073 5dbe
00000060: f539 01bf 8074 5ebd a8c0 6bbe ea87 1bbf
00000070: 8a4a 1bbf ecad ed3d 90f3 033e 545a 7dbe
00000080: 03dd f7be 96c7 90bf daec 63be 9355 85bf
00000090: e3de 1a3e b4cc 4cbf 7d9b 933d deac a43e
000000a0: 4c39 ef3e d5b5 f0be fb85 18bf c48f 55bf
000000b0: 210a 83be 9db4 cfbe dfe1 09bf 3855 be3e
000000c0: 56f1 3fbf b60c 4b3e e5a3 92be ce0e 9cbe
000000d0: 11f8 dabe da56 843d 1a5a 873e 4517 b8be
000000e0: 10e8 e7bc 7d4e b3be 6fa7 fd3e b927 103f
000000f0: 323a 023f 49eb f0be 7b2e 1dbd 9db1 72bf
00000100: 791a 143e 57c7 08be 4bf4 0dbd 6338 2c3f
00000110: be98 a53e 38f3 313f 30ee bdbe c4ef a1bb
00000120: ed28 f9bd 9957 e9be ce5f 19bf d573 5cbf
00000130: f733 c13e f2d2 dbbb 78bf 10be fd2f 2ebf
00000140: f409 d4be e44a 58bd 87e4 bdbe 948a c3be
00000150: 15a5 a1be 1850 8a3b 6ee2 f1be ae77 c1be
00000160: cebd 1fbf 9dac 0dbe adcb 83be 505e 25be
00000170: 4702 31be e8ff cf3c 66ad 733e 63f5 e2be
00000180: b8ce 9abe 2b77 d0be 6bd0 0b3e f091 fabc
00000190: 6be8 48bf 8ab8 1abf 7463 0b3e 798c e93d
000001a0: eacd adbe f100 443e 7ff0 65bf b748 3fbe
000001b0: 4c40 f93e 99bf bebf 44e1 83bf a33c 62bf
000001c0: feef b33d 12f3 8a3d a31f 36be 7753 753d
000001d0: 7f47 2fbf 3309 8dbe 4f26 d3bd c2dd 01bd
000001e0: 9596 14bf 76e9 123f 9973 803d 5dbc ffbe
000001f0: 1cab b63e da2a 373e f0cc 393f 61ff 98be
00000200: 103d 773c b109 f0bd 4620 2b3f 7952 fbbe
00000210: df76 ad3e a6b8 a63e c344 06bf b5fc b8be
00000220: e06a 83bf 550d 093f 84d9 1fbe cbee 6c3e
00000230: 0211 a7be 577e 1ebf 9778 83bc 1fa2 513d
00000240: 1676 61bd 5c68 34be 08e1 b5be 1e2d 23be
00000250: bdec b0bd d31d 93bb 0fc1 e6bb e7db 233d
00000260: 81ba 8fbe 765d 923e 9e55 c13e 9a2f e73e
00000270: fcfd 1b3d e391 05bd 379a 9bbe 1fbe af3e
00000280: afcc ad3d f3af 3a3e 944a 2cbe 08ec 473f
00000290: efe5 403e 9d00 f3bd 07b6 b23d f17e e43d
000002a0: 90cd 0a3e 57c7 ab3d 47f8 743e af25 373e
000002b0: 45d3 c5bd 6cd4 64bd c1fe 3ebd 8389 f03e
000002c0: 8423 cd3e a586 a03d 47ec 92bd d9aa e6bd
000002d0: 68e0 aabc 4853 583d 22ce 09be 21dd 36be
000002e0: 929e 123f 4c16 1dbd 4891 843e c551 88be
000002f0: fe7f 173e 723c 2cbe 1c18 053e 2fc6 763e
00000300: e8c2 803e a2f9 003f 4078 ec3e d22b e83e
00000310: 5059 f8bd deca 94bb 0488 923e 85ff 573e
00000320: 9397 513d dd3b 583e ac19 063f a517 543e
00000330: 58b9 debe b318 043f dd1c 4a3e bdbb afbb
00000340: 3401 4abe 3376 d43e 2d5c 173e 7118 1c3f
00000350: 513c 423e 8f7c a13e bbb0 e73e 662e e13d
00000360: cd91 05bd 3d0c 01bf 7d09 00be fdd8 cfbd
00000370: e1cd 253f ca7d 8a3e 7746 e4bd a459 c5bc
00000380: 8f71 5cbe 7972 89be 0f00 95be 9dfc 1f3e
00000390: 36fa fd3d 1838 f43e 214a 0bbf d830 72be
000003a0: d900 25bf 4ca5 d3bb b3d5 8b3d baca ffbd
000003b0: ed56 2dbe 19ec ce3b e1bc e03e bb9f 7dbc
000003c0: a68e b4bd 92b9 4c3d 4e2c 743e dff0 943e
000003d0: c545 743e 60d1 1cbd 08d7 6f3e 0c00 433f
000003e0: dfcb 7a3e a96d 0f3d 57b8 98be 173a 1f3f
000003f0: 3038 a3bd a396 0c3e 033e 0fbe fac7 7bbd

main.5.weight f4 [32, 16, 3, 3]
0.2544789 0.12809163 -0.68497443 0.24811634 -0.02888798 -0.16245028 0.70193374 0.13908243
0.08540896 -0.21527754 -0.22457457 0.42122632 -0.2558996 -0.04151358 0.36922213 -0.44930032
-0.15572254 0.01343191 0.3976371 -0.16407056 0.10104601 0.123922914 -0.044136994 0.019737156
-0.10346399 -0.1200088 -0.3673941 0.22283158 0.2658321 -0.81526667 0.6818107 0.10015475
-0.4255172 0.011413855 -0.09152339 0.16106628 0.023989936 -0.06716662 0.03865037 -0.18156904
0.29798242 -0.16485304 0.54022336 0.42170668 0.17338188 0.4634965 0.520925 -1.7347202
0.18417352 0.2679214 -1.0600237 0.17060216 -0.31732222 -1.3136843 0.7106799 0.5014596
0.3833544 0.5949702 -0.07938894 0.14004238 0.04353244 -0.12939353 0.001086692 0.29751945
0.507014 -0.14479819 0.44789138 0.14463887 -0.4773996 0.4845647 -0.16371037 -0.2672351
0.1502432 -0.033433337 -0.65714294 -0.013453667 0.16459145 0.11900093 0.2957641 -0.19552286
-0.8925746 -0.05764467 -0.3209759 -0.62762725 0.32369947 -0.23589227 -0.24420601 0.45028046
-0.23104505 0.008201465 0.10386152 -0.3370051 0.6890807 -0.02059157 -0.33069056 0.6852246
-0.18968856 0.13987558 0.49827945 -0.7492134 -0.7577233 0.35969955 -0.79372114 -0.4156385
0.21033163 -0.27732268 0.4001624 0.38572517 -0.67135847 0.21046391 0.75842446 -0.07631477
0.13641107 0.6329887 0.13578643 0.3867133 0.15379474 -1.2422173 -1.3711908 -0.3152357
-1.4047403 -0.7244577 -0.026799977 -0.78877634 -0.2730513 0.36772305 0.4707183 0.79742724
-0.10835091 -0.21715192 -0.11610917 -0.45295042 -0.07199065 -0.372723 -0.07173306 -0.10595684
0.45118448 -0.5884413 -0.26375002 0.06197745 -0.8424126 -0.8966988 -0.9977411 0.44315112
0.4299348 0.5538894 0.22630088 0.09807536 -0.4412075 -0.5807398 -0.20164043 -0.3842508
-0.34048998 -0.4310501 -0.344143 -0.015446488 -0.2799947 -0.20357925 0.011627692 0.11636592
0.069731586 -0.11784865 0.109945655 0.06474084 -0.5369567 -0.17606838 0.105437934 0.33898535
-0.5161073 -0.13728534 -0.10804205 -0.16429438 0.2403377 0.17248444 0.21412499 0.2998675
0.10971358 0.34564868 0.14205454 -0.49429646 -0.5558164 -0.27127537 -0.3493474 -0.34887806
0.1684329 -0.304323 -0.32599884 -0.07926111 -0.14937064 -0.4428927 -0.26344872 -0.18075891
-0.10531293 0.36723384 0.43962383 0.05936909 0.7705366 0.4256382 0.21050727 0.24503082
-0.62960684 -0.19258855 -1.1435554 -0.2027838 -0.48244897 -1.2239262 -0.53823537 0.34105003
-0.13977757 0.18744808 0.41184455 -0.04313979 0.20962511 0.06398436 0.3532688 0.30739492
-0.6952035 0.3826209 0.23003046 -0.06403296 -0.096308336 -0.22845037 0.35044518 0.49539116
-0.37017983 -0.9696433 -0.30756488 -0.44237357 0.7576883 -0.38290605 0.14540443 -0.12845588
-0.0094228005 0.37629086 -0.9577526 -0.9460626 -0.39855444 -0.039604217 -0.2665414 -0.49574587
-0.2952086 -0.38778457 -0.34696537 0.24974112 0.71460027 0.59216577 -0.5675616 -0.8447188
-0.3626612 -0.14022264 -0.37552306 -0.8445718 0.30976802 0.058888618 0.092021786 -0.5094271
00000000: 0f4b 823e 742a 033e 7c5a 2fbf 3612 7e3e
00000010: 7ca6 ecbc 5e59 26be eeb1 333f a06b 0e3e
00000020: e5ea ae3d b771 5cbe e0f6 65be faaa d73e
00000030: 4605 83be 250a 2abd af0a bd3e b10a e6be
00000040: bb75 1fbe 8411 5c3c 1797 cb3e 1d02 28be
00000050: 36f1 ce3d 4ccb fd3d fec8 34bd d1af a13c
00000060: eee4 d3bd 2cc7 f5bd 141b bcbe f62d 643e
00000070: 251b 883e 51b5 50bf 258b 2e3f ef1d cd3d
00000080: 64dd d9be 2d01 3b3c 9d70 bbbd 8fee 243e
00000090: 8b86 c43c a78e 89bd da4f 1e3d 3ced 39be
000000a0: 2791 983e 3ccf 28be 144c 0a3f f0e9 d73e
000000b0: 058b 313e 6a4f ed3e 575b 053f 500b debf
000000c0: fc97 3c3e fe2c 893e dbae 87bf 55b2 2e3e
000000d0: 0f78 a2be cf26 a8bf 1eef 353f a85f 003f
000000e0: 0747 c43e f84f 183f ab96 a2bd 4567 0f3e
000000f0: 124f 323d bd7f 04be 556f 8e3a 7854 983e
00000100: abcb 013f fa45 14be 0552 e53e 361c 143e
00000110: b86d f4be dd18 f83e b1a3 27be 0ad3 88be
00000120: 5ad9 193e 65f1 08bd 853a 28bf c56c 5cbc
00000130: a98a 283e c2b6 f33d 646e 973e 2537 48be
00000140: c57f 64bf d11c 6cbd f456 a4be 2eac 20bf
00000150: f0bb a53e be8d 71be 2411 7abe 298b e63e
00000160: 1397 6cbe 705f 063c 59b5 d43d ef8b acbe
00000170: 9867 303f a7af a8bc 4650 a9be e16a 2f3f
00000180: b83d 42be 8b3b 0f3e 7c1e ff3e 73cc 3fbf
00000190: 27fa 41bf 8a2a b83e 4f31 4bbf 92ce d4be
000001a0: 2d61 573e 3dfd 8dbe 16e2 cc3e c57d c53e
000001b0: 26de 2bbf da83 573e 1b28 423f eb4a 9cbd
000001c0: 58af 0b3e 8c0b 223f 990b 0b3e 49ff c53e
000001d0: 5e7c 1d3e fa00 9fbf 2e83 afbf 9366 a1be
000001e0: 88ce b3bf 0f76 39bf a08b dbbc 3fed 49bf
000001f0: 61cd 8bbe 3246 bc3e fd01 f13e 3124 4c3f
00000200: 15e7 ddbd 135d 5ebe a5ca edbd 1ee9 e7be
00000210: d56f 93bd 8dd5 bebe c8e8 92bd e6ff d8bd
00000220: a701 e73e 17a4 16bf 3e0a 87be 11dc 7d3d
00000230: 5aa8 57bf 0d8e 65bf f66b 7fbf b4e4 e23e
00000240: 6a20 dc3e b2cb 0d3f 6bbb 673e bcdb c83d
00000250: f3e5 e1be 5dab 14bf d47a 4ebe 85bc c4be
00000260: b454 aebe 99b2 dcbe 8333 b0be 4413 7dbc
00000270: 775b 8fbe 1477 50be 1382 3e3c 4151 ee3d
00000280: 6fcf 8e3d a25a f1bd 302b e13d d896 843d
00000290: ff75 09bf 454b 34be d8ef d73d 7d8f ad3e
000002a0: 9c1f 04bf 8794 0cbe 2645 ddbd c93c 28be
000002b0: 161b 763e c39f 303e 9543 5b3e 3c88 993e
000002c0: 83b1 e03d ddf8 b03e bf76 113e 6d14 fdbe
000002d0: fc49 0ebf 9be4 8abe aadd b2be 25a0 b2be
000002e0: ad79 2c3e 39d0 9bbe 52e9 a6be a653 a2bd
000002f0: 9ef4 18be d5c2 e2be c0e2 86be dd18 39be
00000300: 4eae d7bd 1306 bc3e 6016 e13e 012d 733d
00000310: e341 453f 40ed d93e 388f 573e 5ce9 7a3e
00000320: ea2d 21bf ef35 45be 0660 92bf 8ea6 4fbe
00000330: 8d03 f7be 9da9 9cbf cbc9 09bf 1c9e ae3e
00000340: da21 0fbe 64f2 3f3e 4add d23e 59b3 30bd
00000350: f7a7 563e 3b0a 833d a6df b43e de62 9d3e
00000360: dbf8 31bf e3e6 c33e 1b8d 6b3e b623 83bd
00000370: 4e3d c5bd e5ee 69be 8d6d b33e e9a3 fd3e
00000380: 3688 bdbe 8b3a 78bf 2579 9dbe ca7e e2be
00000390: dcf7 413f 430c c4be e6e4 143e f089 03be
000003a0: 1762 1abc 32a9 c03e 462f 75bf 2931 72bf
000003b0: 540f ccbe 0838 22bd 1d78 88be 67d2 fdbe
000003c0: 9525 97be b38b c6be 72a5 b1be 23bc 7f3e
000003d0: 0bf0 363f 2d98 173f b84b 11bf 7e3f 58bf
000003e0: bbae b9be 8696 0fbe 8f44 c0be dc35 58bf
000003f0: ea99 9e3e 3135 713d eb75 bc3d d069 02bf

main.8.weight f4 [32, 32, 3, 3]
0.2427913 0.29764277 -0.8878452 0.55837506 0.2313184 -0.06580265 -1.0168768 -0.73679185
0.23898147 -0.6227461 0.31554496 0.019960705 -0.13121296 0.30271772 0.11604129 0.15338159
0.7431999 -0.15815455 -0.42947465 -0.097405255 0.08118314 -0.20506795 0.2857718 0.36694285
-0.3263027 0.013364297 0.3965195 -1.2043626 0.6506818 -0.42374924 -0.63278604 0.17852631
-0.6275004 -0.5148725 0.29080442 -0.38994306 -0.17709367 -0.20908245 -0.70758533 -0.17774566
-0.08706593 -0.8305832 0.22411494 0.38489935 -0.058452774 0.19423702 -0.050137017 -0.32692054
0.5688495 -0.17839994 0.17126505 0.90079516 0.28199625 -0.41581964 0.44661492 -0.415604
-0.0053108977 0.0031771495 -0.018097952 -0.28283444 -0.19619296 -0.27429017 0.37617192 -0.4124823
-0.32914326 -0.46514794 -0.38820216 0.0008282376 -0.2880501 0.49113137 0.14279899 0.41092438
-0.8705913 -0.72955996 -0.36707664 -0.58051616 -0.077155836 -0.834105 -0.2885695 0.06091231
0.17279138 -1.2110525 -1.3368601 -0.14352421 -0.89669275 -0.54690194 -0.23181473 -0.9153817
-0.18528508 0.6085616 -0.3519338 -0.4134093 0.87167704 -0.44277087 -0.11379667 -0.014084635
-0.29894188 -0.16293424 0.25470284 0.41633537 0.049595516 -0.12631704 0.20239556 0.7301786
0.55444914 0.278737 -1.2111683 -0.32049718 0.04837602 -0.23900348 0.39215106 0.5255477
-0.43022665 -1.1459773 0.24561554 -0.18236147 -0.1505176 0.2642929 -0.112564944 -0.21886672
1.117135 0.1914249 0.15277031 0.03159189 -0.92265797 -0.5537034 -1.799924 -1.7471577
-1.4633032 0.20155996 -0.2578346 -0.6065794 0.25192857 0.37816343 0.048295863 -1.025986
-1.2754459 -0.5372082 -0.09824731 -0.69177043 -0.245495 -0.12371034 -0.25536206 -0.46623904
-0.48415992 -0.40201724 -0.60086584 0.020887675 -0.04974852 0.16672723 -0.82286936 0.44885972
-0.30270267 0.16594571 -0.3291736 0.68750966 0.34151548 -0.14014114 0.48665112 0.01947958
0.16014726 0.36178058 0.14120816 0.13112482 0.003631984 -0.004729373 -0.19347318 0.78714234
-0.47912693 -0.6682775 0.24008161 -0.20690386 0.6489695 -0.39605087 -0.123008475 0.64784
0.16684987 0.31834456 0.40082803 -0.29528698 0.21540727 -0.23038615 0.32087782 0.47268933
0.37400886 0.10650911 0.28052446 -0.24501477 -0.06935701 -0.007778559 -0.4145129 -0.8391969
0.50197405 0.03036248 -0.6149469 -0.13460961 0.39548203 0.1963848 -1.9361606 0.19670343
-0.594001 -0.16230445 0.47471723 0.048862673 -0.34416607 0.33963257 0.55779594 0.101753764
0.10203838 -0.38455892 0.13115397 0.09725241 0.017520381 0.31224403 0.23212783 -0.25138128
0.2031551 0.037112273 -0.3897769 -1.162427 0.5806991 0.08584078 -0.2899206 0.33580565
-0.105118215 -1.0642788 -0.03867247 0.4641068 -0.6515889 0.6076435 -0.03597622 0.25732124
-0.41889945 -0.6390333 0.34507358 0.34028366 0.19730504 -0.4007275 -0.057181597 -0.552891
-0.21209246 0.21028334 0.09610824 0.26448107 -0.42942294 -0.0748479 -0.08876625 -0.25339878
0.4483921 -0.25749242 -0.90586144 0.34145218 -0.3225973 -0.09910962 0.49688575 0.17709368
00000000: 489e 783e a264 983e d349 63bf abf1 0e3f
00000010: bbde 6c3e 8ac3 86bd 0529 82bf 649e 3cbf
00000020: 8fb7 743e 4a6c 1fbf 1c8f a13e a284 a33c
00000030: b15c 06be d1fd 9a3e 0ea7 ed3d 1010 1d3e
00000040: 5942 3e3f 44f3 21be 1ae4 dbbe 687c c7bd
00000050: 5943 a63d 55fd 51be ae50 923e efdf bb3e
00000060: 2611 a7be edf5 5a3c 9b04 cb3e 8e28 9abf
00000070: 1593 263f a9f5 d8be 44fe 21bf 9acf 363e
00000080: dea3 20bf afce 03bf 51e4 943e 9ea6 c7be
00000090: 0b58 35be b619 56be 5024 35bf f502 36be
000000a0: 9f4f b2bd 1aa1 54bf 637e 653e 8711 c53e
000000b0: 2d6c 6fbd 12e6 463e 795c 4dbd 2162 a7be
000000c0: 1fa0 113f 79ae 36be 1b60 2f3e 839a 663f
000000d0: d061 903e 50e6 d4be b6aa e43e 0cca d4be
000000e0: 0a07 aebb b937 503b 2842 94bc adcf 90be
000000f0: cfe6 48be c36f 8cbe 9b99 c03e e130 d3be
00000100: 7785 a8be df27 eebe 6fc2 c6be 161e 593a
00000110: 4d7b 93be 9275 fb3e e639 123e ae64 d23e
00000120: 12df 5ebf 71c4 3abf 78f1 bbbe b59c 14bf
00000130: e103 9ebd e887 55bf 62bf 93be 307f 793d
00000140: 39f0 303e c503 9bbf 3b1e abbf 03f8 12be
00000150: a88d 65bf c401 0cbf d760 6dbe 7556 6abf
00000160: 5fbb 3dbe b1ca 1b3f ab30 b4be 62aa d3be
00000170: 3a26 5f3f ddb2 e2be 3b0e e9bd 3ec3 66bc
00000180: e90e 99be 3cd8 26be 6968 823e e929 d53e
00000190: ab24 4b3d 4159 01be c840 4f3e fcec 3a3f
000001a0: 61f0 0d3f 9eb6 8e3e 9007 9bbf 3518 a4be
000001b0: ef25 463d 54bd 74be 06c8 c83e 4b8a 063f
000001c0: ab46 dcbe 62af 92bf a482 7b3e f7bc 3abe
000001d0: 4921 1abe 6651 873e 7388 e6bd 991e 60be
000001e0: 48fe 8e3f e404 443e d26f 1c3e 7f66 013d
000001f0: 5033 6cbf 82bf 0dbf e963 e6bf dda2 dfbf
00000200: 854d bbbf bc65 4e3e e602 84be ca48 1bbf
00000210: c8fc 803e a39e c13e e2d1 453d 8253 83bf
00000220: d041 a3bf 7a86 09bf e335 c9bd de17 31bf
00000230: 0b63 7bbe d95b fdbd d1be 82be e2b6 eebe
00000240: cfe3 f7be 34d5 cdbe 58d2 19bf a11c ab3c
00000250: 1bc5 4bbd 8bba 2a3e 91a7 52bf f1d0 e53e
00000260: d8fb 9abe aced 293e 7189 a8be a200 303f
00000270: 1edb ae3e 2981 0fbe 562a f93e a493 9f3c
00000280: a5fd 233e 4e3b b93e df98 103e 9645 063e
00000290: 9406 6e3b dbf8 9abb d51d 46be 2982 493f
000002a0: 2050 f5be 3c14 2bbf f4d7 753e 9bde 53be
000002b0: dd22 263f 2ec7 cabe deeb fbbd d8d8 253f
000002c0: b1da 2a3e 0ffe a23e 5539 cd3e db2f 97be
000002d0: b993 5c3e 59ea 6bbe 194a a43e 5604 f23e
000002e0: 177e bf3e 7321 da3d e7a0 8f3e 27e5 7abe
000002f0: 0c0b 8ebd 48e3 febb 093b d4be 9cd5 56bf
00000300: 5f81 003f bcba f83c 296d 1dbf 1ad7 09be
00000310: 9f7c ca3e 1919 493e 1cd4 f7bf a06c 493e
00000320: 7310 18bf 2333 26be 230e f33e 3a24 483d
00000330: 8936 b0be 52e4 ad3e b7cb 0e3f 4764 d03d
00000340: 80f9 d03d e8e4 c4be 3a4d 063e 462c c73d
00000350: e786 8f3c 73de 9f3e ebb2 6d3e 0cb5 80be
00000360: e407 503e 0a03 183d d690 c7be 68ca 94bf
00000370: b2a8 143f 4acd af3d 7970 94be b8ee ab3e
00000380: 3848 d7bd 4a3a 88bf 0667 1ebd 689f ed3e
00000390: 88ce 26bf 868e 1b3f cd5b 13bd 9cbf 833e
000003a0: fd79 d6be b097 23bf 7cad b03e a939 ae3e
000003b0: 550a 4a3e 282c cdbe 4037 6abd 448a 0dbf
000003c0: c42e 59be 8454 573e 66d4 c43d 106a 873e
000003d0: 53dd dbbe db49 99bd 14cb b5bd 7cbd 81be
000003e0: a693 e53e 0cd6 83be 89e6 67bf d2d2 ae3e
000003f0: 792b a5be fcf9 cabd cf67 fe3e 0c58 353e

main.11.weight f4 [64, 32, 3, 3]
0.34610844 0.33385527 -0.17885274 -0.23755546 0.18472318 -0.12741616 -0.37566003 -0.10926145
-0.13221729 0.44994476 -0.07000046 -0.14324524 0.6992065 -0.06788882 0.40413508 0.080874324
0.32356697 0.061383136 -0.14146082 0.17503236 -0.34580338 0.019735837 -0.13690372 0.21739464
0.45974883 0.12236525 0.7095921 0.04925632 0.20225437 0.06873663 0.0768495 -0.13677558
-0.039039876 -0.17539291 0.27494797 -0.61796516 -0.16800669 -0.3784907 0.5260076 0.304748
0.38031155 0.3694452 -0.0049486184 -0.2828622 -0.8722997 -0.24850489 0.07851532 0.28670856
-0.24537688 -0.37296635 0.07627244 -0.0026408974 0.072571434 -0.3791188 -0.8471938 -0.7405909
0.5691423 0.011859837 -0.073733054 -0.18535273 0.2479432 -0.72240937 -0.4164983 -1.194626
-0.10718972 0.2643946 -1.2050523 -0.4167527 0.0954222 -0.47488132 -0.7278146 -0.43903774
0.12648925 0.24961291 0.16035232 0.662078 0.19942978 0.3946858 0.0321925 -0.4853103
0.3418796 -0.545471 -0.32858017 0.5308059 -0.72181433 0.41514206 0.27973834 -2.581836
0.085447416 -0.656436 0.34381434 -0.15876232 -0.3383043 -0.050793316 -0.3492515 -0.13697317
0.27820918 -0.061330892 0.3109886 -0.89655226 -0.14200173 0.06701961 -0.019320011 0.004256234
0.45135698 -0.8936513 -0.88656855 0.6845273 0.05191773 -0.27389306 0.21459395 0.6720794
-0.6979481 -0.5910031 -0.08777851 0.1698413 -0.65555656 -0.22075668 -0.107987724 -0.09170581
0.18292071 -0.21365026 0.22820693 -0.48078263 -0.33647823 -0.13572565 -0.1899621 0.066987455
-0.0767672 -0.7045689 -0.115656026 0.29084507 -0.2399815 -0.5230501 -0.0013763624 0.563067
-0.24316569 0.050651707 -0.28775448 -0.15583989 -0.22736509 -0.03253944 0.82178175 0.72852325
-0.4355952 -0.14718094 0.2582715 -0.6717478 -0.26320812 -0.3866864 -0.3080391 0.028394187
0.20567866 0.3195125 0.013746756 -0.74274236 0.2747059 0.12423686 -0.4200926 0.5507908
-0.4486419 -1.039507 -0.26810834 -0.2345369 -0.41137484 -0.25120884 0.1156077 -0.6401878
0.41143587 0.045060612 0.17362201 0.45114586 0.29799765 0.5031323 -0.4426694 0.4882794
0.19711798 -0.6337959 -0.07189713 0.44243872 0.239102 -0.20512073 -0.18092711 -0.024577444
0.21493013 -0.7610617 -0.48117366 -0.58266926 0.27623695 -0.46779436 0.30888554 0.4522961
-0.031174935 0.21286753 -0.16779831 0.3601591 0.24824813 -0.39003173 -0.5235238 -0.038087733
0.4151199 -0.17498934 0.082830496 0.25287393 -0.08555675 -0.33340207 -0.21551687 0.14588483
0.762529 0.1576424 -0.65532476 -0.30575025 0.09218356 -0.94564396 -0.28656405 -0.28729624
-0.027711594 -0.43430495 0.93416715 0.64275503 -0.75494885 0.09920186 0.60829085 0.14018628
-1.8908968 0.22692391 -0.28169394 0.059321724 0.09984012 -1.2327582 -0.4440121 0.022550777
0.3855939 -0.2885244 0.63013965 -0.20101264 0.06603298 -0.10915561 -0.19525146 -0.300464
0.24747178 0.18773752 -0.13742828 0.019493556 0.9072391 -0.134758 -0.567236 0.058331527
-1.0108016 -0.01895049 -1.0423871 -0.5164757 0.14727542 -0.4261352 -0.6438782 0.28529617
00000000: 2035 b13e 14ef aa3e 2c25 37be bd41 73be
00000010: 1328 3d3e 6279 02be 8356 c0be 78c4 dfbd
00000020: f863 07be 295f e63e 675c 8fbd e1ae 12be
00000030: 32ff 323f 4b09 8bbd cbea ce3e 70a1 a53d
00000040: 92aa a53e e26c 7b3d 1bdb 10be af3b 333e
00000050: 240d b1be 0dad a13c 7d30 0cbe b39c 5e3e
00000060: 3364 eb3e a29a fa3d d4a7 353f ffc0 493d
00000070: c51b 4f3e cac5 8c3d 4563 9d3d e60e 0cbe
00000080: 47e8 1fbd 339a 33be fbc5 8c3e f732 1ebf
00000090: f209 2cbe 88c9 c1be 6fa8 063f ee07 9c3e
000000a0: 32b8 c23e ec27 bd3e 0528 a2bb 50d3 90be
000000b0: 084f 5fbf 1178 7ebe a4cc a03d 77cb 923e
000000c0: 1444 7bbe 72f5 bebe ba34 9c3d e812 2dbb
000000d0: 55a0 943d dc1b c2be b1e1 58bf 5d97 3dbf
000000e0: 4fb3 113f c34f 423c 5b01 97bd 1bcd 3dbe
000000f0: d2e4 7d3e d2ef 38bf 443f d5be 81e9 98bf
00000100: 4986 dbbd bb5e 873e 273f 9abf 9c60 d5be
00000110: b76c c33d a523 f3be 0f52 3abf 8ec9 e0be
00000120: 6686 013e 879a 7f3e 6633 243e f27d 293f
00000130: 5237 4c3e 4214 ca3e 48dc 033d 977a f8be
00000140: d80a af3e fda3 0bbf a93b a8be e5e2 073f
00000150: d3c8 38bf 808d d43e dd39 8f3e cd3c 25c0
00000160: 0eff ae3d 310c 28bf 6f08 b03e 9792 22be
00000170: 3936 adbe a70c 50bd 18d1 b2be b242 0cbe
00000180: 6f71 8e3e 1a36 7bbd e639 9f3e 7384 65bf
00000190: e768 11be 9441 893d 0045 9ebc e177 8b3b
000001a0: 4318 e73e 55c6 64bf 28f6 62bf 2e3d 2f3f
000001b0: b0a7 543d b63b 8cbe 84be 5b3e 650d 2c3f
000001c0: baac 32bf fb4b 17bf 38c5 b3bd e1ea 2d3e
000001d0: 8ed2 27bf 0a0e 62be ab28 ddbd 41d0 bbbd
000001e0: 914f 3b3e 22c7 5abe 14af 693e 2429 f6be
000001f0: e046 acbe aafb 0abe 6d85 42be b830 893d
00000200: 1f38 9dbd a15e 34bf 11dd ecbd a5e9 943e
00000210: b6bd 75be 9de6 05bf 0f67 b4ba 2925 103f
00000220: 6d00 79be 2a78 4f3d 8e54 93be 7e94 1fbe
00000230: 65d2 68be 1348 05bd 4a60 523f 8080 3a3f
00000240: 5606 dfbe 9ab6 16be 293c 843e aaf7 2bbf
00000250: 37c3 86be c3fb c5be 4db7 9dbe ed9a e83c
00000260: 6d9d 523e 2497 a33e 133a 613c 5d24 3ebf
00000270: 40a6 8c3e e56f fe3d 6116 d7be a000 0d3f
00000280: 64b4 e5be 910e 85bf 7f45 89be 712a 70be
00000290: b99f d2be 729e 80be bbc3 ec3d 59e3 23bf
000002a0: b9a7 d23e 7a91 383d f8c9 313e 97fc e63e
000002b0: 2693 983e 47cd 003f 90a5 e2be c2ff f93e
000002c0: 4cd9 493e 7340 22bf cd3e 93bd 5487 e23e
000002d0: 28d7 743e 2b0b 52be f544 39be a356 c9bc
000002e0: a516 5c3e f1d4 42bf 655c f6be d029 15bf
000002f0: ee6e 8d3e be82 efbe 3f26 9e3e 5b93 e73e
00000300: 9462 ffbc f2f9 593e 52d3 2bbe c666 b83e
00000310: c234 7e3e 3db2 c7be a805 06bf e201 1cbd
00000320: 988a d43e 6830 33be 09a3 a93d b178 813e
00000330: 6138 afbd adb3 aabe 74b0 5cbe d562 153e
00000340: 1a35 433f 026d 213e 5dc3 27bf 4c8b 9cbe
00000350: bcca bc3d b915 72bf 86b8 92be 7e18 93be
00000360: 6d03 e3bc 385d debe 9425 6f3f 988b 243f
00000370: 5444 41bf 582a cb3d f3b8 1b3f fe8c 0f3e
00000380: e808 f2bf be5e 683e 303a 90be 56fb 723d
00000390: fa78 cc3d 05cb 9dbf 8e55 e3be 68bc b83c
000003a0: 906c c53e 78b9 93be d550 213f 42d6 4dbe
000003b0: 4d3c 873d fa8c dfbd 00f0 47be 6bd6 99be
000003c0: 3e69 7d3e 443e 403e 00ba 0cbe f3b0 9f3c
000003d0: d240 683f 00fe 09be 6136 11bf 0aed 6e3d
000003e0: f261 81bf 0f3e 9bbc f16c 85bf c037 04bf
000003f0: 5ecf 163e 652e dabe 34d5 24bf 5712 923e

main.14.weight f4 [64, 64, 3, 3]
-0.120358154 -1.2524041 0.8128832 -0.2764651 0.022125317 0.28200808 0.49633 -0.6894876
0.358737 -0.31802982 0.012891098 0.5925138 0.32340732 0.07589794 -1.112516 -0.54247695
0.22861749 -0.50737727 -1.2306561 -0.24857607 -0.6436898 -0.38316235 -0.15846415 -0.31726384
0.08401178 0.059323158 -0.08785687 0.7091059 -0.18781415 -1.0967597 1.3965904 -0.08013155
-1.0661324 -0.102481075 -0.4131166 0.05480492 -0.6244373 0.42064682 -0.12531619 0.84617496
-0.3607251 -0.62982976 -0.34168488 0.032457773 -1.2411488 -0.8817358 0.34001607 -0.89765406
-0.36813527 -0.233419 -0.7621481 0.5062667 0.1664088 0.6574816 -0.063951164 0.49253517
-1.0278614 -0.36984307 -0.58996105 -0.17518014 -0.22842899 0.38976726 -0.57072914 -0.09232054
-0.7578007 -0.33826688 0.15938045 -0.45739794 -0.46620375 -0.6669838 0.0065241666 -0.32424948
-0.39016744 -0.20846832 -0.8642906 -0.27652496 0.35232526 0.5487371 -0.50456864 0.3379834
-1.1298152 0.43916747 -0.060449727 -1.0854142 -0.34791756 -0.1351033 0.063235 -0.19082503
0.02091946 -0.021652032 -0.3388007 -0.18769158 -0.3099391 0.04066109 0.24779879 0.39881054
0.51277393 0.42301184 0.14568777 -0.8569072 -0.7101533 -1.514884 0.09754508 -0.563294
0.12528288 -0.4736247 0.57750946 -0.2689579 -0.13879465 0.61189914 0.25866392 -0.22186549
-0.7834942 0.058115616 -0.8005028 0.49693903 -0.34234288 -0.06850507 -0.030386059 -0.04058661
0.3295128 -0.021886421 0.081347965 -0.023701102 -0.4126664 0.1609764 -0.81613034 -0.36787403
0.16358657 -0.24258694 -0.30886275 -0.13929613 0.32304665 0.55954117 -0.35308155 0.53425175
0.58934003 -0.6001188 0.41026297 0.45482785 -0.6571244 0.060857374 0.33750555 -0.2108627
0.29973468 1.0641251 0.35991597 0.35035422 -0.14023663 0.30029103 -0.0013384597 0.085737474
0.52090096 -0.27890822 -0.8251445 0.17671606 0.53912693 -0.049114045 -0.02036933 0.03922227
0.15622555 -0.66660917 -0.70394623 0.5075797 0.4100298 0.15082562 0.07526854 0.16478525
-0.8500312 0.51553124 0.50746566 -0.111178406 0.20076117 0.15220597 -0.32960796 0.17665102
-0.09558125 -0.03861339 -0.14950159 0.6771287 -0.4029659 0.2697611 0.7484226 -0.29758778
0.20829244 -1.1929538 -0.30220595 0.515265 -0.07583892 -0.33762047 -0.5992724 -0.21955733
-0.17125405 0.03245316 -0.12349926 0.09946098 0.3077146 0.186839 -0.1857673 0.30843413
-0.72242194 0.23971434 0.26447728 -0.30829754 -0.3712442 0.8320206 -0.048799608 0.32792482
-0.4408158 -0.6240763 0.069154024 -0.6013707 -1.6487108 -0.088389866 -0.07285424 0.16345806
0.09304099 0.46617618 -0.12388292 0.6476049 -0.3189731 0.16598883 -0.45846283 -0.6602922
-0.115602314 0.30330718 -0.06473392 0.26651433 0.14557852 0.18406798 -0.41635066 0.63407147
-0.14889613 0.0058110794 1.1292776 0.72648245 -0.3658241 -0.25011238 -0.36587918 -0.021549819
-0.55021906 -0.5776255 0.53049225 -0.05191491 -1.0675803 0.2705772 0.88675886 -0.29835272
0.59584314 -0.7824639 -0.1388472 -0.09174396 -0.2206359 0.68745047 -1.2345818 -0.5338584
00000000: 567e f6bd c74e a0bf 1d19 503f d58c 8dbe
00000010: 2740 b53c 5d63 903e f71e fe3e 4282 30bf
00000020: 60ac b73e ced4 a2be 2f35 533c fcae 173f
00000030: a595 a53e 6170 9b3d ed66 8ebf c5df 0abf
00000040: b41a 6a3e 7ae3 01bf 2486 9dbf ba8a 7ebe
00000050: dbc8 24bf db2d c4be 6d44 22be 6870 a2be
00000060: 5e0e ac3d d7fc 723d 4dee b3bd f787 353f
00000070: 5a52 40be 9f62 8cbf 79c3 b23f 031c a4bd
00000080: 0777 88bf 99e1 d1bd 0584 d3be 207b 603d
00000090: 1fdb 1fbf 055f d73e e352 00be ec9e 583f
000000a0: f6b0 b8be 863c 21bf 52f1 aebe 71f2 043d
000000b0: f7dd 9ebf 70b9 61bf 9616 ae3e a8cc 65bf
000000c0: 3a7c bcbe 6405 6fbe 231c 43bf b29a 013f
000000d0: 1267 2a3e b750 283f d4f8 82bd 922d fc3e
000000e0: f690 83bf 125c bdbe b007 17bf 6c62 33be
000000f0: 4ae9 69be 938f c73e 4e1b 12bf 8d12 bdbd
00000100: 3aff 41bf 5131 adbe a134 233e 1030 eabe
00000110: 42b2 eebe 73bf 2abf adc8 d53b 0704 a6be
00000120: 07c4 c7be b878 55be 2642 5dbf ae94 8dbe
00000130: fa63 b43e 097a 0c3f 692b 01bf 290c ad3e
00000140: c99d 90bf 8fda e03e 229a 77bd daee 8abf
00000150: 4022 b2be 8558 0abe 5a81 813d a367 43be
00000160: 4a5f ab3c 9a5f b1bc 4977 adbe 3932 40be
00000170: 56b0 9ebe 3e8c 263d f7be 7d3e e530 cc3e
00000180: 2745 033f 0295 d83e 2d2f 153e 455e 5bbf
00000190: 9bcc 35bf b8e7 c1bf b7c5 c73d 0934 10bf
000001a0: 284a 003e f07e f2be a9d7 133f dab4 89be
000001b0: 2f20 0ebe 6ca5 1c3f 996f 843e b530 63be
000001c0: 1393 48bf a40a 6e3d c0ed 4cbf cb6e fe3e
000001d0: 9147 afbe 634c 8cbd 2fec f8bc 253e 26bd
000001e0: e7b5 a83e 274b b3bc c399 a63d d028 c2bc
000001f0: 0349 d3be ffd6 243e ebed 50bf fc59 bcbe
00000200: 3d83 273e b668 78be 4223 9ebe a5a3 0ebe
00000210: 5f66 a53e 173e 0f3f 1bc7 b4be b9c4 083f
00000220: fdde 163f 63a1 19bf fd0d d23e 32df e83e
00000230: 4e39 28bf 9545 793d 87cd ac3e 64ec 57be
00000240: d376 993e 4035 883f e846 b83e a161 b33e
00000250: 319a 0fbe bfbf 993e 416f afba 2197 af3d
00000260: c459 053f 0fcd 8ebe ac3c 53bf 0ef5 343e
00000270: 3904 0a3f cf2b 49bd 95dd a6bc 88a7 203d
00000280: 97f9 1f3e e6a6 2abf d235 34bf bef0 013f
00000290: 6def d13e 0872 1a3e 6426 9a3d 77bd 283e
000002a0: a59b 59bf dbf9 033f 45e9 013f 81b1 e3bd
000002b0: 5694 4d3e e2db 1b3e 60c2 a8be 01e4 343e
000002c0: 1ac0 c3bd 1329 1ebd f216 19be 4e58 2d3f
000002d0: 8c51 cebe 201e 8a3e a098 3f3f 6d5d 98be
000002e0: 9d4a 553e b6b2 98bf bdba 9abe 68e8 033f
000002f0: 7051 9bbd 97dc acbe ea69 19bf a3d3 60be
00000300: 395d 2fbe 9bed 043d 2eed fcbd 33b2 cb3d
00000310: c58c 9d3e b952 3f3e c839 3ebe 14eb 9d3e
00000320: a5f0 38bf ad77 753e 9169 873e 2dd9 9dbe
00000330: b813 bebe 4dff 543f 19e2 47bd c3e5 a73e
00000340: 9cb2 e1be 77c3 1fbf a0a0 8d3d 6ef3 19bf
00000350: f508 d3bf bf05 b5bd 9b34 95bd 8d61 273e
00000360: 468c be3d a5ae ee3e 54b6 fdbd 6fc9 253f
00000370: 7150 a3be faf8 293e a4bb eabe e908 29bf
00000380: e8c0 ecbd 144b 9b3e 3893 84bd 9174 883e
00000390: 8912 153e 517c 3c3e ea2b d5be 8252 223f
000003a0: 3a78 18be de6a be3b 2b8c 903f c1fa 393f
000003b0: 4c4d bbbe bb0e 80be 8454 bbbe 3f89 b0bc
000003c0: 28db 0cbf 44df 13bf 57ce 073f bba4 54bd
000003d0: 79a6 88bf 1889 8a3e a102 633f b0c1 98be
000003e0: 2d89 183f 8e4f 48bf f62d 0ebe 42e4 bbbd
000003f0: 61ee 61be c1fc 2f3f c706 9ebf f2aa 08bf

main.18.weight f4 [256, 64, 2, 2]
0.17864098 -0.18141848 -1.0966768 0.21181534 -0.20580958 -1.3885499 0.21362728 -0.1771506
-0.50405616 0.3404 0.51556545 -0.65104556 -0.62127244 -0.5787564 0.38944277 -1.0688124
0.27282846 -0.10933902 -0.38643953 0.42218146 -0.2497358 -0.58256197 -0.1425257 0.12279811
-0.6795737 -0.20434263 0.29615542 0.37146097 0.17899646 0.33713374 -1.4891514 0.8111497
-0.8659879 0.38800943 0.049139306 -0.47010773 -1.301032 -0.1272415 0.20587038 -0.112248905
0.5415624 0.5457609 0.3432336 -0.3053306 -0.14421953 -1.1556067 0.17056598 -1.3333389
0.37518638 0.2403887 0.02436183 -0.33218202 -0.9349807 -0.003699365 0.15400374 0.32911423
-0.3009714 -0.23581512 0.36001346 -0.876567 0.3313751 0.3807418 0.14271334 -0.18074085
-0.33911365 0.05532021 0.34325698 -0.35867196 -0.4905419 0.2969532 -0.18361002 0.014611821
0.35838827 -0.055067927 0.2471069 0.013540851 -0.7766482 -0.03227294 0.22163682 -1.1314054
0.2392141 -0.56159353 -0.19972914 0.005823401 0.040718045 0.74550307 -0.9076451 -0.11233562
-0.5051823 -0.34213704 0.27435616 -0.37172836 0.5044227 0.34165195 -1.1321577 -0.44651547
0.5057384 0.12977016 -0.80162454 -0.6995721 0.3471062 -0.08702365 -0.67272997 -0.25186273
0.05624779 0.22220562 -1.2004607 -0.038541112 0.37763134 -0.7714073 -0.48738325 -1.0436782
0.3100635 0.30875513 -1.3228196 0.25751215 0.6406446 0.15003563 -0.72244453 -0.56221735
0.28526533 0.6133145 -0.07588205 -0.89776427 -0.871253 0.3011252 0.111383356 -0.013965838
-0.41517308 -0.2366926 0.4350505 -1.2315471 -0.412992 0.47039887 -0.12517272 -0.27257678
0.1714788 -0.026961982 0.24853903 0.4552454 0.3096731 0.40273976 0.06189903 -0.37972125
-0.8170001 -0.7181247 0.31960574 -1.1007941 -0.45316175 -0.08135871 0.09569609 -0.5944231
0.37536877 0.071543664 0.631342 0.32279667 0.47449532 0.33656278 -0.6430854 -0.028132798
0.14062181 -0.2193596 0.19254433 -0.18240988 0.41909662 0.3182276 0.24994257 -0.5096867
-0.18227297 0.39496166 0.34822702 0.5192264 -0.18230003 -0.39015657 0.13930215 -0.14395818
-0.6123202 -1.339918 0.17164885 -1.2992363 -0.14063379 0.106450826 0.06418823 -0.1957569
-0.76308656 0.7602434 -0.02320885 -0.16833702 0.30873007 -0.3474198 -0.14666604 0.33530566
0.27704862 -1.0893104 0.21478717 -0.59723866 0.3758274 -0.3001553 -0.5826957 -0.25590688
0.39609167 0.15111184 0.011076966 -0.65099186 -1.0174137 -0.156917 -0.04600186 -0.2645452
0.09769853 0.5212355 -0.076712556 -0.7763962 0.23184635 0.38680577 0.24882586 -0.4646813
0.43209094 0.31774276 -0.8038862 0.115278445 -0.16071415 -0.29201886 0.13798435 -0.43455088
0.1600077 -0.17110652 -0.07072446 -0.36023012 0.12510855 0.1254135 0.13809423 -0.32907522
0.1326906 -0.30778843 -0.24532385 -0.13732632 0.108509116 0.18366891 -0.37872586 0.18908581
-0.104020596 -0.5605392 0.16806678 0.12520427 -0.13339932 -0.20854664 0.083814055 -0.11429377
-0.041481435 0.042858638 0.03566716 -0.21126369 -0.14528684 0.75903755 -0.61055 0.40115535
00000000: a9ed 363e c4c5 39be e85f 8cbf 1fe6 583e
00000010: bfbf 52be 01bc b1bf 1cc1 5a3e f866 35be
00000020: d309 01bf e948 ae3e 19fc 033f ecaa 26bf
00000030: b60b 1fbf 6129 14bf 0b65 c73e d8ce 88bf
00000040: 2cb0 8b3e 23ed dfbd 67db c5be 2b28 d83e
00000050: beba 7fbe c822 15bf 42f2 11be 937d fb3d
00000060: 8bf8 2dbf 323f 51be afa1 973e 2230 be3e
00000070: d94a 373e cb9c ac3e 839c bebf 82a7 4f3f
00000080: 62b1 5dbf 2ca9 c63e 4c46 493d f6b1 f0be
00000090: 3788 a6bf 994b 02be afcf 523e c1e2 e5bd
000000a0: d5a3 0a3f fdb6 0b3f 50bc af3e 4b54 9cbe
000000b0: 49ae 13be ecea 93bf d9a8 2e3e d9aa aabf
000000c0: 6e18 c03e 7528 763e 7692 c73c c313 aabe
000000d0: e55a 6fbf 0c71 72bb 28b3 1d3e a981 a83e
000000e0: ec18 9abe 8579 71be af53 b83e b266 60bf
000000f0: ffa9 a93e 97f0 c23e 7223 123e 2114 39be
00000100: 4ea0 adbe 7297 623d 61bf af3e daa3 b7be
00000110: 4f28 fbbe 400a 983e 4404 3cbe 6b66 6f3c
00000120: ab7e b73e e88e 61bd 9709 7d3e 72da 5d3c
00000130: 6bd2 46bf a130 04bd c3f4 623e e4d1 90bf
00000140: 8bf4 743e 98c4 0fbf cc85 4cbe 3ad2 be3b
00000150: f7c7 263d 4ad9 3e3f 6e5b 68bf 3810 e6bd
00000160: a153 01bf 962c afbe 6978 8c3e 2e53 bebe
00000170: d921 013f 01ed ae3e 8bea 90bf ad9d e4be
00000180: 1278 013f 78e2 043e 4437 4dbf 2817 33bf
00000190: e7b7 b13e 7539 b2bd 0838 2cbf 27f4 80be
000001a0: 1564 663d df89 633e b2a8 99bf 49dd 1dbd
000001b0: e558 c13e f37a 45bf 4c8a f9be 3f97 85bf
000001c0: a5c0 9e3e 2715 9e3e 2752 a9bf a2d8 833e
000001d0: 4901 243f f1a2 193e 20f2 38bf 7aed 0fbf
000001e0: 4c0e 923e 2e02 1d3f 0c68 9bbd e1d3 65bf
000001f0: 700a 5fbf 152d 9a3e f51c e43d f8d0 64bc
00000200: 9191 d4be 8c5f 72be f0be de3e 56a3 9dbf
00000210: b073 d3be 1fd8 f03e 472d 00be 2f8f 8bbe
00000220: 2398 2f3e 60df dcbc 0481 7e3e ed15 e93e
00000230: 798d 9e3e e833 ce3e d689 7d3d d36a c2be
00000240: eb26 51bf 05d7 37bf 5da3 a33e d2e6 8cbf
00000250: d104 e8be 659f a6bd 50fc c33d 1d2c 18bf
00000260: 5630 c03e 7c85 923d a19f 213f 9b45 a53e
00000270: 0df1 f23e f551 ac3e 3fa1 24bf c176 e6bc
00000280: 2aff 0f3e ce9f 60be 572a 453e a8c9 3abe
00000290: d593 d63e baee a23e f2f0 7f3e d47a 02bf
000002a0: c4a5 3abe 6a38 ca3e d04a b23e 05ec 043f
000002b0: dcac 3abe 9ac2 c7be 39a5 0e3e c669 13be
000002c0: 04c1 1cbf 6f82 abbf b7c4 2f3e 604d a6bf
000002d0: 4e02 10be e402 da3d 1e75 833d 7f74 48be
000002e0: a459 43bf 509f 423f 7c20 bebc 8a60 2cbe
000002f0: de11 9e3e 02e1 b1be 9f2f 16be 2fad ab3e
00000300: 51d9 8d3e 866e 8bbf 2bf1 5b3e a2e4 18bf
00000310: 736c c03e f5ad 99be 8c2b 15bf 3a06 83be
00000320: 87cc ca3e 10bd 1a3e 2a7c 353c 67a7 26bf
00000330: 9d3a 82bf daae 20be 726c 3cbd 7872 87be
00000340: 2b16 c83d b16f 053f 791b 9dbd e7c1 46bf
00000350: 2169 6d3e 680b c63e 35cc 7e3e b5ea edbe
00000360: 063b dd3e 2eaf a23e 7ccb 4dbf 1b17 ec3d
00000370: 4092 24be 7f83 95be c54b 0d3e 747d debe
00000380: 0fd9 233e 8c36 2fbe fcd7 90bd 1570 b8be
00000390: 751c 003e 666c 003e 9368 0d3e 8c7c a8be
000003a0: 0be0 073e 7296 9dbe 2d36 7bbe 459f 0cbe
000003b0: 073a de3d b413 3c3e 5be8 c1be b69f 413e
000003c0: c008 d5bd 7f7f 0fbf b319 2c3e 8c35 003e
000003d0: d599 08be 408d 55be b4a6 ab3d da12 eabd
000003e0: 70e8 29bd 8a8c 2f3d ba17 123d 8255 58be
000003f0: 13c6 14be 4950 423f 014d 1cbf 3c64 cd3e

main.21.weight f4 [128, 256, 1, 1]
0.4834002 0.0011271675 -0.6117696 0.17002663 -1.0013826 -0.8488377 0.08453162 -0.05880052
-0.018276425 0.13522846 0.182388 0.16766997 -0.05477886 -0.076310724 0.45434442 0.43452287
-0.24752612 -0.19009542 -0.24709322 -0.11123898 -0.08783619 0.3398543 -0.8774627 -0.4339261
0.22369301 0.2719232 -0.5345618 0.24764067 -0.38642216 -0.06428555 -0.04515232 0.3401017
0.005404041 -0.13823296 -0.003347762 -0.7166311 0.2784763 0.20854667 0.23295176 0.121612474
0.28457582 -5.496384e-05 -0.59617996 0.1928762 -0.03148904 -0.3783105 -0.0010029741 0.09949725
-0.66075575 -0.08352366 0.218546 0.29683343 0.26257715 0.056382008 -0.24216206 -0.5426521
-0.21477152 -0.014043533 -0.017087065 0.31031126 -0.7467211 0.100953415 0.2644419 -0.059162408
-0.6323208 -0.4165507 0.26874664 -0.8122127 -0.2523553 -0.14513747 0.16401409 -0.44053015
-0.16358213 -0.17333615 0.117554225 -0.14454809 0.18877962 -0.6989459 0.3335539 -0.018230379
-0.30232468 -0.99223286 -0.27473086 -0.53321725 0.052755635 -0.6622495 -0.9380995 -0.16657165
-0.17203228 -0.27446014 -0.75341475 0.25026935 -0.50723624 0.34590986 0.08223967 0.3871583
0.17218561 0.0011132454 0.1344323 0.16150625 0.17320795 0.26451156 -0.0051386133 -0.122331515
0.042424403 -0.019387756 0.026239067 0.017140685 -0.041687775 -0.0027745757 0.14627679 -0.18232843
-0.02730519 -0.30982637 -0.9094358 0.17528778 0.028488642 -0.06614374 0.022532692 -0.075502366
-0.20343594 0.24100977 -1.4010633 0.3600597 0.5272305 0.0006299264 0.13974045 0.016505413
0.047842182 -0.87763107 -0.19297239 -1.344894 -0.31779522 -0.54783535 -1.7323185 0.121592835
0.1113212 0.04444126 0.25264922 -0.5902427 0.17994148 0.48517564 0.24455574 -0.37779927
-0.22659706 -0.2814147 0.13659044 -0.53731495 0.056987066 -0.21859829 0.09183721 0.08463078
-0.017727166 0.48623562 0.104908235 0.058175795 0.0945281 -0.010833005 -0.09202916 0.07576813
-0.087765716 0.10789908 0.063224465 0.058874354 -0.14610924 -0.33826354 -0.956435 0.1665351
-0.21479121 0.055463392 -0.61488354 0.31891462 0.21700628 -0.099578 0.13121617 -0.49780256
-0.1770127 -0.6641129 0.08778337 0.027499521 -0.14715736 -0.23692809 0.26294684 -0.022149999
0.083663896 0.45726332 -0.36995026 -1.0387375 -0.14311965 -0.8130438 0.105301976 0.037082575
0.26838407 0.03782215 0.31588855 0.10440467 -0.44320047 0.2928128 -1.5266635 -0.05645628
0.32888696 -0.2659963 -0.12248484 -0.21144961 0.029339546 0.2232196 -1.05547 0.105702676
0.07521021 0.14194417 -0.44445905 -0.006868959 -0.4335795 -0.031251423 0.13681675 0.36430776
-0.56559265 -0.27023143 0.088218294 -0.29672897 0.3726244 -0.11656344 -0.22206251 -0.1447694
0.068041794 -0.6198119 -0.20019029 0.21578819 0.4795715 -0.035629872 -0.32350704 -0.068051174
0.2835493 0.09008447 0.0636732 0.09022075 -1.1745238 -0.57004017 0.5947538 -0.27901724
0.05834702 0.08701159 -0.7063836 -0.09004913 -0.9424781 -0.064939156 0.05750785 0.013423832
-0.22447716 0.30404517 -0.10271693 0.3198854 0.05920468 -0.122640505 -0.07367819 0.0011741328
00000000: 3b80 f73e 77bd 933a ef9c 1cbf 761b 2e3e
00000010: 4e2d 80bf 6d4d 59bf ea1e ad3d d0d8 70bd
00000020: 71b8 95bc 5479 0a3e ebc3 3a3e adb1 2b3e
00000030: cc5f 60bd cc48 9cbd d59f e83e c879 de3e
00000040: 7d77 7dbe 60a8 42be 0106 7dbe 43d1 e3bd
00000050: 76e3 b3bd 6201 ae3e 65a1 60bf 902b debe
00000060: c80f 653e 8539 8b3e 0bd9 08bf 8495 7d3e
00000070: 20d9 c5be 24a8 83bd a4f1 38bd cf21 ae3e
00000080: 6214 b13b f18c 0dbe 2066 5bbb 2375 37bf
00000090: 7294 8e3e 428d 553e e88a 6e3e f60f f93d
000000a0: ecb3 913e f988 66b8 409f 18bf 5781 453e
000000b0: a7fa 00bd eab1 c1be 3a76 83ba 37c5 cb3d
000000c0: 4a27 29bf 740e abbd 86ca 5f3e 8dfa 973e
000000d0: 8370 863e d2f0 663d 55f9 77be 3feb 0abf
000000e0: 11ed 5bbe d916 66bc 2cfa 8bbc 1ee1 9e3e
000000f0: 1d29 3fbf aac0 ce3d ee64 873e 4854 72bd
00000100: c7df 21bf 2246 d5be 2999 893e 2ced 4fbf
00000110: b734 81be eb9e 14be 4ff3 273e 2b8d e1be
00000120: 1382 27be 087f 31be 45c0 f03d 6a04 14be
00000130: 724f 413e 1eee 32bf 94c7 aa3e e057 95bc
00000140: 4dca 9abe f902 7ebf 86a9 8cbe ed80 08bf
00000150: 4b16 583d 2f89 29bf 4a27 70bf c291 2abe
00000160: 3b29 30be 0a86 8cbe cadf 40bf 4e23 803e
00000170: 3cda 01bf 191b b13e 466d a83d 9d39 c63e
00000180: 6d51 303e 51ea 913a 9fa8 093e e561 253e
00000190: 6d5d 313e 0f6e 873e d061 a8bb f288 fabd
000001a0: 36c5 2d3d 12d3 9ebc 50f3 d63c 9f6a 8c3c
000001b0: cdc0 2abd a8d5 35bb 95c9 153e 4eb4 3abe
000001c0: 22af dfbc 90a1 9ebe c9d0 68bf a47e 333e
000001d0: 0361 e93c 5f76 87bd 7b96 b83c fca0 9abd
000001e0: 8351 50be 44cb 763e 0b56 b3bf bf59 b83e
000001f0: 94f8 063f a521 253a 1f18 0f3e 5c36 873c
00000200: 2af6 433d 6eac 60bf 8e9a 45be 7d25 acbf
00000210: 0eb6 a2be f03e 0cbf 9dbc ddbf aa05 f93d
00000220: 5ffc e33d 0a08 363d 3d5b 813e 251a 17bf
00000230: 9442 383e f168 f83e d26c 7a3e e86e c1be
00000240: 0f09 68be 9615 90be 5dde 0b3e 798d 09bf
00000250: 456b 693d 3bd8 5fbe 2615 bc3d e752 ad3d
00000260: 9038 91bc e0f3 f83e 21da d63d be49 6e3d
00000270: f397 c13d eb7c 31bc c979 bcbd 522c 9b3d
00000280: 83be b3bd 31fa dc3d d47b 813d 3c26 713d
00000290: a99d 15be e130 adbe edd8 74bf 2d88 2a3e
000002a0: 3af2 5bbe 952d 633d 0269 1dbf c748 a33e
000002b0: e536 5e3e 8def cbbd 885d 063e fadf febe
000002c0: d142 35be 4e03 2abf c4c7 b33d ad46 e13c
000002d0: 6bb0 16be 479d 72be f8a0 863e ea73 b5bc
000002e0: fa57 ab3d 6b1e ea3e 1f6a bdbe 5af5 84bf
000002f0: f58d 12be a323 50bf 90a8 d73d e6e3 173d
00000300: a369 893e 66eb 1a3d 25bc a13e 1ed2 d53d
00000310: 2ceb e2be 8feb 953e b669 c3bf b33e 67bd
00000320: df63 a83e ab30 88be 55d9 fabd 3f86 58be
00000330: 7d59 f03c ae93 643e a419 87bf a57a d83d
00000340: d007 9a3d d059 113e 2390 e3be 0115 e1bb
00000350: 22fe ddbe 7e01 00bd b119 0c3e 8c86 ba3e
00000360: aeca 10bf c65b 8abe cbab b43d dcec 97be
00000370: a0c8 be3e d0b8 eebd 5b64 63be 6e3e 14be
00000380: 7f59 8b3d feab 1ebf affe 4cbe 94f7 5c3e
00000390: 658a f53e a1f0 11bd b7a2 a5be 6a5e 8bbd
000003a0: 602d 913e 357e b83d 1867 823d a8c5 b83d
000003b0: cc56 96bf 27ee 11bf c941 183f 59db 8ebe
000003c0: 49fd 6e3d 2233 b23d 8ed5 34bf ae6b b8bd
000003d0: 3f46 71bf d2fe 84bd 5a8d 6b3d a2ef 5b3c
000003e0: 57dd 65be cfab 9b3e 415d d2bd 05c8 a33e
000003f0: 9b80 723d f22a fbbd 97e4 96bd 5ce5 993a
