data/Gestures/Gestures_SpeckNetA_framebased.pth (torch_old, 687158 bytes, 9 tensors)

seq.0.weight f4 [16, 2, 2, 2]
00000000: 112f 09bd bc40 9d3d be41 38be 8a2b 80be
00000010: 0f38 a73d 239f 45be 42ff 973c 71b1 603d
00000020: 3572 1fbe 3deb e7bd 44c4 b9be 1161 ddbd
00000030: a3c8 13be 8ae5 f6ba a517 7f3e 7b12 073e
00000040: 9f8b 71be 5a9f dabd e6d1 d6bc 0de5 a33d
00000050: e75f 25be e147 25be 8b2a 27bc b8c7 d4be
00000060: bec1 14be ba4a babc abe6 c7bd b13a 683d
00000070: 144e 05be c50f 3e3b 72df d43d daeb 0abd
00000080: 8088 19be d959 de3d ac7f 3abd 651f 95ba
00000090: b590 503e f68d 0ebe 89e0 90be 5799 86bd
000000a0: 5d84 973d 941e e3be 5eb5 333e 4a6f 69be
000000b0: 7fda a33d 5297 f83d 8382 39be d036 103e
000000c0: 76e6 57bd 25ee 04be 17b5 9fbd ef06 4e3d
000000d0: a401 12bc 0253 72be d724 87be e3a1 873d
000000e0: 40c5 c9bd 209e 40be 5d9d 1fbd 4218 3ebd
000000f0: 7aaa ff3e b1ec 833e 88f3 8b3e e6a6 4d3d
00000100: 5a85 683e 1ba2 ca3d 7538 22be f645 43be
00000110: 520b 9cbe 5ee6 c7bd c17f 173e 6e51 913e
00000120: 2b99 abbd 4b86 e63d 1078 ee3d a97a 02bd
00000130: 1077 93be 56e4 09bf 9daa ae3d 3b5e d5bd
00000140: f70e 3c3c a68b 3fbc dad6 03be b51e 2f3e
00000150: 4fda 22bd b4fd 3e3e 2d31 843d 9276 bbbe
00000160: df8d 213e f019 c9be 602c f5bc c11d db3c
00000170: e29d f7bd 1d5e aebe cb30 5b3e 99de aabe
00000180: f65c 24bd ad7a 8e3d 9b76 e53d 7b9a 083d
00000190: 24b1 f13c ef7d 913c 54ce ba3d 027c 4e3e
000001a0: 2d86 883c 309a 9cbe 7086 823c 43ff a13d
000001b0: 5148 c1bc cc9a 073e c07a b1bb e91f f6be
000001c0: bf81 c23e 0357 2b3e 70c8 8e3e 89e5 013e
000001d0: f409 783d eec7 0fbe b9a8 e7bd 7504 9ebd
000001e0: 5e9b b6bd d9e6 06be 86ba 133e b0bc c8bc
000001f0: 546d 11bd e271 8f3e dbf6 0ebf 5e78 963d
-0.03349215 0.07678363 -0.17993829 -0.25033218 0.08164989 -0.19298987 0.018554334 0.05485672
-0.1557091 -0.11324165 -0.3628255 -0.108095296 -0.14432006 -0.0018836719 0.24911363 0.13190643
-0.23588417 -0.10674925 -0.026223134 0.08002672 -0.16149865 -0.16140701 -0.010203014 -0.41558623
-0.14527032 -0.02274071 -0.09760793 0.056696597 -0.13018066 0.0029001099 0.10394181 -0.03391633
-0.14993477 0.10856981 -0.045531914 -0.0011377154 0.20367701 -0.13921341 -0.28296307 -0.06572216
0.07398293 -0.44359267 0.17549655 -0.2279636 0.08000659 0.12138237 -0.18116193 0.1408341
-0.05271002 -0.1298147 -0.07798212 0.05029958 -0.008911524 -0.23664477 -0.26395294 0.06622674
-0.098520756 -0.1881032 -0.038968433 -0.046409853 0.4993475 0.2576652 0.27334237 0.050207995
0.2270712 0.098942004 -0.15841849 -0.19069657 -0.30477387 -0.09760736 0.14794828 0.28382438
-0.08378824 0.11256083 0.11643994 -0.03185526 -0.28801775 -0.5386404 0.08528636 -0.10418364
0.011478177 -0.01169101 -0.12874928 0.17101558 -0.039758977 0.18651468 0.06454692 -0.366139
0.15776776 -0.392776 -0.029928386 0.026747586 -0.12090661 -0.34056178 0.21405332 -0.33372954
-0.040127717 0.06956992 0.11204263 0.03335045 0.029503413 0.017760245 0.09121385 0.20164493
0.016665542 -0.30586386 0.015933245 0.079100154 -0.023594053 0.13242644 -0.0054162443 -0.4807122
0.37989613 0.16732411 0.27887297 0.12685217 0.060556367 -0.14041111 -0.11311478 -0.07715694
-0.08916353 -0.13173999 0.14426622 -0.024504036 -0.035504654 0.28016573 -0.5584542 0.07347177

seq.2.weight f4 [16, 16, 3, 3]
00000000: 4520 6f3d b626 fabd 1e67 04be bc73 92bd
00000010: 74ec 993e 4ed2 343e f255 a3be a104 213c
00000020: c620 413d ffbb 553e 6cb0 cb3e 8e92 c53e
00000030: 3561 24bc 47e8 023c 792d f5bd e1fe 9bbe
00000040: 3d74 96be 985b a83d c5d7 d6bd ff12 b3bc
00000050: 1556 b9bd a94b 783e 1378 013d 42ab bfbd
00000060: bfbe ec3e 7a95 023e d15a 953d 2d51 4fbe
00000070: 6850 893b 0427 b7bc 522c 023e 2500 603e
00000080: 09fc 0fbd 41ae c2bd 14a2 16be b0fe 943c
00000090: 56ba a3bd 62ca 42bd e7d8 1e3e e4f8 afbd
000000a0: 318f 253e c2ea e33c 3384 563e b907 113b
000000b0: 0cd2 e0be 18ad 9c3e 0b2a f73e 82da f93d
000000c0: fa37 043f a2ab b03d 25de 91bd 2e66 51be
000000d0: d55c 64be d38f 30be 3a4e 05be fbaf 56be
000000e0: 133d 2abd 6432 103c 8de5 553e 9633 6dbd
000000f0: 28ca a8be d6a4 2b3c ce2c 46be ec72 b63d
00000100: 4711 433e fb14 3c3e 8504 ae3e 0fa0 343e
00000110: 1a8a af3d 8968 88be 845b 08bf 96ed afbe
00000120: 4413 633f d783 323f b67e 3b3d aa12 debe
00000130: 3ab1 6cbe cf25 35be 7fa6 50be 6c86 c4ba
00000140: 63fe 273d 37d3 3abe e955 c1be d3dc 1ebe
00000150: 233c 0dbe c22e 443d 2360 9fbd 26b8 9d3e
00000160: cb3b ac3e 2bfe 503e 20d5 4dbd 4d22 233e
00000170: 9ded 10be 7741 89be 0bcc 013d 9a9d 90bd
00000180: cec6 613e 8fd3 59be 37b1 9bbc 0803 b7bb
00000190: e351 1c3e d182 acbe ac90 d2bc dd4b 64be
000001a0: 9ec9 79be e53a b53e ffea 873d c8bb 0c3e
000001b0: 849c 7ebe 4d77 77be 85b2 5ebe 906e 4a3d
000001c0: 0aef 1dbd 9996 0abd 5c56 8cbd d06d 13be
000001d0: a7f5 84bc 3191 a8bd c353 023e e464 f03c
000001e0: c20f cf3e 3aa8 4e3e 0b58 dc3d f130 4d3e
000001f0: d333 54bd 8253 903e 3a23 b9be 0452 0bbf
00000200: 975e 0abf 4a0e e2be 344f 83be 8d46 8a3d
00000210: e8cd cb3e 59cc c53e 2936 333e 2421 cf3c
00000220: 99ab 5dbe 7236 29be 30ac fd3d 472d 943b
00000230: 76e7 22bd 31d2 b8be 54a3 75bd c350 8f3e
00000240: 395d d4bc 6793 d6be bc65 173e 569e 3fbc
00000250: e85a dfbe fc5c 24be b847 923e c012 7bbe
00000260: 2953 f0bd 122f 383e 9a78 1c3e ae34 003d
00000270: 3949 02bd e84d fa3e 7d33 063e fa20 26bc
00000280: 6242 823e 29bc f93d 00eb 36be 66f5 16bd
00000290: 4502 d9bd ccd7 bb3d eec4 c83e 8730 243e
000002a0: 871f d23d 4401 fc3d d1cd 393d 3566 0fbc
000002b0: 7309 83bf cb88 bb3e d2bb 973d e0c2 1dbf
000002c0: 364c 883e 6ad2 5e3e 3c77 09bf 2529 26be
000002d0: 1b61 473c b159 223f 6a34 973e a3d5 0dbe
000002e0: 6acc fbbd 2610 003d 8f83 433e f753 953e
000002f0: 1fa5 a73d 99df 33bd 9290 3c3f aec0 06bd
00000300: 64cd 14bd 4a69 6a3f cc8b d1bd 31aa 11be
00000310: efbf f33e 6734 93bd 0828 863d 931f 76be
00000320: 9d0a a63e f035 52be 991c 6bbd cdfe 9b3a
00000330: 855f 9cbd a5a9 d53e 029d 2dbd 3a7a 4d3e
00000340: e63e 0fbe f1b5 f8be af30 c83e 8466 fcbe
00000350: e459 30be 1bce af3e 083f e2be f8b2 87be
00000360: e116 6f3d f694 cdbe 8d38 29be ea92 3abe
00000370: 5d26 78bd d2ae 3c3e 4948 1d3e 4afa d9be
00000380: cda6 d13e 0cf6 2dbe 43b0 e33e 2403 efbd
00000390: 92fa 72be f016 2b3f ad4d efbe 560d ccbd
000003a0: 3069 5a3f a774 693d 9e11 20be c39c 01bf
000003b0: c6f1 96bd e6d8 943d 2dd0 1fbe 918f b43e
000003c0: 74fe 33be d658 f5be 7e5e f33e a1b7 983d
000003d0: e4fc 27be 1efa 12bf 9bfd c13e 33d3 dd3e
000003e0: e5ed e0be 7f34 853e 22d3 a53e 788f 24bf
000003f0: fcfa 133e 591c 93bf fb6a 823d ab71 a13e
0.058380384 -0.12214415 -0.12929961 -0.07150981 0.30063212 0.1765835 -0.3190151 0.009827764
0.047150396 0.20872496 0.39783037 0.38588375 -0.010032942 0.00798995 -0.11971564 -0.30467895
-0.29385558 0.08220595 -0.104903735 -0.021859644 -0.09049622 0.24247612 0.031608652 -0.09358837
0.46239278 0.12752333 0.072927125 -0.2024581 0.0041904934 -0.022357471 0.1271222 0.21875055
-0.03515247 -0.095058925 -0.14710265 0.01818785 -0.07994525 -0.04755629 0.15512429 -0.08592394
0.16167904 0.027821902 0.20948867 0.0022129847 -0.43910253 0.3060081 0.48274264 0.1219988
0.51647913 0.08626486 -0.07122449 -0.20449135 -0.22301038 -0.17242365 -0.13018122 -0.20965569
-0.04156215 0.008801077 0.20888348 -0.057910524 -0.32966733 0.010476312 -0.19353029 0.08908638
0.1904956 0.18367378 0.33987823 0.17639183 0.08571263 -0.26642254 -0.5326464 -0.3436095
0.8870127 0.6973242 0.045775138 -0.43373615 -0.23114482 -0.17690204 -0.20376013 -0.0014993674
0.041014086 -0.18244635 -0.37760857 -0.15513925 -0.13792472 0.047896154 -0.077820085 0.30804557
0.33639368 0.20409457 -0.05025208 0.15931053 -0.14153142 -0.26807758 0.03168873 -0.0706131
0.22048494 -0.2127211 -0.019005401 -0.005585078 0.15265612 -0.33693555 -0.02570375 -0.22294565
-0.24393317 0.35396495 0.06636619 0.13743508 -0.24864393 -0.24166603 -0.21747787 0.049421847
-0.038558044 -0.033835027 -0.06852409 -0.14397359 -0.016230417 -0.08230818 0.12727265 0.029344983
0.4044171 0.20181361 0.1075898 0.20038201 -0.051807236 0.2818871 -0.36159688 -0.5442202
-0.5405058 -0.44151527 -0.25646365 0.06751738 0.39805532 0.38632467 0.17501129 0.025284357
-0.2164749 -0.16524675 0.12386358 0.004521999 -0.03977152 -0.36097863 -0.059970215 0.27991304
-0.025923358 -0.41909334 0.14784902 -0.011695465 -0.43624043 -0.16051096 0.28570342 -0.24518871
-0.117346115 0.17986706 0.15280381 0.03130024 -0.03180811 0.48887563 0.13105579 -0.010139698
0.2544127 0.12194092 -0.17863083 -0.036855124 -0.10596136 0.09172019 0.39212745 0.16034137
0.102599196 0.12304929 0.045362297 -0.008752395 -1.0237259 0.36627802 0.07408871 -0.6162548
0.26620644 0.21759954 -0.5369756 -0.16226633 0.012169148 0.6341811 0.29532176 -0.13851027
-0.12294848 0.0312654 0.19093154 0.29165623 0.08185791 -0.04391441 0.73658097 -0.032898597
-0.03632869 0.9156691 -0.10231742 -0.14225079 0.4760737 -0.07187729 0.06550604 -0.24035482
0.32429972 -0.20528388 -0.05740032 0.0011901498 -0.076354064 0.4173099 -0.042386062 0.20066157
-0.13988838 -0.4857631 0.39099643 -0.49296963 -0.1722179 0.34336933 -0.44188714 -0.2650373
0.05837143 -0.4015271 -0.16525479 -0.18220106 -0.06058346 0.18426064 0.15359606 -0.42573768
0.4094757 -0.1698839 0.44470415 -0.11670521 -0.23728397 0.66831875 -0.4673895 -0.09963481
0.85316753 0.056996014 -0.1563172 -0.50629824 -0.073703334 0.072679326 -0.15606757 0.35265782
-0.17577535 -0.4791934 0.4753303 0.074568994 -0.16405064 -0.574129 0.37888798 0.43325195
-0.439315 0.26016614 0.32387644 -0.64281416 0.14451212 -1.1493026 0.06368061 0.31532034

seq.5.weight f4 [32, 16, 3, 3]
00000000: 3d71 64be 9d77 0dbd d3a7 8e3e a901 cfbe
00000010: 2fc0 ec3d e42c 1c3e 9460 b63c 2b8b a1be
00000020: 96f3 dbbe 47fd 443f 93ba f63e d6c8 d1bd
00000030: 7288 0a3f e0ac 403f 5886 37be 41ea 0a3f
00000040: 219d 303f 4940 b8be 8d17 123d 0947 6cbe
00000050: 3327 56be 478b a3bd 22e7 103e 5237 a33d
00000060: fc5b 1abe b114 4e3e 11d6 fd3c c478 a93d
00000070: ed67 363d b671 1dbf d9eb 3e3e 9364 023e
00000080: 0641 8abe 8b5c 10be 11ed 65be 01ef 12bf
00000090: 8521 203f 6215 b3be 50f2 bf3d c8e3 e43e
000000a0: 9012 c03e 1059 14bf 5731 393e 1913 51be
000000b0: 5fd9 d9be e303 ee3d 1926 35be 58fe 7b3e
000000c0: 20bc 9bbe 9355 d5bd d9b6 953e fbe6 f4be
000000d0: e5bd 7cbd af5c 6e3e 1335 f93d bafb c3be
000000e0: 57ff a9bf a8e4 a13c 932f ce3d adfb 61bf
000000f0: 2d5b 1dbe f59c 863e 79ff 51be a133 51be
00000100: 09ae 603e c780 d43e 79e3 70bf 5edb c9bd
00000110: 6ed3 5d3d df04 60bf e4b2 07bf 6432 9dbe
00000120: 6427 16bf feb4 99ba be29 a53e b6f9 23bf
00000130: d9f9 1bbe dd61 b23d ee82 b1be 7701 24bf
00000140: 7b44 b9be cc5a 93be 455c d5bd 65ea 353e
00000150: f188 fcbd 294e f4bd 2688 af3e f8e0 a2bd
00000160: c47f 2c3c 6ed2 113e 5699 09be 517e 38be
00000170: 6a36 cfbe 5c4b b73e e7d2 b7be d93d 90be
00000180: 6b87 8ebb 97c6 a6bd 7b46 08be e535 ccbe
00000190: f2f2 763d 0bc6 713e 1ca5 e1be bc5d 323e
000001a0: f3ce ec3d d194 1dbf 6978 433e 63cf 643e
000001b0: f456 373d 5455 9abe fe39 03bf 23e5 a93e
000001c0: 5be3 b93c 78b1 25be 18b0 99bc edbe 04bf
000001d0: 4820 a7be 800f 1fbe e620 bdbe 5c1b 50be
000001e0: 969e 9cbe 5045 193e 560b 91be 0bf0 94bc
000001f0: 389a 803b a5e3 443e 93f4 b2be 2bdf 5a3e
00000200: 794e b63e 03cf 2cbf 426d c03d a9f6 543e
00000210: c3fa 5fbf c6e1 4ebe 31dc a23d d407 1e3e
00000220: 3c55 973e 77e7 1b3d 44ae 753e 6628 ec3e
00000230: 12f1 b73d 0769 15bd acd3 c83e 5f6c c53d
00000240: e2a8 23bf cb7a 38bf 6518 273c 2d8d 38be
00000250: b3ac 35bf fd1e eebe 2357 583e 0c44 21be
00000260: cfc8 eebe d9c5 c63d a5f6 61bc 8714 323c
00000270: 00b9 b3be 90bf b2be 1184 81be 352a 133e
00000280: 5ccf 15be 2635 7f3e 41eb 393e 4587 a83e
00000290: e0ed d63c 002d 573d 7ce6 163e 7339 fcbc
000002a0: 4db7 21be a8c7 b5bd 9583 00be 04e0 5dbe
000002b0: 28a3 1abe 63a9 be3c 91cc c9be 7515 88bf
000002c0: de49 f3be 6545 70bf bcc2 5fbf 7b3b b2be
000002d0: 34ef 01be 0899 23bd 93ff acbd 30a6 f73e
000002e0: 7026 8fbe 88c4 e3be dcd5 b43e 6e48 d33e
000002f0: 39f0 b23e d476 833e dd1d 8e3e d0c1 853e
00000300: b059 543d 7777 dabc b166 90bb b777 ebbe
00000310: 9c01 9ebe f410 9dbe 2ea7 283e 333c 3fbe
00000320: 8b88 48be c6fa 053e 0210 443e 37f4 7c3e
00000330: c740 ce3e 68c5 773e acc2 ca3e dad2 29bf
00000340: db8b 18bf 3d10 6a3e c103 7abe 8bdb 88bf
00000350: 94ee 82bf 9cef 64be c6c4 bebd 9f79 09bf
00000360: 791a 86bf 52c2 91bf 463b 1abe 4c52 57be
00000370: 9c7d 95bf ece3 3fbf 78e8 41be b65a eebe
00000380: 1a12 4fbe ffce 4bbd 2868 ac3e f01d ee3e
00000390: f213 183b c789 acbd a639 64bc 4dc5 5cbd
000003a0: 6a26 ae3d 8eb1 56bc 96c5 213e 7ebe 913e
000003b0: ef3d b03e 5b5e 613e 8e03 6d3d 5bb8 663e
000003c0: 0b60 a03e 51b9 c83e a0cf f13d dcd0 d8be
000003d0: 27e5 c43d 7256 1a3f fa3b 7e3e 38ed 65bf
000003e0: 573f babe 4724 073e f131 37be 2a40 cabe
000003f0: 234f 0abe 5e52 12be b13a ecbe 125e ac3e
-0.22308822 -0.0345379 0.27862415 -0.40430954 0.115600936 0.152515 0.022262849 -0.3155149
-0.4295928 0.7694897 0.4818922 -0.102433845 0.5411445 0.75263786 -0.17922342 0.54263693
0.6898976 -0.35986546 0.03566699 -0.23073973 -0.20913391 -0.079855494 0.1415067 0.07969536
-0.15074152 0.2012508 0.030985864 0.08274987 0.044532705 -0.61501634 0.18644656 0.12733679
-0.27002734 -0.14097802 -0.22453715 -0.5739594 0.62551147 -0.3497725 0.09372389 0.44705033
0.37514162 -0.579484 0.18085228 -0.20417441 -0.42548653 0.11621835 -0.17690314 0.24608743
-0.30416965 -0.104167126 0.29241064 -0.47832474 -0.061704535 0.23277543 0.12168326 -0.3827799
-1.3281049 0.019762352 0.10067668 -0.8827465 -0.15366812 0.26291624 -0.20507611 -0.20429851
0.21941389 0.415045 -0.94097096 -0.09856294 0.054156713 -0.8750743 -0.5300734 -0.30702507
-0.58653855 -0.0011726914 0.3225841 -0.64052904 -0.15232028 0.08710072 -0.34670204 -0.64064735
-0.3618506 -0.2878021 -0.1041799 0.17765196 -0.12330807 -0.1192897 0.3428356 -0.07953066
0.010528509 0.14240429 -0.134374 -0.18016936 -0.40471202 0.35799682 -0.35903093 -0.28172186
-0.004349639 -0.08143347 -0.13308136 -0.39884868 0.060290284 0.23610704 -0.4407128 0.1741857
0.1156291 -0.615552 0.19088902 0.22344737 0.04476066 -0.30143225 -0.51260364 0.3318263
0.02269142 -0.1618098 -0.018760726 -0.5185383 -0.32641816 -0.15533257 -0.36939162 -0.20322937
-0.3058974 0.14967847 -0.2832896 -0.018180868 0.0039246343 0.19227464 -0.3495222 0.21374194
0.35606745 -0.67503375 0.09395839 0.20797218 -0.87492007 -0.20203313 0.079521544 0.15432674
0.29557216 0.03806254 0.23992258 0.46124572 0.089815274 -0.036477115 0.39223993 0.09639811
-0.6392957 -0.7206237 0.010198687 -0.18022604 -0.70966643 -0.46508017 0.2112699 -0.15748614
-0.4663758 0.09705705 -0.013791715 0.010869152 -0.3510208 -0.34911776 -0.2529607 0.1437157
-0.14629883 0.24922618 0.18156148 0.32915702 0.026236475 0.05253315 0.1473636 -0.030789113
-0.1579258 -0.08875972 -0.12550195 -0.21667486 -0.15101302 0.02327413 -0.39413884 -1.0631548
-0.47517294 -0.9385589 -0.87406516 -0.34811005 -0.12688905 -0.039940864 -0.084471844 0.48368979
-0.27959013 -0.4448588 0.35319412 0.41266197 0.349489 0.25676596 0.2775716 0.2612443
0.051843345 -0.026668293 -0.004406773 -0.45989773 -0.30860603 -0.30676997 0.16470024 -0.18675308
-0.19583337 0.13083944 0.19146731 0.24702536 0.40283796 0.24196398 0.39601648 -0.6633736
-0.595884 0.22857757 -0.24415495 -1.0691999 -1.0229058 -0.22357029 -0.09314875 -0.53701204
-1.0476829 -1.1387427 -0.15061674 -0.21027488 -1.1678958 -0.74957156 -0.18936336 -0.46553582
-0.20221749 -0.049757954 0.33673215 0.46507215 0.0023205248 -0.084247164 -0.01392976 -0.0538991
0.08503421 -0.013103856 0.1579803 0.28465647 0.34422252 0.2200865 0.05786472 0.22531264
0.31323275 0.39203885 0.118071795 -0.42346847 0.0961402 0.60288155 0.24827567 -0.8981509
-0.3637645 0.13197432 -0.17890145 -0.39502078 -0.13506751 -0.14289233 -0.46138528 0.3366552

seq.8.weight f4 [32, 32, 3, 3]
00000000: f7bd 73bd c5a4 66be d06e 12bf a883 2abf
00000010: 299f 29bf d27f dfbe 9243 85bf 5f77 9fbe
00000020: ce81 033d c449 3cbf a807 29bf 3526 56be
00000030: 2045 a83d 266c 32be 0526 cd3e eebd 5cbd
00000040: 335b 0fbc 94ce 8e3d daf4 b5be 1de1 d0be
00000050: aff8 94be 8b17 c7bd 455e 613d 6f24 edbe
00000060: 0749 f8be 6a31 ba3d 88a7 56bd 5b3b e5be
00000070: ed76 8abf 474e 62be afaf 3abf b117 afbe
00000080: 0e87 d1bd 05b8 33bd 5995 393e 3865 693d
00000090: 583e a03d a97d 883d 388a 163f 7376 bd3e
000000a0: 1096 f5be 1062 d23e b870 bb3b e78a 82bf
000000b0: 3bd4 a03e 2c52 563e e0ac a3be e0bf 19bf
000000c0: a864 0b3c b9ae 3fbf 587b 1ebe 71a8 7f3e
000000d0: 80d2 d1be 9e7d 0bbe c11c b1be 4512 e0be
000000e0: 272c c6be db5b f5be b2c2 99bf e260 67bf
000000f0: 29f8 8ebb 9b50 12bf 221b 04be 1def 3c3e
00000100: a3c8 b53d c8eb e03d f7e2 c73e 035f 433e
00000110: 8731 03bc d6bd 383e 4043 7d3d 8b31 0ebe
00000120: 2a93 4dbc a390 aabc f5c4 0abf f6ee 8f3e
00000130: 22b6 953e b4ce ecbe 6f02 cb3e f0c7 913e
00000140: c5fc cfbe 9dac 943e b7d1 c43e d14a 1e3e
00000150: cb24 2a3e 8c3a b23e f4d9 bdbe e8cc d73d
00000160: 9d15 433e 40fd 42be a736 ddbe d021 553d
00000170: d1ec 9c3e eddc 95be bcfa 7b3d 3b9e 95bd
00000180: f452 59bb d292 fbbe 9630 c53e 1a22 6f3e
00000190: 04fc 08bf f2f3 d8be 2838 d83e 7784 ac3e
000001a0: ce63 ae3e e4d6 e5be 2245 3cbe 6b3b 9ebe
000001b0: fb9b 5dbe 7ae1 6abe 706b e4be 222e 083e
000001c0: fe53 d03e c56b 51be 53c0 a03d 8041 d63d
000001d0: bca4 fbbe 0661 09bf ed84 8cbe 3c61 003e
000001e0: 84a3 d7be f5de b7bf a12b 85bd b448 2ebf
000001f0: ed45 64bf 54b4 1e3e 22ab 0f3e 3820 15be
00000200: 5d87 483e adfc 77be 92cf 2c3e a247 3cbd
00000210: b5e3 b4be bb12 81bd 8127 e9be fe41 8fbf
00000220: 5988 50bf 5848 29bf ae95 5a3c 1447 21bf
00000230: e023 0bbd aa11 6bbe f1c9 5abc 25c7 993d
00000240: 7c05 c6be b9b9 bfbe cea6 b0bc 8b9f d6be
00000250: 8478 dabd 517a ae3e b931 37bf bc8f 53be
00000260: 46ff 853e 1d45 63be 4c19 51be 5e6b 1bbe
00000270: f4da f33d ef84 7c3d 7a26 413e 7a26 253e
00000280: 8787 1d3d 8c1d 143e 44d6 333c 872c aa3e
00000290: 609e 053f 3ef0 17bf 45dc fb3e 4c8a 003f
000002a0: 93d3 9fbf 7f23 0b3e 389e d53d ed10 743e
000002b0: a40e 3dba e8b6 763e 44bc 02bf 7493 3e3e
000002c0: 5470 d33e e9cb 823e 8961 4a3d 034c 3e3e
000002d0: 27a1 843e f407 b83e 8762 c33d 3c96 803e
000002e0: c88f e13e 317b c4bd 2291 68be 901d a03e
000002f0: bd97 62bd af40 7c3d 4456 cebd 9de1 98bd
00000300: 3a76 c33e af9c c43e 8db7 443d 3de1 bfbd
00000310: 2337 bb3d 3435 14be ba0f ac3e 2bd8 0abe
00000320: c7c6 aebe 8f5d f73c 69e4 acbd 2b23 a73e
00000330: 4402 10be 3a3d 54be 7aa1 3f3e 9def 0ebe
00000340: c1de 35be 5ef8 e8be a82c 9a3d e4bb 823d
00000350: 54a3 78be 1776 ed3b c15f 353f a5c5 203e
00000360: 5508 bc3c 69fd 733e 5410 443b 0391 bebd
00000370: 7dbf 00be 1fca 153d 0393 82be 449a cfbb
00000380: d206 443e 328d 4c3e 744a 253e 95b2 b2bd
00000390: d0c9 a53e 1141 db3e 9b91 bfbe b1a1 5ebe
000003a0: 84f8 d73e d2fb 3ebe 9472 26be 10ec 00bd
000003b0: 7171 28be 5889 e63e bb26 573e 62a2 1d3d
000003c0: 23bc 3f3e 27a8 cc3c 0de9 573e be72 673e
000003d0: 427c b9be 9d8a 1abe 8331 463e 1afa 363e
000003e0: 43f9 0dbd d149 783e f5b1 ea3e 2a27 f2bd
000003f0: 8366 01bf c630 17bf 013e 84be f096 d4be
-0.059507336 -0.22523792 -0.57200336 -0.6660714 -0.66258484 -0.43652207 -1.0411246 -0.3114576
0.032106213 -0.7355006 -0.6602731 -0.20913012 0.082163095 -0.17424068 0.4006807 -0.05389207
-0.008749771 0.069729954 -0.3553837 -0.40796748 -0.2909598 -0.09721287 0.055021543 -0.4631686
-0.48493215 0.09091456 -0.052405864 -0.44771847 -1.0817543 -0.22100173 -0.7292432 -0.34197763
-0.10230838 -0.043876667 0.18123378 0.056981295 0.07824391 0.06664593 0.58804655 0.37004432
-0.4796605 0.4109044 0.005720224 -1.019864 0.3141192 0.20929784 -0.3196783 -0.60058403
0.008507885 -0.7487598 -0.1547674 0.24966599 -0.4098091 -0.13622138 -0.3459225 -0.4376394
-0.3870556 -0.47921643 -1.2012541 -0.90382206 -0.004363079 -0.57154244 -0.12900975 0.1845059
0.08876159 0.10982472 0.39040348 0.19079213 -0.008007414 0.18041167 0.061831713 -0.13886087
-0.012547294 -0.020820921 -0.5420678 0.28112 0.2924052 -0.46251452 0.39650294 0.28472853
-0.40622535 0.29037943 0.3844125 0.15458228 0.16615598 0.34810293 -0.37080348 0.1053713
0.19051214 -0.1904192 -0.4320576 0.0520342 0.30649427 -0.29270115 0.061518416 -0.07305571
-0.0033161016 -0.49135453 0.3851363 0.23352852 -0.53509545 -0.42373616 0.42230344 0.33694813
0.3406052 -0.4489051 -0.18385747 -0.30904707 -0.21641533 -0.22937575 -0.44613218 0.13298848
0.4068908 -0.20451267 0.07849183 0.10461712 -0.4914912 -0.5366367 -0.27445164 0.12537092
-0.4211694 -1.4364916 -0.06502462 -0.68079686 -0.891692 0.15498477 0.14030126 -0.14563072
0.19582887 -0.24217482 0.16876057 -0.045966752 -0.35329977 -0.06302401 -0.45537952 -1.1192014
-0.8145805 -0.6612601 0.0133413505 -0.6299908 -0.03396976 -0.22955957 -0.013353811 0.07508687
-0.3867606 -0.37446383 -0.021563914 -0.41918597 -0.10667518 0.34077695 -0.71560246 -0.20660299
0.2617132 -0.22194333 -0.20419806 -0.15177676 0.11906996 0.061650213 0.18862334 0.16127959
0.038459327 0.14464396 0.010976378 0.33237097 0.52194786 -0.59350955 0.4919149 0.50211024
-1.2486442 0.1358776 0.104305685 0.23834582 -0.00072119595 0.2409321 -0.5106852 0.18610936
0.41296637 0.25546196 0.049409423 0.18583684 0.259042 0.35943568 0.09540277 0.2511462
0.4405501 -0.095938094 -0.22711614 0.31272554 -0.05532049 0.061585125 -0.100750476 -0.07464907
0.38176137 0.3840079 0.04802661 -0.09369133 0.09141376 -0.1447342 0.33605748 -0.13559024
-0.3413603 0.03019598 -0.08442003 0.3264402 -0.14063364 -0.20726481 0.18713942 -0.13958593
-0.17760755 -0.4550199 0.07528049 0.063834935 -0.24281055 0.0072467434 0.70849234 0.15700395
0.022953192 0.23827137 0.002991696 -0.093050025 -0.12573047 0.03656971 -0.25502786 -0.0063355286
0.19143227 0.19975737 0.16141683 -0.08725468 0.32380533 0.4282308 -0.37415776 -0.21741368
0.4218179 -0.1865075 -0.16254646 -0.031475127 -0.16449524 0.4502666 0.21010868 0.03848494
0.18724112 0.024982525 0.21084996 0.22602364 -0.36227614 -0.1509194 0.19354825 0.17868844
-0.034661543 0.24246909 0.45838895 -0.11823876 -0.50547045 -0.590588 -0.25828555 -0.41521406

seq.11.weight f4 [64, 32, 3, 3]
00000000: 1a67 af3e fb4e ccbe caa9 083f 984b 2fbe
00000010: 92ed babd 1f65 35bd 99ee bb3e 55fe 803d
00000020: c217 9f3c 1d36 9bbe ebc0 3b3e 97a1 b13e
00000030: 3863 9d3e f045 ba3c cf5c 9abe 5ed6 ab3e
00000040: c621 b8be 0c7c 3c3e 6c1e 563e 0104 a93e
00000050: b386 f3be 3776 f4be 0617 b6bd 8dfe 58bc
00000060: 8c42 88be bc78 3f3e b948 10bf 9b4e 88be
00000070: 88b5 9abe a43e 8dbe ec1f 413d 2b52 39bd
00000080: 74ff f3bc 0a34 0f3e 137f e4be 064b 44bf
00000090: 3122 b03e 3f95 0dbf 3759 3bbf 9083 ea3e
000000a0: 8477 31be 61c9 74bd d360 07bf a668 bcbe
000000b0: 37ab 2d3f 939a 8dbf 7bc7 8cbf 03f2 03bc
000000c0: 55df 20bd 8202 c5be 3613 183e 6bc5 84be
000000d0: 31a9 d43e 6ba7 cebe 81a4 b9bf 4964 82be
000000e0: 2fcb 103e 2f51 f7bd 1461 dc3e 9109 98bd
000000f0: 0905 7a3d 7006 433e 4e77 64bd dd6c 363d
00000100: 09f6 333e 4c3d a7bd a3ec c6be 1d43 87be
00000110: 8ed8 59be e16c 073d 55c7 f8bd 5cb9 7f3e
00000120: b72d 3fbf 2e14 223e 5f55 9a3e 1762 f7be
00000130: 5707 c33e 3c2a 34be 3f4c b6be 006a 853e
00000140: ef7a 98bf 9795 b2be 7e41 c53e bb69 8f3d
00000150: 23c1 55bf 300a 923e e047 a7bd c4f7 d43d
00000160: e912 b93e 97b6 32bc 2b5f 3b3d 5156 89be
00000170: 18ce 0dbd ef5f 24be 29d5 24be 4fcd f83c
00000180: 3489 05bf 161e f0bd f49e 9dbe fc83 94be
00000190: 14d0 84be 4cd1 6abe 2060 d7be 0b88 313d
000001a0: 3e56 2a3d 37f4 4d3e 25ed 603e a63b 79be
000001b0: 8348 27bf 27f0 15be fe4e dc3e b5e9 20bf
000001c0: db95 e43c a178 40be 90a1 79bc 172f ae3d
000001d0: e42b 8dbe fdba 41be 5c94 1a3e 648e e8bd
000001e0: d383 39bd 0690 8e3e 9291 afbe 8d1f 1f3c
000001f0: 82de 3ebd 4be9 99bf 0935 a2be 82ea 9f3d
00000200: 26cf 17bf 1853 9dbe 6e0f ebbe 1d8d 0cbf
00000210: dc77 233e 8723 0a3f 53f4 6fbe 83d7 31bf
00000220: 5f0f 6dbe d325 f43e fa84 1c3d 4f12 62bc
00000230: 62fc 18be 6991 5bbe 9569 033e 5ad8 04bf
00000240: 5b8f 823e 8efd eebd 066b 8abe d96b 07bf
00000250: 0dc3 9cbe 30cd 94bd 60b0 c53d e6ac 0abe
00000260: 0487 f23d ec0f e03c d05e cfbe e5c3 d3be
00000270: fe86 24bf c1c5 9cbe 654b 4bbf 66c4 49bf
00000280: dbca 49be 3fe3 4abf b115 83be 4ffc 53be
00000290: 9c78 d4bd 0414 ab3d 7839 3f3e 76fa 063f
000002a0: 6043 203f c23d 80be 1d65 593d a70f 2c3e
000002b0: 57c5 da3e 7989 d4bd 99ec 66bc 2354 823e
000002c0: 1927 69be 67a1 483e a9a2 213d 8160 e9bd
000002d0: 27d5 9d3e 2d55 9cbd 83a9 0dbe 3366 873e
000002e0: 1f48 04bf 9375 b6bc cded fbbd 97ee d4be
000002f0: e9fe 8a3e af1b 5f3e e75c 023f fe7c 0c3f
00000300: 0803 e53e 4198 a53e 2fb9 e53d ad81 953e
00000310: 2dc9 5e3e a69f 893e 312d 1d3e 949c 813e
00000320: 6bc1 06bf a91d 843e 0816 af3e 9e84 6bbe
00000330: 34cf aebf 5d5c c13e 9cbd 3e3e 61b5 0b3f
00000340: de54 ad3e b732 8b3c 52be 8bbe d57b a53e
00000350: 7b11 8fbe 2224 65bf 9d8f 523d ba8a 8b3e
00000360: 785c 3b3e f6e7 17bf 2504 c0be a9a6 b93d
00000370: 1f8d ccbe 3204 56be c4b4 be3d 13e0 f93d
00000380: b9df 0d3f 7371 14be 8035 fbbb a95f cbbd
00000390: 1944 2f3f 80cc 453e 6877 db3e 830f 853e
000003a0: 2919 11be 2db1 87be 1549 c6be 6182 34bf
000003b0: bde4 be3d b017 29be efde 0dbb b980 bf3d
000003c0: ef8a cdbd c072 e93d 317f 65be 6377 44bf
000003d0: fa39 2fbe 6546 04bf eba4 15bf 4503 d43d
000003e0: ad3d f1bd 685b a6be 67f8 1e3e ed77 41be
000003f0: d2f5 97be f5e3 0dbf e541 3dbf 76cb ffbe
0.34258348 -0.39904007 0.5338408 -0.1711868 -0.09127344 -0.04428589 0.36705473 0.0629851
0.019420508 -0.30314723 0.18335311 0.34693596 0.3073976 0.022738427 -0.30148932 0.33561987
-0.35963267 0.18406695 0.20910043 0.33010867 -0.47563705 -0.4774644 -0.0889111 -0.013244283
-0.2661327 0.186984 -0.56360966 -0.2662247 -0.30216622 -0.27586854 0.047149584 -0.045244377
-0.029784895 0.13984695 -0.446282 -0.76676977 0.34401086 -0.55305856 -0.73183006 0.458035
-0.17330748 -0.059762362 -0.5288212 -0.3679859 0.6783938 -1.1062797 -1.0998377 -0.008053306
-0.039275486 -0.38478476 0.14851078 -0.25931868 0.41535333 -0.40362105 -1.4503328 -0.25467137
0.14140008 -0.120760314 0.43042815 -0.074237 0.06103996 0.19045424 -0.05577784 0.044537414
0.17574324 -0.08165988 -0.38852414 -0.2641839 -0.21274015 0.03306282 -0.121473946 0.24973053
-0.7467913 0.1582801 0.30143258 -0.48317024 0.38091537 -0.17594236 -0.35605046 0.26057434
-1.1912516 -0.34879753 0.3852653 0.07002588 -0.8349783 0.28523397 -0.08168006 0.1039882
0.3614724 -0.010907791 0.045745056 -0.26823667 -0.034620374 -0.16052221 -0.16096939 0.030371336
-0.5216248 -0.117244884 -0.30785334 -0.29006946 -0.2594 -0.22931403 -0.42065525 0.04334263
0.041586153 0.20112692 0.21965463 -0.2433916 -0.6534502 -0.14642392 0.43029016 -0.6285661
0.027903488 -0.18796016 -0.015236273 0.085050754 -0.27572548 -0.18918987 0.15095657 -0.11355284
-0.045291733 0.27844256 -0.3429075 0.009712112 -0.04659892 -1.202432 -0.31681088 0.07808401
-0.5930046 -0.30727458 -0.4591021 -0.5490282 0.15963691 0.5396046 -0.23433046 -0.6946947
-0.23150395 0.47685108 0.038212754 -0.01379831 -0.14940026 -0.21442188 0.12833245 -0.51892626
0.25499997 -0.116694555 -0.27034777 -0.5289894 -0.30617562 -0.07265699 0.096527815 -0.13542518
0.118421584 0.027351342 -0.40502024 -0.41360393 -0.6426848 -0.30619624 -0.7941192 -0.78815305
-0.1970629 -0.79253 -0.25602487 -0.20701717 -0.10374567 0.08353427 0.18674266 0.52725923
0.62602806 -0.25047117 0.053074945 0.16802846 0.42728683 -0.10377783 -0.014094495 0.25454816
-0.22768821 0.1959282 0.039461765 -0.1139536 0.30826685 -0.076334335 -0.13834195 0.2644516
-0.5167255 -0.02227286 -0.12301216 -0.4158828 0.27147606 0.21787904 0.5092301 0.5487822
0.44728875 0.32342723 0.112169616 0.29200497 0.2175643 0.26879615 0.1534927 0.25314772
-0.5263888 0.2580388 0.34196496 -0.22999808 -1.3656983 0.3776578 0.18627018 0.5457364
0.3385381 0.016991956 -0.2729364 0.3232104 -0.27943024 -0.8950826 0.05140649 0.27254277
0.18296993 -0.5933832 -0.37503162 0.09064991 -0.39951417 -0.20900038 0.09311822 0.12200942
0.554195 -0.14496402 -0.00766629 -0.09930355 0.68463284 0.19316292 0.42864537 0.25988397
-0.14169754 -0.26502362 -0.38727632 -0.7051144 0.09320972 -0.16512942 -0.0021647771 0.09350724
-0.10036265 0.1139884 -0.22411801 -0.7674467 -0.1711196 -0.51669914 -0.5845477 0.10352186
-0.11779342 -0.32491612 0.15524445 -0.18893404 -0.29679734 -0.5542596 -0.7392867 -0.49959916

seq.14.weight f4 [64, 64, 3, 3]
00000000: 8c55 27be bc8c 6bbe 83f7 193e bc89 e7be
00000010: 18be 8b3d a458 15be e4db de3c 4b3e 303e
00000020: 0f27 0f3e 4c3b f83e 9cd5 23bd 26d9 a7be
00000030: d6e0 08be 029d 093d d2ca 24be 167e 2abf
00000040: 9b34 0cbf ef31 3abe 0154 9b3e 63e0 01be
00000050: 141b 19be f6c5 09be 612e 3a3e f981 2abf
00000060: c3a6 92bd acde 863e 8b95 c8be bfe4 a7bd
00000070: 0fd5 603d adf9 22be b2f8 dd3d a751 0a3d
00000080: 17e9 a8be 4021 3cbe 8170 613e c140 163e
00000090: 2140 4d3e 8d7b a43e 69a6 42be 8cc5 ebba
000000a0: e052 bb3e 269c b83e b735 66be 6573 3fbe
000000b0: 7b1f 50be ce66 a6be 4e13 7cbe d883 cabe
000000c0: e5de bc3e 6b01 91be 590a 273e 939b 8e3e
000000d0: 034c c73d d521 8f3e b0e1 d53e ee34 123f
000000e0: b453 96be 5efe 193c 9add 873d 2f4d a43d
000000f0: fb5f 4bbe 8059 843c 2192 f73d c7a3 ef3e
00000100: e984 15bd 54a3 e5be da21 243e de71 7abe
00000110: 1b86 6d3e eec7 1c3e e1e0 4cbf 8644 c9bd
00000120: ee36 e83e eeb5 c13e 3208 8fbe e4a1 a1bd
00000130: 2298 083e 3264 0ebf 9c11 9abc b86a c93d
00000140: b0de 6f3e 0b28 53be 483d 15be aa20 58be
00000150: c577 6e3e 990f 793e b226 0d3e 90f1 dabe
00000160: 9bab 033f d431 b33e 692a d3bd 0a70 a2be
00000170: 2cd2 e93e a8d4 1bbe f51f e9bd 8bdb 7d3e
00000180: 9aaf 92bd 4a2a cd3c 42ba a9be 0275 f3be
00000190: 274c 333e 6db9 07bf 1d0f f1bb 13fe b53e
000001a0: 7199 da3a 52d6 3dbf e30f 2cbe df66 4abe
000001b0: a850 b13d c951 46be 5603 e9bd 3a4a f3bd
000001c0: f6e8 313e 894b 82be f79f 70bc 0a78 b4bd
000001d0: 4e83 08be 5d56 aabe efde 373e ea7e 8bbe
000001e0: 614c 8a3d 3a39 c9be d7cb 793e 86e8 88be
000001f0: ba54 d73c 67b2 0dbe 06ab 693e ba86 733e
00000200: e636 6e3d f258 3abf 786f c2be fb9d 54be
00000210: 418b 3dbe 02b3 cbbe 9663 38bf b490 023f
00000220: 134c f7be deb0 e8be a71a ca3e 831f 6e3c
00000230: dc26 6cbd 3060 6fbe d9b8 efbd 43cd a43c
00000240: f2c5 8f3d 3a7f efbc 5d46 36bd 2fa2 9bbe
00000250: d4c3 953e e2ce 8d3e 4a82 5abb 2263 cfbc
00000260: 5034 41be f964 e33c 1246 4e3e 3a2e da3e
00000270: 60f4 5b3d f512 f1bd f4c3 f73d 2078 0c3e
00000280: 43a8 65be 993c 083f 6c77 073f b9aa ddbe
00000290: a906 843e 9138 60bf 9ba4 98be 503e e0bc
000002a0: e55c 6f3c c583 103e fed1 cebe 6ba0 b0be
000002b0: ea5c dabb d727 bb3e 09e2 d6be 0a84 8b3e
000002c0: c57a 5d3e 1c75 f03e d308 843e fba8 653d
000002d0: a1af b8bd 6848 f4bd d47f b6be 4528 45bd
000002e0: 3860 183e f499 35bf 7a7d 3d3f 104f 01bf
000002f0: b5f9 9a3d defb 5bbe 9998 7c3e e393 73be
00000300: 40b5 223e 99b7 363e c6d1 20bd 1f8e a5be
00000310: b1f8 223e dfbb b9be ec5a 163f e229 b03d
00000320: 87ba d9be df36 b93e 1d11 c83e 43f1 22be
00000330: 5e6a f3bd 6443 c5bd 18aa 85bd 06c7 cc3c
00000340: df25 fa3d 8fe4 eebd 0162 18bd 795d cabc
00000350: a24d 35be cad0 94be a769 c1be 7f4f d0be
00000360: 7c19 1dbf ad75 9ebd 1926 863e 6240 edbd
00000370: 4044 02bf 5542 18be 12aa 243f ff46 88bd
00000380: 7f72 b7be b07a d83d 2dc8 eb3e ece2 ad3e
00000390: fc3f be3d abf9 603e 7415 673e 396b 21be
000003a0: 489a c5bd f656 0e3e 0d01 20bf 7862 acbe
000003b0: 61d0 a5bc 5054 8dbd 6a9f b03e 078b c73b
000003c0: a828 793e 2c34 0b3d c26c ecbe 6256 c3be
000003d0: ccc8 98be 2848 ebbe ac5a e83d 4240 12bf
000003e0: 61ea 0abf 99a8 763d 8398 82bf 90e8 6dbf
000003f0: c3b9 28be 7b20 f03e 8901 9ebd 81cb 68bd
-0.16341227 -0.23002905 0.15035824 -0.4522227 0.06823367 -0.14584595 0.027204461 0.17211263
0.13979743 0.4848274 -0.039998636 -0.3278286 -0.13367018 0.033597 -0.16092995 -0.6659864
-0.5476777 -0.1818311 0.30337527 -0.12683253 -0.14951736 -0.13454422 0.18181755 -0.6660457
-0.071607135 0.2634176 -0.39176592 -0.08197927 0.05489069 -0.15915556 0.108384505 0.033769276
-0.32990333 -0.18372059 0.22015573 0.14673139 0.20043994 0.32125512 -0.19008793 -0.0017987951
0.36586666 0.36056632 -0.22481428 -0.18696363 -0.20324509 -0.3250031 -0.24616739 -0.39553714
0.36888805 -0.28321394 0.16312541 0.2785307 0.09731295 0.279555 0.41773748 0.57112014
-0.29360735 0.009399025 0.06634064 0.08022534 -0.19860832 0.016155958 0.12088419 0.4680464
-0.036503706 -0.44851172 0.16028538 -0.244575 0.23195688 0.15310642 -0.8003064 -0.09827523
0.45354408 0.37834114 -0.2793594 -0.07892206 0.13339284 -0.55621636 -0.018807225 0.09834808
0.23424792 -0.20620744 -0.14574158 -0.2110621 0.23287876 0.24322356 0.13784292 -0.42762423
0.51433724 0.34998953 -0.103108235 -0.31726104 0.4566816 -0.1521784 -0.113830484 0.2479078
-0.071623996 0.025044579 -0.33149916 -0.47550207 0.17509519 -0.5301731 -0.007356538 0.35545406
0.0016677809 -0.7415515 -0.16802935 -0.19765805 0.08657962 -0.19367136 -0.113775894 -0.11879392
0.17374024 -0.25448254 -0.014686576 -0.08811958 -0.13331339 -0.33269015 0.17956136 -0.27245265
0.06752849 -0.39301473 0.24394165 -0.267399 0.026285518 -0.13837586 0.22819147 0.23781863
0.058157824 -0.7279197 -0.3797567 -0.2076339 -0.18510152 -0.3978501 -0.72026956 0.5100205
-0.48300228 -0.4544744 0.3947346 0.01453388 -0.057654247 -0.23376536 -0.11705179 0.020117408
0.07020177 -0.029235471 -0.044500697 -0.30397174 0.29250968 0.27696902 -0.0033341818 -0.025315825
-0.18867612 0.027758108 0.20143917 0.42613393 0.05369985 -0.11771194 0.12097922 0.13717699
-0.22427468 0.53217465 0.529166 -0.43294314 0.2578633 -0.87586313 -0.29813084 -0.027373463
0.01460955 0.14112766 -0.40394586 -0.3449739 -0.0066639083 0.36553833 -0.41969326 0.27249175
0.21628864 0.46964347 0.25787982 0.056069355 -0.090178736 -0.11927873 -0.356444 -0.048134107
0.14880455 -0.7093804 0.7401959 -0.50511265 0.07567159 -0.21482798 0.24667586 -0.23786883
0.15889454 0.17843474 -0.039262556 -0.32334992 0.1591518 -0.36276147 0.58732486 0.086017385
-0.42525122 0.36174676 0.39075556 -0.15912347 -0.11885522 -0.09631994 -0.065265834 0.024997246
0.122142546 -0.11664688 -0.03720284 -0.024702774 -0.17705396 -0.29065543 -0.3777592 -0.4068565
-0.6136701 -0.077372886 0.2620094 -0.11584546 -0.5088539 -0.14869054 0.64322007 -0.066541664
-0.3582954 0.10570276 0.4605116 0.3396219 0.09289548 0.21970241 0.22566777 -0.15763558
-0.096485674 0.1390036 -0.62501603 -0.33668876 -0.020240964 -0.06900847 0.34496623 0.0060895714
0.24331915 0.0339853 -0.46176726 -0.38151842 -0.29840696 -0.45953488 0.11345419 -0.571293
-0.54263884 0.06021938 -1.0202793 -0.9293299 -0.16477112 0.4689978 -0.077151366 -0.0568347

seq.18.weight f4 [256, 64, 2, 2]
00000000: 21b2 58be d39f 3b3e 493c 77bd 92f4 abbd
00000010: 1f39 2fbc 48af bbbc 5436 25be 8b7d a63e
00000020: de36 a93e 6a2c 1bbf 4544 c9be 4a1e ef3d
00000030: 5775 8e3e 6626 0e3e c560 f53b 5902 1f3d
00000040: ae7c 9cbe 157a 89bc d37f 1ebe 87bc 323c
00000050: 3d18 d6bb b608 0bbf 128d cdbe 5496 4f3e
00000060: f87c 93bc f697 e83c 9980 8abd 4597 b8bb
00000070: 3b3b 00bd c354 803e 4dab 49be 48ab 0b3e
00000080: 0e86 06bf 58ca d03d 97a1 d3be e9ea 623d
00000090: 7ad6 af3d 0350 bebe ec75 093d 3ee8 e63d
000000a0: 6a40 133e 14f5 003e 4d01 e2bc e9e0 edbd
000000b0: f143 8c3e ebeb 43be dce1 c83d e697 de3d
000000c0: e07c 21bf af97 fcba e690 ab3e 01aa b1be
000000d0: 2635 88bd c53d 93be b6d8 233d fb52 6ebe
000000e0: 3d60 693e 558f 0a3e e72f efbe 107f 883e
000000f0: 10d5 a5be c8c4 803d 4820 d43d 54b5 28bd
00000100: 09d8 1fbd 3043 eebd 7dd9 94bb fd17 0ebf
00000110: 4e45 533a 2f6d 29be 4a51 d7be d8f5 503e
00000120: 4d2c ac3e 4681 edbe 5b55 8f3d 7d0e 4b3d
00000130: 17ff 21be 1b96 9fbd 6008 703d ebf4 ce3e
00000140: 16f9 5dbe cd51 013d 282b 89be 82e9 a23d
00000150: 7f54 97bb 38c4 ecbe 9054 05bf ca25 07bd
00000160: d8bc 69be 76a4 c03d 023f c63c bf83 35bf
00000170: bc53 0fbe fac4 913d 6e04 093e c140 c9bd
00000180: 9900 36bd 9959 b8be 4ad2 d3bd 9bb3 323e
00000190: 6a85 22bd 983d 30be 51f9 613e 1776 933e
000001a0: 6621 d8bd cf4e 863e 72e9 a33d 86e7 07bf
000001b0: a2f9 3c3d 3f80 9cbe ec91 81bc b454 993d
000001c0: 1e4b ee3d 3ea7 8fbe 44fe 093e cff1 03bf
000001d0: 2fef c03d 7c37 133e dd28 123c b7b9 8fbe
000001e0: fbf6 b1bd ab42 133e 2cfc b6be 6872 07be
000001f0: b232 393e 08d3 8a3e 72cd 20be c670 b9bc
00000200: 27cb 61be daaa c63d 7df1 72be c943 d03d
00000210: 7d52 98be 3258 b23d 5c37 1bbf a89f 53bd
00000220: afcf 6b3e 45ff a83c e6c8 71be d5df d53e
00000230: f550 d5bc 578b bebd f01b 22be b52f ee3d
00000240: eb0c 13bf f10e 06be 1c9c 073e a64a 933d
00000250: e0e3 eebe 9e03 d6bd ce9b 3d3e ce8e adbd
00000260: a15e c1be 6f6c 8fbe b39c 09bf fdf6 ba3e
00000270: d229 c7bc 56d4 e9be 1fd1 323e 75f5 2abf
00000280: 9609 533d 0cce dc3e 43e2 f43c 90d0 febe
00000290: 0fc8 78be ba7a eb3c c78e 02bf 12fa 423e
000002a0: 5fe8 32be fe59 8cbe f5c8 0ebf b4fd 833e
000002b0: c29e b2be 0ec6 c6bd 65a2 4cbf 3110 983e
000002c0: 6726 bebd 67ab 9c3d 2250 893e de5c af3d
000002d0: 4a0a 04bd 7d59 aebb 8592 c2bd 007c 223e
000002e0: 19cb 293e a95e aebd 4f0e 09be 00c6 5e3d
000002f0: aeef e9be c7b1 8fbe 6014 a4be e36c 8e3e
00000300: d491 513e 9d45 1abf 8fba 543d 9e8a 983d
00000310: e792 febc 3c84 ecbc d7cd b13d 9429 bfbd
00000320: 1530 f1bd 8380 493e 73ec 4b3e 9eb4 ffbe
00000330: 5820 91be 988e a03e 852a abbe f679 1cbe
00000340: 341e eabe a22b cabe 8cdc 06bf 0607 983e
00000350: ba6e 95bd 4f01 b3be 3238 513e 6e84 a53e
00000360: 7d2e ab3a 0d1f 493e e2e7 f3bd fbba bb3d
00000370: 1042 cbbe 8f2d bebd dcc9 e3bd b418 8b3e
00000380: 7468 ac3d 9a15 bbbd b46a a8be 1380 9b3b
00000390: 4e1e 393d 2e23 fbbc 38c2 0c3d c04e a6be
000003a0: 5ffd b3bb 5041 72be 9480 a93d 6be4 bdbd
000003b0: b981 0abf ad10 2fbe a64d 56be a99d bc3e
000003c0: 16b3 febe 78aa a03e cd58 03bf 505d 48bd
000003d0: dc52 4abe 1f6e b1bd b563 83bc e346 4bbd
000003e0: 2a50 4a3c a8d9 c83d eaac dfbd 8b10 0fbe
000003f0: 70c4 8ebd 43e7 73be 3a69 7e3e f7ef 40be
-0.21161701 0.18322687 -0.060360227 -0.083962575 -0.010694771 -0.022910729 -0.16134006 0.32517657
0.33049673 -0.60614645 -0.39309898 0.11675699 0.27823898 0.13881835 0.0074883425 0.0388206
-0.30563873 -0.016781846 -0.15478449 0.010909206 -0.006533651 -0.54310167 -0.4014669 0.2027219
-0.018003926 0.028392773 -0.06762809 -0.005633267 -0.031306487 0.25064668 -0.19694252 0.13639557
-0.525483 0.10194844 -0.4133422 0.05539981 0.0858583 -0.3717042 0.033559725 0.112747654
0.14380041 0.1259349 -0.02758851 -0.11615164 0.27395585 -0.19132964 0.09808704 0.10868816
-0.6308117 -0.001927128 0.33508986 -0.34700015 -0.06650762 -0.28758064 0.040001594 -0.23273842
0.22790618 0.1353124 -0.46716234 0.2665944 -0.32389116 0.06287533 0.1035772 -0.041188553
-0.039024387 -0.11633909 -0.004542528 -0.55505353 0.00080593384 -0.16545556 -0.42054206 0.20406282
0.3362755 -0.4638769 0.06998702 0.049574364 -0.15819965 -0.07792302 0.058601737 0.40421233
-0.2167705 0.031572152 -0.26790738 0.07954694 -0.004618227 -0.46243453 -0.5208216 -0.032995023
-0.22825944 0.094063684 0.024199966 -0.70904154 -0.13996786 0.071176484 0.13380596 -0.09826804
-0.044434164 -0.36005858 -0.10342844 0.17451327 -0.039678015 -0.17210996 0.22067763 0.28801033
-0.10553245 0.26232 0.080035105 -0.5308765 0.046136506 -0.30566594 -0.015816651 0.07486859
0.11635421 -0.28057283 0.13475901 -0.51540846 0.09420621 0.14376634 0.008920875 -0.28071377
-0.08689686 0.143809 -0.35739267 -0.13227236 0.18085745 0.2711413 -0.15703371 -0.022636782
-0.22050153 0.09700556 -0.23724933 0.10169179 -0.29750434 0.08708228 -0.60631347 -0.051665932
0.23028444 0.020629534 -0.23611793 0.41772333 -0.02603958 -0.09303921 -0.1583097 0.11630193
-0.57441586 -0.13091637 0.13243145 0.071919724 -0.4665823 -0.10449909 0.18516466 -0.084745035
-0.3776751 -0.28012416 -0.5375473 0.36516562 -0.024311934 -0.45669812 0.17462586 -0.6678079
0.051522814 0.4312595 0.029893046 -0.49768496 -0.24295066 0.028745044 -0.5099911 0.19040707
-0.17471455 -0.2741241 -0.55775386 0.25779498 -0.34886748 -0.09705745 -0.79935294 0.29699853
-0.092846684 0.0764988 0.2681895 0.08562635 -0.032236375 -0.0053207264 -0.09500603 0.15867615
0.16581382 -0.08514149 -0.13384365 0.054388046 -0.45690674 -0.2806532 -0.32046795 0.2781745
0.20465785 -0.6026247 0.05193573 0.07448314 -0.031075908 -0.028871648 0.08681839 -0.09334102
-0.11776749 0.1967793 0.19914417 -0.49942487 -0.2834499 0.3135879 -0.33430877 -0.152809
-0.45726168 -0.39486414 -0.5268028 0.29692858 -0.0729651 -0.34961936 0.20431593 0.32327598
0.0013060119 0.19640751 -0.119094625 0.09166523 -0.3969884 -0.09286033 -0.11122486 0.27167284
0.0841836 -0.091349795 -0.32893908 0.0047454922 0.045194916 -0.030656423 0.03436491 -0.32481956
-0.0054928507 -0.23657727 0.082764775 -0.09272083 -0.5410419 -0.17096205 -0.20928058 0.36839035
-0.49746007 0.31380057 -0.51307374 -0.048917115 -0.19758171 -0.08663582 -0.016038755 -0.04962815
0.012348214 0.0980714 -0.109216526 -0.13971154 -0.06971061 -0.23818688 0.24844828 -0.1884154

seq.21.weight f4 [128, 256, 1, 1]
00000000: d2e7 4a3e 06dc 8cbd 1fef 9fbe d50b 87be
00000010: aa8e e63d 64f2 5ebe db49 f13d 9341 48bd
00000020: e340 f23d 7655 b13c d424 bdbb 775e 91bd
00000030: d2e9 02be 7c10 d43d 5f8f 5e3d 382a 18be
00000040: ec98 44be 1514 3dbe 35e6 963d dfc4 953d
00000050: 10f4 04be bd5d 54be 0967 843e f951 c13d
00000060: e89e 22be d514 33be 9155 2ebe 17de 0cbe
00000070: bc00 3abe 3c1c 84bd fae8 b1be 8100 a93b
00000080: 459f 25bd 98ea 343e b31c 283b c183 bfbd
00000090: 7f2d 9bbd 852c f9bd 7011 2ebe 8f48 e5bd
000000a0: 5676 c03d 208a 153e 2746 9b3d ec51 f2bd
000000b0: d710 80be a71b eb3d 2970 77bc b603 9dbd
000000c0: 5769 4cbe f582 e6be c4a7 e83d 8b3d 85be
000000d0: 4b6e 063e fe8d c93c 5b80 843b 3527 84be
000000e0: 9bd2 ebbb da5e ecbe 06f1 65bd 8d85 183e
000000f0: 58f6 e8bd b356 9dbe 5636 8bbe 85c9 ddbe
00000100: 4b98 a53d 6928 953e 55d3 85be 73a7 063c
00000110: e92d 11bf c9ab e1bd be95 7bbe 7635 093d
00000120: 2203 253c 50df 01be db4f 40be b827 463d
00000130: 2a98 013e 3ba0 043e 53b6 99be e550 52bd
00000140: 0007 9d3c 5127 aebc 0765 22bd f3b8 dfbe
00000150: 9cf9 e93e 7be6 efbd b98d b33c 2e6f 5dbd
00000160: a0a2 5bbe ad4e 49be 0e8a aebd b741 92be
00000170: 94f2 4b3e 1b5f b5bd 0ccb 2bbe 20ce 9a3d
00000180: ebdf fd3d b0c9 16be f68a d13d 53c5 34be
00000190: d193 23bd 888d 32be ffcd 39be a6ce 48bd
000001a0: bba2 cb3d b7fc 203e 48fb 94bd 8564 3d3e
000001b0: 4f35 1cbd 15a0 0c3e 28e2 08be 868c 44be
000001c0: 59fd 2abf 45ce b23d dcde 6dbe 0332 d2bd
000001d0: 4d75 b1be 9297 8b3e 5d19 fe3d e41d f6ba
000001e0: 2bef a03c 20de 9ebe d19d 80be 898e 823b
000001f0: 7d29 f8bc 3dbe 22bd b89a 33bd f563 f7bd
00000200: 8e30 53be 0d2c 063e 20d9 39be b54e 553d
00000210: 362e 3dbd c21e 1cbe d27e 91be a3cd 42be
00000220: 5412 92be 314c 43be aee8 09be 8616 dbbe
00000230: b4ea f0bd 737c efbd 4a33 a73d 2c78 173d
00000240: 52ff 793d 0f40 85bd 63d1 ac3d ee74 4fbe
00000250: a657 36be cfb3 7d3e 976f 80bd bafc 5ebe
00000260: d5bf 863e 41d9 e8bd a193 c3bd b85f a6be
00000270: 48ac db3e a02b 05bd bf6e 11bd 887c d6bd
00000280: 6532 4b3d 2d98 963e 2717 56b9 ce61 80be
00000290: 8ea3 dc3d c633 40be d9b9 abbd 1105 afbe
000002a0: 0059 f3bd f51e 783d ad5c a9be 1c04 aebe
000002b0: b4f5 ff3d 7172 77bd 7fca 633e 81b9 3cbe
000002c0: 4aa1 98bd cca7 81be 477e 81be f0f2 8a3e
000002d0: 7c4f a4be 77e4 31be 07b9 06bf 6291 4bbf
000002e0: b75b 5dbe 4041 b8bd 37e6 f4bd 85e1 ab3c
000002f0: c94e 98bd 2cd4 7bbd 8d42 6d3d 7f06 5ebe
00000300: 6076 5e3e 6f84 8bbe e390 a4bb 6e49 9ebe
00000310: 2f43 633d 8253 5dbe 48b5 873e 8421 563e
00000320: 4472 a03c aa34 903d 0d98 acbd 5c8a a3be
00000330: 618a 01bf 4cb7 ee3c ca1f f7be 2983 e3bd
00000340: 31d0 653d 1746 0fbc 12cb 87be 74d6 83be
00000350: 5b56 dcbd 3543 1cbe 4f31 94be 7708 7d3d
00000360: c8fb b839 c9f0 673d b88b 1abe 1a91 603d
00000370: 54aa 47bd cdae 4abe 6e20 ea3d c8e3 cabd
00000380: 6911 b6bd 0f8a 32be 9713 b13d 55db abbd
00000390: 8962 b93d ffc9 bd3d bd48 40be 236b cabe
000003a0: af16 51be 311a b2bd 410a 84be 5cce 623d
000003b0: 274c 663e 32d7 b73c 864f 473d a004 3dbd
000003c0: c714 643c 191d 10be 86fa e0bc a931 c33d
000003d0: 484f d1bd 4e4e 173e f8ba 563c c425 c53d
000003e0: e2b4 25bd defb d9be 6dda abbc 429f 543c
000003f0: ab0e 4cbe 1f7b 5ebe 3ed8 62be f55e efbe
0.19814995 -0.06877904 -0.31237122 -0.26376215 0.1125768 -0.21772152 0.11781665 -0.04889066
0.118287824 0.021647196 -0.0057722125 -0.07098096 -0.12784508 0.10354707 0.054335948 -0.14859855
-0.1919896 -0.18464692 0.07368127 0.07312941 -0.12983727 -0.20738883 0.2585986 0.09439463
-0.1588093 -0.17488416 -0.17024828 -0.13756596 -0.18164343 -0.06450698 -0.3474806 0.005157531
-0.040435094 0.17667615 0.0025651872 -0.09351302 -0.07577037 -0.121666946 -0.1699884 -0.1119548
0.09397571 0.14603472 0.0758174 -0.118320316 -0.25012848 0.11479884 -0.015102425 -0.076667234
-0.19962059 -0.45021787 0.11360124 -0.26023516 0.13128011 0.02460384 0.0040436215 -0.25811163
-0.007196737 -0.46166116 -0.05613806 0.14894696 -0.11375111 -0.3073021 -0.27189893 -0.4331781
0.08085688 0.29132393 -0.26137796 0.008218634 -0.5671068 -0.110190935 -0.24568841 0.03349825
0.010071548 -0.12682843 -0.18780462 0.048377723 0.12655702 0.12951748 -0.30021915 -0.05134668
0.019168377 -0.021258982 -0.03964713 -0.43695793 0.4569825 -0.117138825 0.021918165 -0.054061107
-0.21448755 -0.19658919 -0.085224256 -0.2856576 0.19916755 -0.088560306 -0.16776675 0.075588465
0.123962246 -0.14725375 0.10231583 -0.17653398 -0.03993589 -0.17436802 -0.18144988 -0.0490252
0.09943148 0.15721403 -0.072744906 0.18495376 -0.038136777 0.13732941 -0.13367522 -0.1919423
-0.6679283 0.08730749 -0.23229545 -0.10263445 -0.34659806 0.27264076 0.124071814 -0.0018777219
0.019645294 -0.31028843 -0.25120404 0.0039842767 -0.03029322 -0.039732207 -0.043848723 -0.12079612
-0.20623991 0.13102742 -0.18149233 0.052077014 -0.04618665 -0.15246108 -0.2841707 -0.19023757
-0.28529608 -0.19072033 -0.13467667 -0.42790622 -0.11763516 -0.11693659 0.081640795 0.03697984
0.061034508 -0.06506359 0.08438375 -0.20259449 -0.17806873 0.24775623 -0.06271284 -0.21776095
0.2631823 -0.11369563 -0.09549642 -0.32494903 0.42904878 -0.032512307 -0.035506006 -0.10472971
0.049608607 0.29412976 -0.00020417255 -0.2507462 0.10773383 -0.1876975 -0.08385057 -0.34183553
-0.1188221 0.060576398 -0.33078519 -0.3398751 0.12498036 -0.060411874 0.22245215 -0.18430139
-0.074526384 -0.2532333 -0.25291654 0.27138472 -0.32091892 -0.17372309 -0.5262608 -0.7951871
-0.21617018 -0.089968204 -0.119579725 0.02098156 -0.07436902 -0.06148164 0.057924796 -0.21682166
0.21724844 -0.27249476 -0.0050221547 -0.30915397 0.055483993 -0.21613887 0.26505494 0.20911223
0.019585736 0.07041295 -0.08427439 -0.31941497 -0.50601774 0.029140137 -0.4826644 -0.11109001
0.05610675 -0.008744738 -0.26522118 -0.25749552 -0.107586585 -0.15260012 -0.2894387 0.06177565
0.00035282806 0.056626115 -0.15092361 0.05482588 -0.048746422 -0.19793244 0.11431967 -0.09906727
-0.088900395 -0.17435478 0.086463146 -0.08391444 0.09051997 0.09267043 -0.18777747 -0.39534864
-0.2041881 -0.08696402 -0.25789073 0.05537258 0.22489987 0.02244148 0.048659824 -0.04614699
0.013920969 -0.140736 -0.027463209 0.09530956 -0.102202 0.14775965 0.0131061 0.09626344
-0.040455706 -0.42574972 -0.020978177 0.012977423 -0.1992747 -0.21726654 -0.22152802 -0.46752134
