data/Gestures/pretrain.model (torch, 492907 bytes, 25 tensors)

model.0.weight f4 [8, 2, 2, 2]
000000 96 b0 94 bb 7d 9b 50 3e ff cf 98 be c3 b5 8b be
       -0.0045376522 0.20371814 -0.29846188 -0.2728711
000010 cc db 2a be 08 91 a6 3d 25 85 c3 bc 56 20 7e 3e
       -0.16685408 0.08133131 -0.0238672 0.24817023
000020 ab e1 87 bc ef c3 c3 3d 2d 35 c7 bd c3 65 94 bd
       -0.016587099 0.09558856 -0.09726939 -0.07245972
000030 0f be b3 be f2 62 6e be 01 09 18 be b5 f9 5f 3c
       -0.3510594 -0.23279932 -0.14847185 0.013670375
000040 17 55 1b 3e 01 c0 6f 3e 82 1b 82 be 71 bc 18 be
       0.15169178 0.23413087 -0.25411612 -0.14915635
000050 8f 57 ab 3d 6f fa 88 3e 3f 5c f4 bd 86 81 77 3e
       0.0836631 0.26753566 -0.11931657 0.24170503
000060 8a 7f ef bd 87 4d 11 3c 92 69 99 3e 7a 2e a3 be
       -0.11694248 0.008868582 0.29963356 -0.31871396
000070 67 08 5e be 83 52 16 be eb 44 f2 bd df 7a 9f 3e
       -0.21682893 -0.14679913 -0.11829551 0.3114843
000080 43 be 59 be f5 92 41 be e0 3d 7a be 35 4c a1 be
       -0.21263985 -0.18903716 -0.24437666 -0.31503454
000090 67 7b 35 be 72 a7 9a 3e 9a 31 3d 3e 7c 0b 46 3e
       -0.17722856 0.30205876 0.18475953 0.19340318
0000a0 81 1a 03 bd 2b 52 13 be b8 2a f2 3c 07 4f 8a be
       -0.032007698 -0.14386813 0.029561386 -0.27013418
0000b0 30 9e 8c be 14 5d 53 be 94 7a 80 3e b3 96 4d 3e
       -0.27464437 -0.20640975 0.2509352 0.20077018
0000c0 6c 5b 5a be 0a f0 9a bd c0 02 4c 3e bb 4d a1 3e
       -0.21323937 -0.07565315 0.19922924 0.31504616
0000d0 5c 36 b2 3d 9c 57 14 3c 58 41 43 3e e6 73 80 be
       0.087017745 0.009054091 0.19067895 -0.25088423
0000e0 e3 19 4e 3d c7 7d 8b be a5 72 7a be 15 11 3e be
       0.050317656 -0.27244398 -0.24457796 -0.18561204
0000f0 b7 20 23 3e cb 61 02 3e ae 44 76 be 3f 40 a7 3d
       0.15930448 0.12732618 -0.24049637 0.08166551

model.1.weight f4 [8]
000000 ba a6 81 3f 42 2d 7a 3f 3c fe 7b 3f 8f 76 83 3f
       1.0129006 0.9772531 0.98434806 1.0270556
000010 0b c0 82 3f d3 73 88 3f ff ed 7c 3f 20 e4 81 3f
       1.0214857 1.0660347 0.98800653 1.0147743

model.1.bias f4 [8]
000000 e2 d0 cb 3c c3 f8 74 bc 27 59 08 bc c9 f8 6e bc
       0.024879877 -0.014951888 -0.008322037 -0.014585682
000010 73 07 05 3d c8 9d c2 bc db cc c9 bb 8e 51 0f 3d
       0.032477807 -0.023756877 -0.006158454 0.034989886

model.1.running_mean f4 [8]
000000 72 7e 7a ba 89 d7 11 bc 38 08 ce 3b 97 84 42 bb
       -0.0009555585 -0.008901485 0.006287601 -0.002968108
000010 0c 90 1f bb 70 af 91 bb cc a7 19 3b 50 9d 96 bb
       -0.0024347333 -0.0044459626 0.0023445962 -0.00459639

model.1.running_var f4 [8]
000000 a9 26 17 3b a5 55 60 3b 77 58 71 3b d2 83 24 3b
       0.0023063815 0.0034230736 0.003682641 0.0025102985
000010 b2 8b 84 3b 44 c5 48 3b a8 7f 07 3b 69 2c 37 3b
       0.0040449733 0.0030635158 0.0020675454 0.0027950055

model.2.state f4 [8, 64, 64]
000000 86 4f 06 3f 8c 59 81 3f 1c d9 ae 3e 86 4f 06 3f
       0.52465093 1.0105453 0.34150016 0.52465093
000010 20 bd 49 3d a0 bd 49 3d 86 4f 06 3f b8 98 91 3e
       0.04925263 0.049253106 0.52465093 0.28436828
000020 a4 24 80 3e f8 0f 1d 3e 22 2e 6b 3f 16 2c 06 3f
       0.25027955 0.15338123 0.9186727 0.5241102
000030 86 4f 06 3f 86 4f 06 3f 86 4f 06 3f 60 86 47 3d
       0.52465093 0.52465093 0.52465093 0.048712134
000040 d8 00 41 3f dc 56 85 3f a0 bd 49 3d 86 4f 06 3f
       0.7539191 1.0417132 0.049253106 0.52465093
000050 14 2c 06 3f 86 4f 06 3f 48 e0 78 3f a0 bd 49 3d
       0.5241101 0.52465093 0.97217226 0.049253106
000060 86 4f 06 3f 86 4f 06 3f 86 4f 06 3f 86 4f 06 3f
       0.52465093 0.52465093 0.52465093 0.52465093
000070 66 a9 35 3f 86 4f 06 3f 86 4f 06 3f bc 87 ea 3e
       0.70961607 0.52465093 0.52465093 0.45806682
000080 d8 65 20 3e 86 4f 06 3f 86 4f 06 3f 0a 66 7c 3f
       0.1566385 0.52465093 0.52465093 0.985932
000090 86 4f 06 3f 18 4d 5f 3f 86 4f 06 3f 86 4f 06 3f
       0.52465093 0.8722701 0.52465093 0.52465093
0000a0 86 4f 06 3f 38 f8 19 3f 86 4f 06 3f 48 e0 78 3f
       0.52465093 0.60144377 0.52465093 0.97217226
0000b0 66 a9 35 3f 90 f7 6e 3f 86 4f 06 3f 86 4f 06 3f
       0.70961607 0.933465 0.52465093 0.52465093
0000c0 20 12 01 3e 24 e2 d6 3e 40 e0 78 3f 24 b3 db 3e
       0.1260457 0.41969407 0.9721718 0.4291011
0000d0 86 4f 06 3f 86 4f 06 3f 1c 78 81 3f 86 4f 06 3f
       0.52465093 0.52465093 1.011478 0.52465093
0000e0 86 4f 06 3f 42 7b 4a 3f 86 4f 06 3f 90 29 5b 3f
       0.52465093 0.79094326 0.52465093 0.85610294
0000f0 88 f7 6e 3f 10 76 b4 3d 86 4f 06 3f ac 87 ea 3e
       0.9334645 0.08811581 0.52465093 0.45806634
000100 86 4f 06 3f 86 4f 06 3f ec c2 58 3f 86 4f 06 3f
       0.52465093 0.52465093 0.8467243 0.52465093
000110 86 4f 06 3f 86 4f 06 3f 0e 2c 06 3f 86 4f 06 3f
       0.52465093 0.52465093 0.5241097 0.52465093
000120 86 4f 06 3f dc 06 18 3f 5a 99 7d 3f 86 4f 06 3f
       0.52465093 0.59385467 0.9906212 0.52465093
000130 86 4f 06 3f 24 e2 d6 3e 86 4f 06 3f 86 4f 06 3f
       0.52465093 0.41969407 0.52465093 0.52465093
000140 48 e0 78 3f a0 cd f8 3e 86 4f 06 3f 56 68 04 3f
       0.97217226 0.4859438 0.52465093 0.51721704
000150 a0 3d 43 3d 38 f8 19 3f 38 f8 19 3f d8 db f5 3e
       0.047666192 0.60144377 0.60144377 0.4801929
000160 86 4f 06 3f 86 4f 06 3f 86 4f 06 3f 86 4f 06 3f
       0.52465093 0.52465093 0.52465093 0.52465093
000170 16 2c 06 3f 68 88 74 3e 90 59 81 3f 86 4f 06 3f
       0.5241102 0.2388016 1.0105457 0.52465093
000180 b8 e3 d0 3e 86 4f 06 3f 90 cd f8 3e b0 f7 20 bf
       0.40798736 0.52465093 0.48594332 -0.6287794
000190 0e 2c 06 3f 86 4f 06 3f a0 bc 49 3d 86 4f 06 3f
       0.5241097 0.52465093 0.049252152 0.52465093
0001a0 86 4f 06 3f 20 bd 49 3d 86 4f 06 3f 86 4f 06 3f
       0.52465093 0.04925263 0.52465093 0.52465093
0001b0 86 4f 06 3f 0e 2c 06 3f c0 59 93 bd 86 4f 06 3f
       0.52465093 0.5241097 -0.07194853 0.52465093
0001c0 c4 98 77 3f 80 42 78 3f 44 e0 78 3f 86 4f 06 3f
       0.96717477 0.9697647 0.972172 0.52465093
0001d0 10 af c3 3e 86 4f 06 3f 86 4f 06 3f 5a 99 7d 3f
       0.382195 0.52465093 0.52465093 0.9906212
0001e0 10 e8 12 3f 86 4f 06 3f 92 62 7d 3f 86 4f 06 3f
       0.5738535 0.52465093 0.9897853 0.52465093
0001f0 86 4f 06 3f 86 4f 06 3f 86 4f 06 3f 86 4f 06 3f
       0.52465093 0.52465093 0.52465093 0.52465093
000200 86 4f 06 3f 58 be c8 3e 86 4f 06 3f bc 2a 9d 3e
       0.52465093 0.3920772 0.52465093 0.30696666
000210 68 00 2a 3e ec 3d 68 bf 86 4f 06 3f be 26 06 3f
       0.16601717 -0.90719485 0.52465093 0.52402866
000220 86 4f 06 3f 86 4f 06 3f 86 4f 06 3f 28 05 55 3f
       0.52465093 0.52465093 0.52465093 0.8321099
000230 20 d5 85 3f 46 e0 78 3f d2 fa 69 3f dc db 75 3f
       1.0455666 0.97217214 0.91398346 0.96038604
000240 a0 8f 48 3d 86 4f 06 3f f0 40 a1 3d 50 ec 67 3e
       0.048965096 0.52465093 0.07873714 0.2264874
000250 80 40 6c 3e 38 f8 19 3f 86 4f 06 3f 46 e0 78 3f
       0.2307148 0.60144377 0.52465093 0.97217214
000260 86 4f 06 3f 86 4f 06 3f 86 4f 06 3f 16 2c 06 3f
       0.52465093 0.52465093 0.52465093 0.5241102
000270 30 f8 19 3f 30 f8 19 3f 48 e0 78 3f c8 9e ce 3e
       0.6014433 0.6014433 0.97217226 0.40355515
000280 ba 32 7b 3f 58 12 98 3e 16 2c 06 3f 86 4f 06 3f
       0.9812428 0.29701495 0.5241102 0.52465093
000290 20 90 48 3d 24 2e eb 3e 90 49 41 3f 58 b1 19 3f
       0.048965573 0.4593364 0.7550287 0.6003623
0002a0 a0 8f 48 3d 50 e0 78 3f 86 4f 06 3f 4c e0 78 3f
       0.048965096 0.97217274 0.52465093 0.9721725
0002b0 86 4f 06 3f 86 4f 06 3f 24 2e eb 3e 92 33 3c 3f
       0.52465093 0.52465093 0.4593364 0.7351619
0002c0 6a ff 79 3f 1c d9 ae 3e 86 4f 06 3f d8 9d 1d 3e
       0.97655356 0.34150016 0.52465093 0.15392244
0002d0 86 4f 06 3f 98 0e f1 3e 86 4f 06 3f 86 4f 06 3f
       0.52465093 0.47081447 0.52465093 0.52465093
0002e0 86 4f 06 3f 9c 95 ae 3e 86 4f 06 3f 50 e0 78 3f
       0.52465093 0.34098518 0.52465093 0.97217274
0002f0 86 4f 06 3f 0e 2c 06 3f 86 4f 06 3f a0 85 47 3d
       0.52465093 0.5241097 0.52465093 0.04871142
000300 e0 de c5 3d 90 cd f8 3e 86 4f 06 3f 90 cd f8 3e
       0.09661651 0.48594332 0.52465093 0.48594332
000310 52 fd 49 3f a0 bc 49 3d 86 4f 06 3f 60 4d 9a 3e
       0.7890216 0.049252152 0.52465093 0.30137157
000320 f8 0a 49 3f e0 11 01 3e 10 1f 63 3e 34 f8 19 3f
       0.7853236 0.12604475 0.22179818 0.6014435
000330 80 83 c3 3e 50 bd 71 3f c8 d8 0f 3f 3c f8 19 3f
       0.38186264 0.9442949 0.56190157 0.601444
000340 50 e0 78 3f 10 12 01 3e 86 4f 06 3f 10 76 b4 3d
       0.97217274 0.12604547 0.52465093 0.08811581
000350 86 4f 06 3f 86 4f 06 3f f4 e8 b9 3e f6 ce 06 3f
       0.52465093 0.52465093 0.36310542 0.5265955
000360 86 4f 06 3f 44 e0 78 3f 1c 78 01 3f 12 2c 06 3f
       0.52465093 0.972172 0.505739 0.52410996
000370 e0 b8 5d 3f 86 4f 06 3f b4 7e 45 3f 86 4f 06 3f
       0.8661022 0.52465093 0.7714646 0.52465093
000380 b0 5f 5a 3e 18 80 15 3e 20 bd 49 3d 20 bd 49 3d
       0.21325564 0.14599645 0.04925263 0.04925263
000390 86 4f 06 3f 6c c1 ab 3e c4 19 de 3e 0e 2c 06 3f
       0.52465093 0.33546007 0.43379033 0.5241097
0003a0 50 e0 78 3f 86 4f 06 3f e0 a0 2d 3f 38 f8 19 3f
       0.97217274 0.52465093 0.678236 0.60144377
0003b0 0e 2c 06 3f 20 14 6d 3d 86 4f 06 3f 80 40 6c 3e
       0.5241097 0.05788052 0.52465093 0.2307148
0003c0 a0 bd 49 3d 86 4f 06 3f 24 b3 db 3e 20 bd 49 3d
       0.049253106 0.52465093 0.4291011 0.04925263
0003d0 12 d5 6b 3f 74 0f b2 3e e0 2c df 3d a0 bc 49 3d
       0.92121994 0.34777415 0.10897231 0.049252152
0003e0 50 e0 78 3f 90 cd f8 3e 44 e0 78 3f 1e d2 4f 3f
       0.97217274 0.48594332 0.972172 0.8117999
0003f0 86 4f 06 3f 86 4f 06 3f 1a 05 55 3f 86 4f 06 3f
       0.52465093 0.52465093 0.8321091 0.52465093

model.2.activations f4 [8, 64, 64]
000000 00 00 00 00 00 00 80 3f 00 00 00 00 00 00 00 00
       0.0 1.0 0.0 0.0
000010 00 00 00 00 00 00 00 00 00 00 00 00 00 00 00 00
       0.0 0.0 0.0 0.0
000020 00 00 00 00 00 00 00 00 00 00 00 00 00 00 00 00
       0.0 0.0 0.0 0.0
000030 00 00 00 00 00 00 00 00 00 00 00 00 00 00 00 00
       0.0 0.0 0.0 0.0
000040 00 00 00 00 00 00 80 3f 00 00 00 00 00 00 00 00
       0.0 1.0 0.0 0.0
000050 00 00 00 00 00 00 00 00 00 00 00 00 00 00 00 00
       0.0 0.0 0.0 0.0
000060 00 00 00 00 00 00 00 00 00 00 00 00 00 00 00 00
       0.0 0.0 0.0 0.0
000070 00 00 00 00 00 00 00 00 00 00 00 00 00 00 00 00
       0.0 0.0 0.0 0.0
000080 00 00 00 00 00 00 00 00 00 00 00 00 00 00 00 00
       0.0 0.0 0.0 0.0
000090 00 00 00 00 00 00 00 00 00 00 00 00 00 00 00 00
       0.0 0.0 0.0 0.0
0000a0 00 00 00 00 00 00 00 00 00 00 00 00 00 00 00 00
       0.0 0.0 0.0 0.0
0000b0 00 00 00 00 00 00 00 00 00 00 00 00 00 00 00 00
       0.0 0.0 0.0 0.0
0000c0 00 00 00 00 00 00 00 00 00 00 00 00 00 00 00 00
       0.0 0.0 0.0 0.0
0000d0 00 00 00 00 00 00 00 00 00 00 80 3f 00 00 00 00
       0.0 0.0 1.0 0.0
0000e0 00 00 00 00 00 00 00 00 00 00 00 00 00 00 00 00
       0.0 0.0 0.0 0.0
0000f0 00 00 00 00 00 00 00 00 00 00 00 00 00 00 00 00
       0.0 0.0 0.0 0.0
000100 00 00 00 00 00 00 00 00 00 00 00 00 00 00 00 00
       0.0 0.0 0.0 0.0
000110 00 00 00 00 00 00 00 00 00 00 00 00 00 00 00 00
       0.0 0.0 0.0 0.0
000120 00 00 00 00 00 00 00 00 00 00 00 00 00 00 00 00
       0.0 0.0 0.0 0.0
000130 00 00 00 00 00 00 00 00 00 00 00 00 00 00 00 00
       0.0 0.0 0.0 0.0
000140 00 00 00 00 00 00 00 00 00 00 00 00 00 00 00 00
       0.0 0.0 0.0 0.0
000150 00 00 00 00 00 00 00 00 00 00 00 00 00 00 00 00
       0.0 0.0 0.0 0.0
000160 00 00 00 00 00 00 00 00 00 00 00 00 00 00 00 00
       0.0 0.0 0.0 0.0
000170 00 00 00 00 00 00 00 00 00 00 80 3f 00 00 00 00
       0.0 0.0 1.0 0.0
000180 00 00 00 00 00 00 00 00 00 00 00 00 00 00 00 80
       0.0 0.0 0.0 -0.0
000190 00 00 00 00 00 00 00 00 00 00 00 00 00 00 00 00
       0.0 0.0 0.0 0.0
0001a0 00 00 00 00 00 00 00 00 00 00 00 00 00 00 00 00
       0.0 0.0 0.0 0.0
0001b0 00 00 00 00 00 00 00 00 00 00 00 80 00 00 00 00
       0.0 0.0 -0.0 0.0
0001c0 00 00 00 00 00 00 00 00 00 00 00 00 00 00 00 00
       0.0 0.0 0.0 0.0
0001d0 00 00 00 00 00 00 00 00 00 00 00 00 00 00 00 00
       0.0 0.0 0.0 0.0
0001e0 00 00 00 00 00 00 00 00 00 00 00 00 00 00 00 00
       0.0 0.0 0.0 0.0
0001f0 00 00 00 00 00 00 00 00 00 00 00 00 00 00 00 00
       0.0 0.0 0.0 0.0
000200 00 00 00 00 00 00 00 00 00 00 00 00 00 00 00 00
       0.0 0.0 0.0 0.0
000210 00 00 00 00 00 00 00 80 00 00 00 00 00 00 00 00
       0.0 -0.0 0.0 0.0
000220 00 00 00 00 00 00 00 00 00 00 00 00 00 00 00 00
       0.0 0.0 0.0 0.0
000230 00 00 80 3f 00 00 00 00 00 00 00 00 00 00 00 00
       1.0 0.0 0.0 0.0
000240 00 00 00 00 00 00 00 00 00 00 00 00 00 00 00 00
       0.0 0.0 0.0 0.0
000250 00 00 00 00 00 00 00 00 00 00 00 00 00 00 00 00
       0.0 0.0 0.0 0.0
000260 00 00 00 00 00 00 00 00 00 00 00 00 00 00 00 00
       0.0 0.0 0.0 0.0
000270 00 00 00 00 00 00 00 00 00 00 00 00 00 00 00 00
       0.0 0.0 0.0 0.0
000280 00 00 00 00 00 00 00 00 00 00 00 00 00 00 00 00
       0.0 0.0 0.0 0.0
000290 00 00 00 00 00 00 00 00 00 00 00 00 00 00 00 00
       0.0 0.0 0.0 0.0
0002a0 00 00 00 00 00 00 00 00 00 00 00 00 00 00 00 00
       0.0 0.0 0.0 0.0
0002b0 00 00 00 00 00 00 00 00 00 00 00 00 00 00 00 00
       0.0 0.0 0.0 0.0
0002c0 00 00 00 00 00 00 00 00 00 00 00 00 00 00 00 00
       0.0 0.0 0.0 0.0
0002d0 00 00 00 00 00 00 00 00 00 00 00 00 00 00 00 00
       0.0 0.0 0.0 0.0
0002e0 00 00 00 00 00 00 00 00 00 00 00 00 00 00 00 00
       0.0 0.0 0.0 0.0
0002f0 00 00 00 00 00 00 00 00 00 00 00 00 00 00 00 00
       0.0 0.0 0.0 0.0
000300 00 00 00 00 00 00 00 00 00 00 00 00 00 00 00 00
       0.0 0.0 0.0 0.0
000310 00 00 00 00 00 00 00 00 00 00 00 00 00 00 00 00
       0.0 0.0 0.0 0.0
000320 00 00 00 00 00 00 00 00 00 00 00 00 00 00 00 00
       0.0 0.0 0.0 0.0
000330 00 00 00 00 00 00 00 00 00 00 00 00 00 00 00 00
       0.0 0.0 0.0 0.0
000340 00 00 00 00 00 00 00 00 00 00 00 00 00 00 00 00
       0.0 0.0 0.0 0.0
000350 00 00 00 00 00 00 00 00 00 00 00 00 00 00 00 00
       0.0 0.0 0.0 0.0
000360 00 00 00 00 00 00 00 00 00 00 00 00 00 00 00 00
       0.0 0.0 0.0 0.0
000370 00 00 00 00 00 00 00 00 00 00 00 00 00 00 00 00
       0.0 0.0 0.0 0.0
000380 00 00 00 00 00 00 00 00 00 00 00 00 00 00 00 00
       0.0 0.0 0.0 0.0
000390 00 00 00 00 00 00 00 00 00 00 00 00 00 00 00 00
       0.0 0.0 0.0 0.0
0003a0 00 00 00 00 00 00 00 00 00 00 00 00 00 00 00 00
       0.0 0.0 0.0 0.0
0003b0 00 00 00 00 00 00 00 00 00 00 00 00 00 00 00 00
       0.0 0.0 0.0 0.0
0003c0 00 00 00 00 00 00 00 00 00 00 00 00 00 00 00 00
       0.0 0.0 0.0 0.0
0003d0 00 00 00 00 00 00 00 00 00 00 00 00 00 00 00 00
       0.0 0.0 0.0 0.0
0003e0 00 00 00 00 00 00 00 00 00 00 00 00 00 00 00 00
       0.0 0.0 0.0 0.0
0003f0 00 00 00 00 00 00 00 00 00 00 00 00 00 00 00 00
       0.0 0.0 0.0 0.0

model.4.weight f4 [8, 8, 3, 3]
000000 9a 9a ad 3d 2a c1 82 3c a8 69 80 3c e9 38 3f 3d
       0.084767535 0.015961248 0.01567538 0.046685133
000010 1a 4f ac 3d 7b 13 ed 3d 52 32 ca bd b8 07 5d bd
       0.08413525 0.11575981 -0.09872879 -0.05396244
000020 dd 92 f5 3c 83 17 b0 3d 27 6f c2 3d d3 af c8 3d
       0.029977256 0.085982345 0.09493857 0.09799161
000030 1d 56 89 3c ed 21 ce bd d9 6e 4d 3c ca 27 a1 bd
       0.016764695 -0.100650646 0.012538635 -0.07868917
000040 e4 f8 d8 bd fe bb e0 3d b1 40 b5 3d 30 b9 d9 bd
       -0.10594347 0.10973357 0.088502295 -0.10631025
000050 60 21 a9 3c d0 b0 9f bc a1 ef 99 bc d0 be 82 bd
       0.020645797 -0.01949349 -0.018791022 -0.06384051
000060 29 12 0c 3d 91 69 a5 bd e3 b9 b9 3c ce 73 b4 3d
       0.034197006 -0.08076776 0.022671646 0.088111505
000070 a9 09 f9 3d dc 9a 58 3d d0 cd bb bd b7 18 5e bd
       0.12160046 0.05288206 -0.09170115 -0.05422279
000080 eb 23 81 3d f8 25 89 3c 03 b1 b5 bd 7b 89 96 bd
       0.06305679 0.016741738 -0.08871653 -0.07350441
000090 cd ee 01 3e b2 5d f4 3d 50 d6 82 bc 10 44 b6 bb
       0.12688752 0.119319335 -0.015971333 -0.005562313
0000a0 a8 68 bb bd 70 54 84 3c 01 83 b5 bd e7 1b b4 bd
       -0.09150821 0.016153544 -0.08862878 -0.087943844
0000b0 b1 b4 3a bc 0b 40 66 3d 09 8c d4 3b 2f f9 d7 3d
       -0.011395619 0.05621342 0.00648642 0.10545575
0000c0 d4 b0 3e bd a4 10 0b 3e 8f b7 c6 3d bf ff e2 bd
       -0.046555355 0.13580567 0.0970298 -0.11083936
0000d0 ae cf e7 bc 1d 7a 53 bb 48 cd 8b 3c 5c e4 0e 3d
       -0.028297272 -0.003226883 0.01706566 0.03488575
0000e0 32 71 34 3d 59 cb c6 3a 89 d5 5b bd b9 2d 30 3d
       0.044053264 0.0015166803 -0.05367044 0.043012355
0000f0 d0 3c 00 be df 65 a2 bd d4 2e 3d bd 81 1f c5 bc
       -0.12523198 -0.079295866 -0.046187237 -0.024062874
000100 e7 64 f6 3b 75 72 70 bd 37 a8 b0 3b a9 b7 6b 3d
       0.0075193527 -0.058702905 0.0053911465 0.0575482
000110 93 1b 52 bd 45 66 b7 3b a8 53 d0 3d e9 ab 31 bc
       -0.051295828 0.0055969083 0.10172206 -0.010844209
000120 d6 4e 3b 3b 3c b6 d9 bc 1b f6 b1 bb a5 86 9f 3d
       0.0028580925 -0.026576154 -0.0054309494 0.07789353
000130 c6 36 c4 3d a8 64 67 3d e0 6e e4 3d 77 96 80 bc
       0.0958076 0.056492478 0.1115396 -0.015696747
000140 f4 82 e4 bd b6 1b a4 bd 87 e2 3c 3d 99 a6 0b bd
       -0.1115779 -0.08013098 0.04611447 -0.034094427
000150 bd 34 a5 bd e5 fd 01 be ce d9 22 be e5 d8 08 be
       -0.080667 -0.1269451 -0.15903398 -0.13363989
000160 49 f1 7e bd bb 4c f5 3c 27 fc 8e 3d f9 b8 f6 bd
       -0.062241826 0.029943815 0.06981688 -0.120469995
000170 05 dc 3d 3d d7 d2 97 bd 7a 7e f2 bc c4 af 72 bd
       0.046352405 -0.074132614 -0.029601324 -0.059249654
000180 63 b8 6c bc c2 03 ca bc 4a 44 dc bd c1 c1 ce bd
       -0.014448258 -0.024659995 -0.107552126 -0.100955494
000190 42 e8 f3 bc a0 43 7b bc 55 2b 62 bd cc 3a 1a 3d
       -0.029773835 -0.015335947 -0.055217106 0.03765373
0001a0 01 79 e1 bd 84 4b 1a bc 81 41 c8 3d 66 c0 6b bd
       -0.11009408 -0.009417418 0.09778119 -0.057556532
0001b0 c4 03 ed 3d 6b a6 dd 3c b8 09 0d be e3 75 b6 3d
       0.11572984 0.027056893 -0.13773239 0.08909204
0001c0 f8 43 cf bc 6c f6 8a bd 2b 94 ca 3d 4e 8e cc bd
       -0.025300965 -0.067852825 0.09891542 -0.0998808
0001d0 6e ba 2a 3b b0 c3 d4 bc 93 f4 80 3d e5 57 4b 3c
       0.0026051062 -0.025972217 0.06296649 0.012411092
0001e0 49 16 4a 3d 37 0d 91 3c de b1 47 bd 99 20 26 bd
       0.04933766 0.017706497 -0.04875361 -0.04055843
0001f0 f9 4a e8 bd 18 97 23 3d ec 6c c8 3d 88 f3 98 3d
       -0.11342425 0.039939016 0.097864 0.07468325
000200 fb 64 c5 bd 78 16 bf 3c 2f bd 9f bd 92 0b 8c bd
       -0.09638401 0.023326144 -0.07799756 -0.06838144
000210 f2 5a 72 bd 6e 1b 22 3d 35 aa 9f bd 34 86 81 bb
       -0.059168763 0.03957694 -0.07796136 -0.003952766
000220 67 f8 72 bc 79 fd 2a 3d 7d 04 ac bd 17 46 bb bd
       -0.014829732 0.041745637 -0.083992936 -0.09144228
000230 2e 4a ae bd 9f 0b 9c 3d ba a2 73 bd 2b de a2 3d
       -0.085102424 0.07619404 -0.05948136 0.079525314
000240 c2 32 73 3d 5e 2c c7 3c d8 f7 04 3a 8c 4e 59 ba
       0.05937458 0.024313148 0.0005072332 -0.00082895975
000250 77 f3 8c 3c 78 05 d2 bc 56 79 23 3c e5 b3 5c 3c
       0.017205937 -0.025637373 0.009977659 0.013470625
000260 49 9c b6 bd e8 54 aa bd 32 38 9f 3d 33 8f ce bd
       -0.08916528 -0.08316976 0.0777439 -0.10085907
000270 0d c3 fe bc 38 fe c6 3d 7d 44 e5 3c 7b a8 a4 bc
       -0.031098867 0.09716457 0.02798676 -0.020099869
000280 86 2e f4 bd e6 a7 3f 3d 85 69 5e bd 61 10 a8 bc
       -0.11922936 0.04679098 -0.05429985 -0.020515623
000290 62 03 0a bd 18 3c 8f 3c 3b e4 4a 3c 6a 3b c3 3d
       -0.033694632 0.01748471 0.012383516 0.09532817
0002a0 f3 ad 31 3d 86 8b e7 3d 60 62 91 3d b0 d5 0d bd
       0.04337878 0.11305909 0.07098842 -0.034627616
0002b0 cd 7c 92 3d a2 37 aa bd 95 7f da b9 e8 88 7f 3d
       0.0715271 -0.08311392 -0.00041675256 0.062386423
0002c0 69 9a 1c 3d d6 21 e5 3d 8b fc 19 bc 6e f8 40 3b
       0.038233195 0.11188094 -0.00939859 0.002944495
0002d0 fb 9d 48 3d aa 6a ed bd a6 1c a7 3d f7 c2 c4 bd
       0.048978787 -0.1159261 0.08159761 -0.09607499
0002e0 63 ef 2f bc b5 24 67 bc da 0f 91 bd 20 42 02 3c
       -0.010738227 -0.014107873 -0.070831016 0.007950336
0002f0 2a 7a dc 3d fc cc a4 bc 4b 65 64 bd f4 7b 12 bd
       0.107654884 -0.020117275 -0.055760663 -0.035762742
000300 f0 88 99 bd b8 66 a0 3d f2 af 11 bd af 73 68 bd
       -0.07496822 0.07832092 -0.035568185 -0.05675095
000310 99 40 0b bd d3 83 b9 3d e3 90 c5 3d 29 70 d8 3d
       -0.033997152 0.090583466 0.096467756 0.10568268
000320 c0 23 22 3d d9 57 dd 3b 6e 50 11 bc bc 42 02 3d
       0.039584875 0.006754857 -0.008869274 0.031801924
000330 df 8f 04 3e cd 4b 6f 3d 9b db 65 bd db a8 59 bd
       0.12945507 0.0584219 -0.056117635 -0.05313955
000340 a1 0d d1 bd 90 a1 01 3d 59 81 87 bd 80 fb cb bd
       -0.10207678 0.03164822 -0.06616468 -0.09960079
000350 d2 1f e4 3d 98 fb 9a bd f5 2f 8f bc 3a fd 3b 3d
       0.11138882 -0.07567519 -0.017478922 0.045895793
000360 9c a2 96 3b 1a ce 9e bd 8e 79 db bd f3 33 e1 3d
       0.0045970213 -0.077541545 -0.10716544 0.10996237
000370 aa c7 34 3d b5 a1 ee 3d a0 d0 08 bd e2 5d 66 3d
       0.044135727 0.11651937 -0.033402085 0.056241877
000380 e7 41 8c bc 34 4d 12 3c 06 1a 28 bd be f1 91 3d
       -0.017121268 0.0089295395 -0.041040443 0.07126187
000390 b3 f1 2d 3d 1e f1 82 3c a7 d3 50 3b 82 3b 8c bd
       0.04246683 0.015984114 0.0031864436 -0.06847288
0003a0 2b 80 bf 3d 66 6a 9a bd f7 01 06 3d 56 61 79 bd
       0.09350618 -0.07539825 0.032716718 -0.060883842
0003b0 7b ba b1 bd 5d 51 87 3c 27 d0 85 bd d1 60 02 3b
       -0.086781465 0.01651829 -0.065338425 0.0019894133
0003c0 de 06 72 3c 92 26 cd bd dd 89 9e bc 75 0c 25 3d
       0.014772145 -0.10017122 -0.019352848 0.040295083
0003d0 59 7b 1d 3d 51 df 1b bd d2 c4 ad bd 6f cc 69 3b
       0.03844771 -0.038054768 -0.08484806 0.003567483
0003e0 65 3f 44 3d f9 27 14 bd d2 62 95 3d 85 24 c2 3d
       0.04791202 -0.036170933 0.07294239 0.09479622
0003f0 84 6b 84 bd 17 6a 08 3c 42 a7 37 3d d5 16 ca 3c
       -0.064658195 0.008326075 0.044837244 0.02466909

model.5.weight f4 [8]
000000 f6 62 7a 3f af bc 7c 3f d5 13 80 3f eb 8b 7d 3f
       0.9780725 0.9872541 1.0006052 0.9904162
000010 bc 12 81 3f 1b 4f 7f 3f fd 6c 81 3f 56 33 84 3f
       1.0083842 0.9973008 1.0111386 1.0328166

model.5.bias f4 [8]
000000 3b 88 7d bd 19 dd 4d bd 32 1e ec bc 2e b2 a4 3c
       -0.061897498 -0.050259683 -0.028822992 0.020104494
000010 96 27 c5 3a 10 0c 68 bc 0f c1 8e bc 61 b9 7d 3c
       0.0015041705 -0.014163032 -0.017426042 0.015486092

model.5.running_mean f4 [8]
000000 2f ee 0f 3d d1 73 0e be 89 6a 78 3c 59 5a dd 3d
       0.03513926 -0.13911368 0.015162119 0.10808248
000010 ac f3 36 3e 8a b6 23 3d e5 0b 64 3c df ab a2 3d
       0.17866391 0.039969005 0.0139188515 0.07942938

model.5.running_var f4 [8]
000000 4b 93 43 3d 92 0c 8b 3d b4 b2 5d 3d 57 0f 2b 3d
       0.04774789 0.06789507 0.054125503 0.041762676
000010 41 d6 a3 3d 4b 41 1d 3d 22 15 3b 3d ac e7 6b 3d
       0.0799985 0.038392346 0.04567445 0.057593986

model.6.state f4 [8, 32, 32]
000000 e7 ef 69 bf 00 00 80 bf 00 00 80 bf 00 00 80 bf
       -0.91381687 -1.0 -1.0 -1.0
000010 00 00 80 bf 00 00 80 bf 00 00 80 bf 00 00 80 bf
       -1.0 -1.0 -1.0 -1.0
000020 00 00 80 bf 00 00 80 bf 00 00 80 bf 00 00 80 bf
       -1.0 -1.0 -1.0 -1.0
000030 00 00 80 bf 00 00 80 bf 00 00 80 bf 00 00 80 bf
       -1.0 -1.0 -1.0 -1.0
000040 00 00 80 bf 00 00 80 bf 00 00 80 bf f6 87 76 bf
       -1.0 -1.0 -1.0 -0.9630121
000050 00 00 80 bf 00 00 80 bf 00 00 80 bf 00 00 80 bf
       -1.0 -1.0 -1.0 -1.0
000060 00 00 80 bf 00 00 80 bf 00 00 80 bf 00 00 80 bf
       -1.0 -1.0 -1.0 -1.0
000070 00 00 80 bf 00 00 80 bf 00 00 80 bf 00 00 80 bf
       -1.0 -1.0 -1.0 -1.0
000080 e0 b5 75 3f 00 00 80 bf 00 00 80 bf a8 36 21 be
       0.95980644 -1.0 -1.0 -0.15743506
000090 68 d4 0c be cc 3e 3a bf 02 26 22 bf 00 55 c8 3c
       -0.13752902 -0.7275207 -0.63339245 0.024454594
0000a0 20 41 32 bd 08 b2 7d be c3 40 5b bf 1c 20 53 bf
       -0.04351914 -0.24774945 -0.85645694 -0.8247087
0000b0 64 4b b2 3e 36 0d ec be e9 5a 71 bf 00 d4 47 3e
       0.34823143 -0.4610383 -0.9427934 0.19514465
0000c0 d4 b3 89 be 08 ca cc be 00 00 80 bf 00 00 80 bf
       -0.2689501 -0.39997888 -1.0 -1.0
0000d0 b7 f1 37 bf 10 d1 3e bf 21 c9 51 bf fc 41 f7 be
       -0.718532 -0.74537754 -0.81947523 -0.4829253
0000e0 de 0d 06 bf 4e 86 45 bf 5d 12 17 bf ec 77 5c bf
       -0.5236491 -0.7715806 -0.59012395 -0.86120486
0000f0 2e 2c 7f bf 00 00 80 bf 9b 5a 56 bf 00 00 80 bf
       -0.9967679 -1.0 -0.83732 -1.0
000100 6c 61 e1 be ec 66 13 3f 2e 22 b9 be e0 51 89 3e
       -0.4401964 0.5757892 -0.3615889 0.26820278
000110 0c ed c8 be cd c8 74 bf ec 42 30 3f 15 f1 3b bf
       -0.39243352 -0.956189 0.68852115 -0.73414737
000120 f6 b1 30 bf 88 05 61 bf 00 00 80 bf 82 2f de be
       -0.69021547 -0.87899065 -1.0 -0.4339562
000130 54 20 1b 3f a0 cb 97 3e d0 9b 3c bf 1e 17 08 bf
       0.60596204 0.2964754 -0.7367525 -0.53160274
000140 00 00 80 bf 48 37 9a 3e f8 f6 99 be 38 60 db be
       -1.0 0.301203 -0.30071235 -0.42846847
000150 f1 f5 01 bf 98 67 91 be 2e f9 36 bf 97 4a 17 bf
       -0.507659 -0.28399348 -0.7147397 -0.5909819
000160 5a 1c 04 bf 32 ab 02 bf b8 1a ba be 9e ba 67 bf
       -0.5160576 -0.51042473 -0.3634851 -0.9051913
000170 bd ad 36 bf a2 b0 22 bf b0 e3 d2 be 00 00 80 bf
       -0.71358854 -0.6355077 -0.41189337 -1.0
000180 a3 48 40 bf c9 9a 26 bf f0 d5 f0 3e ca f2 3f 3f
       -0.75110835 -0.65079933 0.4703822 0.7497984
000190 41 f1 1d bf a7 65 78 bf 00 00 80 bf 00 00 80 bf
       -0.6169625 -0.9703011 -1.0 -1.0
0001a0 00 00 80 bf dc 7a fc be 86 fd 63 bf a4 2c 72 bf
       -1.0 -0.49312484 -0.8905872 -0.94599366
0001b0 7b b8 0d bf d4 cc 1a 3f 8e 13 29 bf 00 00 80 bf
       -0.5535962 0.6046879 -0.66045463 -1.0
0001c0 c3 a1 32 bf 70 e5 0c 3e 10 b8 77 bf d2 f5 bb be
       -0.6977808 0.13759398 -0.9676523 -0.36710984
0001d0 00 00 80 bf 10 7b 69 bf 10 f4 1d 3f ec e0 f6 be
       -1.0 -0.91203403 0.61700535 -0.48218477
0001e0 30 75 52 bf 00 00 80 bf f3 37 24 bf 2c a6 e1 be
       -0.82210064 -1.0 -0.6414787 -0.44072092
0001f0 0a b1 0a bf b0 69 1e be 80 f8 ac 3d 00 00 80 bf
       -0.5417639 -0.15470004 0.08445835 -1.0
000200 74 c9 2b be b0 ca ab be c1 6f 67 bf 5c 2a b6 3e
       -0.16776067 -0.33553076 -0.904049 0.35579193
000210 f4 dc 26 be 25 ee 52 bf 00 00 80 bf a0 7f 46 bd
       -0.16295224 -0.8239463 -1.0 -0.048461556
000220 98 dc e0 3e 00 7a 05 3b 84 a7 26 be 00 00 80 bf
       0.439183 0.0020366907 -0.1627484 -1.0
000230 00 00 80 bf 00 00 80 bf 00 e8 db be 70 b0 13 be
       -1.0 -1.0 -0.4295044 -0.14422774
000240 66 66 01 bf 00 00 80 bf 54 31 14 bf a8 ee 75 be
       -0.5054687 -1.0 -0.5788777 -0.24016821
000250 fc 66 7f be 14 8e 64 bf 48 e3 df be 00 00 80 bf
       -0.24941629 -0.89279294 -0.4372809 -1.0
000260 da ef 0a bf 4d ad 23 bf cc 85 5c bf 8c a9 92 3e
       -0.54272234 -0.6393631 -0.8614166 0.2864498
000270 70 d8 5b bf 24 dc 67 bf f7 5c 5a bf 1e 4c 59 bf
       -0.8587713 -0.9057028 -0.85298103 -0.8488177
000280 d0 ca 3a bf 13 c7 18 bf 5a b2 06 bf d2 66 86 be
       -0.7296572 -0.59678763 -0.5261589 -0.2625032
000290 00 00 80 bf 00 00 80 bf 00 00 80 bf a0 fb 0d bf
       -1.0 -1.0 -1.0 -0.55462074
0002a0 00 00 80 bf 00 40 c3 bb 74 1a 51 be 40 76 39 3d
       -1.0 -0.005958557 -0.20420247 0.045278788
0002b0 64 35 48 bf 00 00 80 bf 63 dc 39 bf d0 f7 6a 3e
       -0.7820647 -1.0 -0.7260191 0.22946095
0002c0 53 d0 05 bf 3a 5a 3d bf 40 45 e6 be 00 00 80 bf
       -0.52271 -0.739658 -0.4497471 -1.0
0002d0 00 00 80 bf 00 c8 d3 be 00 00 80 bf 00 00 80 bf
       -1.0 -0.41363525 -1.0 -1.0
0002e0 54 e0 a5 be 00 00 80 bf 64 0f 1d 3f 00 00 80 bf
       -0.3239771 -1.0 0.6135161 -1.0
0002f0 00 00 80 bf 00 00 80 bf 6e fa 52 bf 00 00 80 bf
       -1.0 -1.0 -0.82413375 -1.0
000300 00 00 80 bf 00 00 80 bf 76 86 2e bf f0 f5 aa 3d
       -1.0 -1.0 -0.6817392 0.0834769
000310 d8 ae c4 3f b8 79 72 3f 00 00 80 bf e7 ec 5c bf
       1.5365858 0.9471698 -1.0 -0.86298984
000320 00 00 80 bf 00 00 80 bf 22 f2 3e bf 58 9d 6c be
       -1.0 -1.0 -0.74588215 -0.23106897
000330 60 9d 60 3f b8 8e 24 be 70 90 2b 3f fa c8 39 bf
       0.87740135 -0.16070068 0.6701727 -0.7257229
000340 85 32 5f bf de 76 e0 be 7c 6b d8 be 4e 02 13 bf
       -0.8718646 -0.43840688 -0.42269504 -0.5742539
000350 00 00 80 bf 9c 95 f9 be 40 7e 40 be bc 32 33 bf
       -1.0 -0.48746955 -0.1879816 -0.6999929
000360 00 00 80 bf 2b 5f 18 bf 12 3d f8 be 7c 08 9d be
       -1.0 -0.59520215 -0.48484093 -0.30670536
000370 64 66 78 bf 79 0b 39 bf 80 32 d8 3c 00 00 80 bf
       -0.97031236 -0.7228313 0.026391268 -1.0
000380 f0 ce a4 3e 10 1e ab bd a0 f9 9c be 70 e7 52 bf
       0.3218913 -0.08355343 -0.306592 -0.82384396
000390 58 92 a4 3e 38 c7 2c 3e 30 b4 74 3f 98 5f 4e 3e
       0.321429 0.16872871 0.95587444 0.20153654
0003a0 d0 ad 48 3e 00 00 80 bf 00 00 80 bf bd aa 1a bf
       0.19597554 -1.0 -1.0 -0.60416776
0003b0 00 00 80 bf 51 07 51 bf 98 14 d5 be 92 72 0d bf
       -1.0 -0.8165179 -0.41617274 -0.55252945
0003c0 50 04 36 be 38 ea af be 20 67 c4 3d 70 03 e7 3e
       -0.17775083 -0.34358382 0.09589982 0.4511981
0003d0 d8 e6 1d 3f a8 a3 81 bd 10 d5 f9 bd ad 6d 04 bf
       0.61680365 -0.06330043 -0.121988416 -0.5172985
0003e0 58 1e 58 3e 00 00 80 bf 00 a9 5b bf 98 e2 9d 3e
       0.21105325 -1.0 -0.8580475 0.3083694
0003f0 00 00 80 bf 00 00 80 bf 84 a1 f7 be 00 00 80 bf
       -1.0 -1.0 -0.48365414 -1.0

model.6.activations f4 [8, 32, 32]
000000 00 00 00 80 00 00 00 80 00 00 00 80 00 00 00 80
       -0.0 -0.0 -0.0 -0.0
000010 00 00 00 80 00 00 00 80 00 00 00 80 00 00 00 80
       -0.0 -0.0 -0.0 -0.0
000020 00 00 00 80 00 00 00 80 00 00 00 80 00 00 00 80
       -0.0 -0.0 -0.0 -0.0
000030 00 00 00 80 00 00 00 80 00 00 00 80 00 00 00 80
       -0.0 -0.0 -0.0 -0.0
000040 00 00 00 80 00 00 00 80 00 00 00 80 00 00 00 80
       -0.0 -0.0 -0.0 -0.0
000050 00 00 00 80 00 00 00 80 00 00 00 80 00 00 00 80
       -0.0 -0.0 -0.0 -0.0
000060 00 00 00 80 00 00 00 80 00 00 00 80 00 00 00 80
       -0.0 -0.0 -0.0 -0.0
000070 00 00 00 80 00 00 00 80 00 00 00 80 00 00 00 80
       -0.0 -0.0 -0.0 -0.0
000080 00 00 00 00 00 00 00 80 00 00 00 80 00 00 00 80
       0.0 -0.0 -0.0 -0.0
000090 00 00 00 80 00 00 00 80 00 00 00 80 00 00 00 00
       -0.0 -0.0 -0.0 0.0
0000a0 00 00 00 80 00 00 00 80 00 00 00 80 00 00 00 80
       -0.0 -0.0 -0.0 -0.0
0000b0 00 00 00 00 00 00 00 80 00 00 00 80 00 00 00 00
       0.0 -0.0 -0.0 0.0
0000c0 00 00 00 80 00 00 00 80 00 00 00 80 00 00 00 80
       -0.0 -0.0 -0.0 -0.0
0000d0 00 00 00 80 00 00 00 80 00 00 00 80 00 00 00 80
       -0.0 -0.0 -0.0 -0.0
0000e0 00 00 00 80 00 00 00 80 00 00 00 80 00 00 00 80
       -0.0 -0.0 -0.0 -0.0
0000f0 00 00 00 80 00 00 00 80 00 00 00 80 00 00 00 80
       -0.0 -0.0 -0.0 -0.0
000100 00 00 00 80 00 00 00 00 00 00 00 80 00 00 00 00
       -0.0 0.0 -0.0 0.0
000110 00 00 00 80 00 00 00 80 00 00 00 00 00 00 00 80
       -0.0 -0.0 0.0 -0.0
000120 00 00 00 80 00 00 00 80 00 00 00 80 00 00 00 80
       -0.0 -0.0 -0.0 -0.0
000130 00 00 00 00 00 00 00 00 00 00 00 80 00 00 00 80
       0.0 0.0 -0.0 -0.0
000140 00 00 00 80 00 00 00 00 00 00 00 80 00 00 00 80
       -0.0 0.0 -0.0 -0.0
000150 00 00 00 80 00 00 00 80 00 00 00 80 00 00 00 80
       -0.0 -0.0 -0.0 -0.0
000160 00 00 00 80 00 00 00 80 00 00 00 80 00 00 00 80
       -0.0 -0.0 -0.0 -0.0
000170 00 00 00 80 00 00 00 80 00 00 00 80 00 00 00 80
       -0.0 -0.0 -0.0 -0.0
000180 00 00 00 80 00 00 00 80 00 00 00 00 00 00 00 00
       -0.0 -0.0 0.0 0.0
000190 00 00 00 80 00 00 00 80 00 00 00 80 00 00 00 80
       -0.0 -0.0 -0.0 -0.0
0001a0 00 00 00 80 00 00 00 80 00 00 00 80 00 00 00 80
       -0.0 -0.0 -0.0 -0.0
0001b0 00 00 00 80 00 00 00 00 00 00 00 80 00 00 00 80
       -0.0 0.0 -0.0 -0.0
0001c0 00 00 00 80 00 00 00 00 00 00 00 80 00 00 00 80
       -0.0 0.0 -0.0 -0.0
0001d0 00 00 00 80 00 00 00 80 00 00 00 00 00 00 00 80
       -0.0 -0.0 0.0 -0.0
0001e0 00 00 00 80 00 00 00 80 00 00 00 80 00 00 00 80
       -0.0 -0.0 -0.0 -0.0
0001f0 00 00 00 80 00 00 00 80 00 00 00 00 00 00 00 80
       -0.0 -0.0 0.0 -0.0
000200 00 00 00 80 00 00 00 80 00 00 00 80 00 00 00 00
       -0.0 -0.0 -0.0 0.0
000210 00 00 00 80 00 00 00 80 00 00 00 80 00 00 00 80
       -0.0 -0.0 -0.0 -0.0
000220 00 00 00 00 00 00 00 00 00 00 00 80 00 00 00 80
       0.0 0.0 -0.0 -0.0
000230 00 00 00 80 00 00 00 80 00 00 00 80 00 00 00 80
       -0.0 -0.0 -0.0 -0.0
000240 00 00 00 80 00 00 00 80 00 00 00 80 00 00 00 80
       -0.0 -0.0 -0.0 -0.0
000250 00 00 00 80 00 00 00 80 00 00 00 80 00 00 00 80
       -0.0 -0.0 -0.0 -0.0
000260 00 00 00 80 00 00 00 80 00 00 00 80 00 00 00 00
       -0.0 -0.0 -0.0 0.0
000270 00 00 00 80 00 00 00 80 00 00 00 80 00 00 00 80
       -0.0 -0.0 -0.0 -0.0
000280 00 00 00 80 00 00 00 80 00 00 00 80 00 00 00 80
       -0.0 -0.0 -0.0 -0.0
000290 00 00 00 80 00 00 00 80 00 00 00 80 00 00 00 80
       -0.0 -0.0 -0.0 -0.0
0002a0 00 00 00 80 00 00 00 80 00 00 00 80 00 00 00 00
       -0.0 -0.0 -0.0 0.0
0002b0 00 00 00 80 00 00 00 80 00 00 00 80 00 00 00 00
       -0.0 -0.0 -0.0 0.0
0002c0 00 00 00 80 00 00 00 80 00 00 00 80 00 00 00 80
       -0.0 -0.0 -0.0 -0.0
0002d0 00 00 00 80 00 00 00 80 00 00 00 80 00 00 00 80
       -0.0 -0.0 -0.0 -0.0
0002e0 00 00 00 80 00 00 00 80 00 00 00 00 00 00 00 80
       -0.0 -0.0 0.0 -0.0
0002f0 00 00 00 80 00 00 00 80 00 00 00 80 00 00 00 80
       -0.0 -0.0 -0.0 -0.0
000300 00 00 00 80 00 00 00 80 00 00 00 80 00 00 00 00
       -0.0 -0.0 -0.0 0.0
000310 00 00 80 3f 00 00 00 00 00 00 00 80 00 00 00 80
       1.0 0.0 -0.0 -0.0
000320 00 00 00 80 00 00 00 80 00 00 00 80 00 00 00 80
       -0.0 -0.0 -0.0 -0.0
000330 00 00 00 00 00 00 00 80 00 00 00 00 00 00 00 80
       0.0 -0.0 0.0 -0.0
000340 00 00 00 80 00 00 00 80 00 00 00 80 00 00 00 80
       -0.0 -0.0 -0.0 -0.0
000350 00 00 00 80 00 00 00 80 00 00 00 80 00 00 00 80
       -0.0 -0.0 -0.0 -0.0
000360 00 00 00 80 00 00 00 80 00 00 00 80 00 00 00 80
       -0.0 -0.0 -0.0 -0.0
000370 00 00 00 80 00 00 00 80 00 00 00 00 00 00 00 80
       -0.0 -0.0 0.0 -0.0
000380 00 00 00 00 00 00 00 80 00 00 00 80 00 00 00 80
       0.0 -0.0 -0.0 -0.0
000390 00 00 00 00 00 00 00 00 00 00 00 00 00 00 00 00
       0.0 0.0 0.0 0.0
0003a0 00 00 00 00 00 00 00 80 00 00 00 80 00 00 00 80
       0.0 -0.0 -0.0 -0.0
0003b0 00 00 00 80 00 00 00 80 00 00 00 80 00 00 00 80
       -0.0 -0.0 -0.0 -0.0
0003c0 00 00 00 80 00 00 00 80 00 00 00 00 00 00 00 00
       -0.0 -0.0 0.0 0.0
0003d0 00 00 00 00 00 00 00 80 00 00 00 80 00 00 00 80
       0.0 -0.0 -0.0 -0.0
0003e0 00 00 00 00 00 00 00 80 00 00 00 80 00 00 00 00
       0.0 -0.0 -0.0 0.0
0003f0 00 00 00 80 00 00 00 80 00 00 00 80 00 00 00 80
       -0.0 -0.0 -0.0 -0.0

model.9.weight f4 [8, 8, 3, 3]
000000 1d 6d 85 bd bc 9f 9b bb e1 38 15 3c 99 78 16 3d
       -0.06514952 -0.0047492664 0.009107799 0.036736105
000010 fa 9b 89 bd c3 96 c9 3d c6 95 2d bd 43 c4 0c 3e
       -0.06719203 0.09843209 -0.042379163 0.13746743
000020 2b 14 ab bd c5 08 19 bd c3 f3 3c 3d a4 d2 33 bd
       -0.08353456 -0.03736188 0.046130907 -0.043902054
000030 9a b3 97 3d 51 9c cb bd 85 ce 9e bd e1 89 6a bd
       0.07407303 -0.09941924 -0.07754234 -0.057260398
000040 39 f4 15 bc 69 f6 fe 3d 7e e7 98 bd 77 3e 36 3d
       -0.0091524655 0.12449343 -0.07466029 0.044493165
000050 1e d2 27 bd c8 85 34 bd e1 72 b9 3d f7 19 d2 bd
       -0.040971868 -0.044072896 0.090551145 -0.10258859
000060 2c af b1 bc e5 00 e9 3d 21 04 b4 bc 41 1a 8b 3d
       -0.021689974 0.11377124 -0.021974625 0.06792117
000070 76 a3 2b bd 31 25 bd 3d 63 a4 03 be 47 c3 c2 bb
       -0.041903935 0.09235609 -0.12855677 -0.005943689
000080 43 02 72 bc 47 56 ee 3b 01 f1 69 3d 29 0e e0 3d
       -0.014771047 0.0072734687 0.057114605 0.10940201
000090 d7 26 0c bd c7 e4 05 bc 69 ad a1 3d 44 ec 48 bd
       -0.034216728 -0.008172221 0.078944035 -0.049053445
0000a0 b0 7f dd 3d 95 b6 86 bd 11 c7 4b bd 04 46 17 bc
       0.1081537 -0.065777935 -0.04975039 -0.009233002
0000b0 54 98 9d 3d cd 68 58 3d c6 49 c7 bc da 5e e6 bd
       0.0769507 0.05283432 -0.02432717 -0.1124856
0000c0 c3 f7 19 3d 9a 3f 62 3d a9 45 13 3d 93 9c ce bd
       0.0375898 0.055236436 0.035955105 -0.10088458
0000d0 63 45 bf 3d c7 10 ba 3d 57 b0 9a 3c 2a 56 cb bd
       0.09339406 0.09085231 0.018882914 -0.09928544
0000e0 51 8b b1 3d bd cb 8f bd 5d a2 7e 3d 8a b2 00 3d
       0.086691506 -0.07021282 0.06216656 0.031420268
0000f0 94 29 31 bd 96 1d 88 3d 19 cb be bd 15 f4 32 3c
       -0.043252543 0.06646268 -0.093160816 0.0109224515
000100 a3 dc 98 bd 4b 72 51 bc b9 f4 d7 3b fb a8 ff 3d
       -0.07463958 -0.012783597 0.0065904525 0.12483402
000110 33 1c 54 bd f4 23 81 3d 1e 05 94 3c b6 48 0d bd
       -0.051784705 0.06305686 0.018068846 -0.03449317
000120 f8 64 c7 bd 15 2d e8 bd 1e 61 cf 3d 6f c5 47 bc
       -0.09736055 -0.11336724 0.101259455 -0.012193068
000130 a9 4d 1f 3b b1 ae ce 3c 12 07 df 3d 5d ca 04 3e
       0.0024307764 0.025229784 0.108900204 0.1296782
000140 11 cb cb 3d e3 ad 8c bd c2 01 d8 bb 86 ca 5f bd
       0.09950841 -0.06869104 -0.0065920064 -0.0546365
000150 9f 20 9a bd 00 9b 98 3c 3f a9 f8 3d e6 d4 d0 bd
       -0.07525753 0.018628597 0.12141656 -0.10196857
000160 70 e9 8e 3d 89 9d 10 bd 87 2a 0a bd fd 69 ca 3d
       0.069781184 -0.035306487 -0.033731963 0.09883497
000170 42 0a 02 bd 4f 7d c5 3b 7e 2e 94 bd 07 7a cd 3d
       -0.031748064 0.006026901 -0.0723543 0.100330405
000180 ef 3c 9e bc 07 48 aa bd 56 81 cd 3c 7a e3 d1 bd
       -0.019316165 -0.083145194 0.025086086 -0.10248466
000190 02 4f db bd fd 77 7a bb cd a7 aa 3d f7 b9 cb bc
       -0.10708429 -0.0038218491 0.08332787 -0.024868948
0001a0 64 fc 81 3d ae 8f ca 3d 0f 8f b1 3d fa 4b 7b bd
       0.06346968 0.09890686 0.086698644 -0.061351754
0001b0 70 4b aa bc 54 f0 25 bd e0 d3 c5 bd 1d 43 1a bc
       -0.020787925 -0.040512398 -0.096595526 -0.009415415
0001c0 60 5f ba 3d 7b 44 d2 3d d4 f0 03 3c 7b f7 e4 3c
       0.091002226 0.10266968 0.008053023 0.02795004
0001d0 22 7a 6d bd 6f d7 9a 3d e6 10 32 bd cf 99 aa bd
       -0.057977803 0.07560622 -0.043473147 -0.08330118
0001e0 04 48 08 3c b1 a0 92 3d d1 78 d5 bd 3e 44 ca 3d
       0.008317951 0.07159556 -0.104234345 0.098762974
0001f0 5d 72 09 3d e1 75 c0 bd ee df a4 bc c6 25 ff 3d
       0.03355633 -0.093974836 -0.02012631 0.124583766
000200 78 a2 aa bd dd 4d 2b bc 77 0c 9d 3d 7c 31 cb bd
       -0.0833177 -0.010455576 0.07668393 -0.09921548
000210 aa 8a b8 3d 5a 05 a2 3d ee d0 87 3d b8 68 a5 bd
       0.09010823 0.07911177 0.06631647 -0.08076614
000220 46 1e 02 3e b6 88 9a bd 0d 7a 06 3e 75 2c d0 bd
       0.12706861 -0.07545607 0.13132496 -0.101647295
000230 17 ca b9 bd 55 71 c3 3d 09 4d f0 3c 7a 0d c9 3c
       -0.09071749 0.09543101 0.029333608 0.024542559
000240 7c 1b 98 bd e8 5f 3c bd a3 f5 37 bd 39 a2 ca bd
       -0.07427117 -0.0459899 -0.04491199 -0.09894223
000250 d9 06 81 3c 01 be a3 3c ff 91 63 3c 17 a6 2d 3d
       0.015750336 0.019988062 0.013889789 0.042394724
000260 47 4a b8 3d e8 22 f5 3c 8e 1e ac bc d8 f8 50 bc
       0.08998542 0.029923871 -0.021010663 -0.0127546415
000270 c6 81 95 bd f0 ba 2d bd 76 6d b7 3c aa 52 30 bc
       -0.07300143 -0.042414606 0.022391062 -0.010761896
000280 71 18 d2 3d 7f c5 7c bc 95 fe ea 3d a9 56 a4 bd
       0.10258568 -0.015427946 0.11474339 -0.080243416
000290 12 5a 48 bc f7 2e 01 3e 5a a1 c9 3d 17 1a c6 bd
       -0.012228506 0.12615572 0.098452285 -0.09672945
0002a0 85 64 ed 3c 16 5e 2d bc 0d af b6 bd c1 ae 0c bd
       0.028978596 -0.010581514 -0.08920107 -0.034346346
0002b0 d1 87 0a 3d af 4d b0 bd 68 2e e1 3c 55 1c 31 3d
       0.03382093 -0.08608567 0.027487949 0.04323991
0002c0 cc 24 76 bd 10 1e cb 3d 97 56 f2 bc 53 ce c1 3c
       -0.060093686 0.09917843 -0.029582305 0.023657953
0002d0 d3 6e 04 3e 20 d0 2b bd 90 bc 25 3d 1b 25 0f bc
       0.12932901 -0.04194653 0.04046303 -0.008736874
0002e0 f8 c3 ac bc f9 ed 3b bd f1 f4 be 3c e6 96 38 bd
       -0.021089539 -0.045881245 0.023310157 -0.045065783
0002f0 67 9d 40 bb ef 06 d0 bb 8a 3c 76 3d 7f a8 41 bd
       -0.0029390694 -0.006348483 0.06011633 -0.04727983
000300 90 3f 12 3c ac 89 83 bd 19 fa ec bd 69 76 41 3d
       0.008926287 -0.06422743 -0.1157114 0.047232065
000310 a2 9f de bb 86 f3 89 bd 68 44 01 bd c1 0e bc 3c
       -0.006793932 -0.067359015 -0.031559378 0.022956254
000320 9b 9a 17 bd 13 9e 96 3d 3b 0e a3 bc a7 6b 44 3c
       -0.037012678 0.07354369 -0.019904247 0.011988557
000330 f4 88 6e 3d e3 69 5b bd d2 44 af 3c 90 04 c0 3d
       0.058236077 -0.05356778 0.02139512 0.0937587
000340 03 a1 04 3c 77 32 4a 3c e9 a6 54 3c 4f bf 9c 3d
       0.008095029 0.012341133 0.012979248 0.07653677
000350 70 e6 68 bd 15 5b 38 bd d7 6a 19 3d fb 21 e5 bd
       -0.056860387 -0.045008738 0.037455406 -0.11188122
000360 64 20 c5 3c 94 92 6f bd 6d 13 83 3d 27 6e 9b bd
       0.024063297 -0.058489397 0.064001895 -0.07589369
000370 49 f8 da 3d f1 45 09 3e 4f 92 b7 3c d3 c9 db 3b
       0.10691888 0.13405587 0.022408633 0.006707409
000380 13 b1 fc 3d 4a 77 92 bd 1d 8f 1e bd 76 b7 52 bd
       0.12338462 -0.07151659 -0.038710702 -0.051444493
000390 05 a7 a2 bc 53 91 e9 3c 5c de 3a 3d 43 be 99 bc
       -0.019855032 0.028511679 0.045622215 -0.018767482
0003a0 e8 15 c1 bd 20 3c f9 3c 84 d9 0e bc 11 ae f5 3c
       -0.094280064 0.030424178 -0.008718852 0.029990228
0003b0 d5 e6 c3 3d 58 f5 e1 3d 32 41 8f bd 3a 7b 83 bc
       0.09565512 0.11033124 -0.06994857 -0.01604997
0003c0 db 1a 6d bd 9f 3b fc bd d3 63 d7 bd ea 05 da 3d
       -0.05788694 -0.12316059 -0.10517087 0.10645659
0003d0 93 74 a0 3d 17 f1 86 3d 33 77 6b 3d 31 d5 b8 bd
       0.07834735 0.06588953 0.057486724 -0.09025038
0003e0 91 40 cb 3b f7 58 d3 3d 78 6a 9f bd 76 ab a8 3d
       0.0062027653 0.10319703 -0.07783979 0.082358286
0003f0 d8 19 e4 3c 96 88 b3 3d 62 41 4f bd 16 5c 58 3d
       0.027844355 0.08766286 -0.050599463 0.052822195

model.10.weight f4 [8]
000000 e3 dc 7b 3f c5 7e 7c 3f 04 8e 7d 3f a6 57 7c 3f
       0.9838392 0.98630935 0.99044824 0.9857124
000010 13 b4 79 3f 2b 3e 7c 3f 52 4f 76 3f 58 26 77 3f
       0.97540396 0.9853236 0.96214783 0.9654288

model.10.bias f4 [8]
000000 31 50 83 bc ae 23 ed bc 00 f3 04 bd 41 40 07 bd
       -0.01602945 -0.028947677 -0.032458305 -0.03302026
000010 88 d1 e0 bc dd e0 2c bd 22 9f 15 bd d9 1f 12 bd
       -0.027443662 -0.042206634 -0.036528714 -0.035674904

model.10.running_mean f4 [8]
000000 be 64 31 3d 33 e2 69 3d 8f 61 8e bb 35 b4 89 3d
       0.043308966 0.057100486 -0.004345126 0.06723825
000010 b0 7b 33 3d b9 e6 1c 3c 6e 53 90 be 46 43 b2 be
       0.04381913 0.009576493 -0.28188652 -0.3481695

model.10.running_var f4 [8]
000000 38 18 02 3e 47 c8 4b 3e 91 ba 2c 3e cc ba 97 3e
       0.12704551 0.19900618 0.16868044 0.29634702
000010 97 6b 75 3e f5 d3 24 3e 60 2c 1c 3f df 85 27 3f
       0.23966824 0.1609648 0.6100521 0.65438646

model.11.state f4 [8, 16, 16]
000000 00 00 80 bf 00 00 80 bf 00 00 80 bf 00 00 80 bf
       -1.0 -1.0 -1.0 -1.0
000010 00 00 80 bf 00 00 80 bf 00 00 80 bf 00 00 80 bf
       -1.0 -1.0 -1.0 -1.0
000020 00 00 80 bf 00 00 80 bf 00 00 80 bf 00 00 80 bf
       -1.0 -1.0 -1.0 -1.0
000030 00 00 80 bf 00 00 80 bf 00 00 80 bf 00 00 80 bf
       -1.0 -1.0 -1.0 -1.0
000040 00 00 80 bf 00 00 80 bf c0 30 71 bf 00 00 80 bf
       -1.0 -1.0 -0.9421501 -1.0
000050 f9 dc 6b bf 00 00 80 bf 00 00 80 bf 00 00 80 bf
       -0.9213405 -1.0 -1.0 -1.0
000060 00 00 80 bf 00 00 80 bf 00 00 80 bf 00 00 80 bf
       -1.0 -1.0 -1.0 -1.0
000070 00 00 80 bf 00 00 80 bf 00 00 80 bf 00 00 80 bf
       -1.0 -1.0 -1.0 -1.0
000080 00 00 80 bf c4 fd 70 bf 54 1b 74 bf 00 00 80 bf
       -1.0 -0.94137216 -0.953542 -1.0
000090 00 00 80 bf 00 00 80 bf 00 00 80 bf 00 00 80 bf
       -1.0 -1.0 -1.0 -1.0
0000a0 00 00 80 bf 00 00 80 bf 00 00 80 bf 00 00 80 bf
       -1.0 -1.0 -1.0 -1.0
0000b0 00 00 80 bf 00 00 80 bf 8c d9 3d bf 00 00 80 bf
       -1.0 -1.0 -0.74160075 -1.0
0000c0 27 ca 48 bf 60 75 63 bf 00 00 80 bf 00 00 80 bf
       -0.7843346 -0.88850975 -1.0 -1.0
0000d0 d6 77 72 bf 00 00 80 bf 00 00 80 bf 00 00 80 bf
       -0.94714105 -1.0 -1.0 -1.0
0000e0 00 00 80 bf 00 00 80 bf 00 00 80 bf 00 00 80 bf
       -1.0 -1.0 -1.0 -1.0
0000f0 10 9f a3 3d a0 87 f8 3e 00 00 80 bf 00 00 80 bf
       0.07989323 0.48540974 -1.0 -1.0
000100 00 00 80 bf 00 00 80 bf 62 90 44 bf 00 00 80 bf
       -1.0 -1.0 -0.7678281 -1.0
000110 00 00 80 bf 00 00 80 bf 00 00 80 bf 00 00 80 bf
       -1.0 -1.0 -1.0 -1.0
000120 ac a8 35 bf 00 00 80 bf 00 00 80 bf 00 00 80 bf
       -0.709605 -1.0 -1.0 -1.0
000130 00 00 80 bf f0 d6 f1 3e 00 00 80 bf 63 9b 77 bf
       -1.0 0.47234297 -1.0 -0.96721476
000140 00 00 80 bf 00 00 80 bf 00 00 80 bf 00 00 80 bf
       -1.0 -1.0 -1.0 -1.0
000150 cd a1 5a bf 00 00 80 bf a0 7b d8 3d 00 00 80 bf
       -0.8540314 -1.0 0.105704546 -1.0
000160 68 64 df be 00 00 80 bf 00 00 80 bf 48 6f 61 bf
       -0.4363129 -1.0 -1.0 -0.88060427
000170 00 00 80 bf 58 3d 4e 3f 81 9a 0e bf 00 00 80 bf
       -1.0 0.80562353 -0.55704504 -1.0
000180 00 00 80 bf 80 4a 50 3d 00 00 80 bf 51 50 7e bf
       -1.0 0.0508523 -1.0 -0.99341303
000190 09 58 32 bf 00 00 80 bf 02 02 76 bf 00 00 80 bf
       -0.6966558 -1.0 -0.96096814 -1.0
0001a0 f8 77 6d be 00 00 80 bf a3 11 69 bf 57 85 4d bf
       -0.23190296 -1.0 -0.91042536 -0.80281585
0001b0 76 e1 67 bf 74 f5 45 3f 00 00 80 bf 00 00 80 bf
       -0.905784 0.77327657 -1.0 -1.0
0001c0 00 00 80 bf 00 00 80 bf bf 30 71 bf da 65 54 bf
       -1.0 -1.0 -0.94215006 -0.82967913
0001d0 be 1d f9 be 00 78 d2 3d d8 f1 49 bf f8 81 af bd
       -0.48655504 0.102767944 -0.7888465 -0.085697114
0001e0 54 e0 4a bf 00 00 80 bf d8 57 61 bf 00 00 80 bf
       -0.7924855 -1.0 -0.88024664 -1.0
0001f0 56 e5 8f be 14 27 88 3e 24 b0 be 3e 00 00 80 bf
       -0.28104657 0.26592314 0.3724376 -1.0
000200 00 00 80 bf 38 04 18 be 22 71 2f bf a0 9c 26 bf
       -1.0 -0.1484536 -0.68532 -0.6508274
000210 02 cf 2e bf 90 9b 81 bd 30 fe c4 be e0 80 65 3f
       -0.6828462 -0.06328499 -0.3847518 0.8964977
000220 00 00 80 bf 00 00 80 bf 36 00 15 bf 00 00 80 bf
       -1.0 -1.0 -0.58203447 -1.0
000230 60 52 d8 bc 8c 6e d0 3e b2 74 50 bf 00 00 80 bf
       -0.026406467 0.4070934 -0.8142806 -1.0
000240 a7 16 31 bf 28 b1 1f 3f e8 a3 63 be ee 2b 88 be
       -0.6917519 0.62379694 -0.22230494 -0.26596016
000250 bc 27 3b bf 50 ac 9f 3e 20 de 48 3e 58 05 b5 3f
       -0.73107505 0.31186152 0.19615984 1.4142256
000260 00 00 80 bf 00 00 80 bf 00 00 80 bf 00 00 80 bf
       -1.0 -1.0 -1.0 -1.0
000270 4e b1 0d 3f 40 35 09 3d 00 00 80 bf 00 00 80 bf
       0.5534867 0.03349805 -1.0 -1.0
000280 e2 61 8b 3f ac c5 8a 3e e0 84 05 3e 84 0b dc 3e
       1.0889246 0.27103937 0.13038969 0.42977536
000290 40 7b 8c 3f a4 85 1e 40 c2 68 73 3f 3c 56 f5 be
       1.0975113 2.4769068 0.9508172 -0.47917354
0002a0 00 00 80 bf 00 00 80 bf 00 00 80 bf ca 8d 6b bf
       -1.0 -1.0 -1.0 -0.9201323
0002b0 90 09 bb 3e 96 ce 3e 3f 00 00 80 bf 00 00 80 bf
       0.36530733 0.74533975 -1.0 -1.0
0002c0 2d ea 73 bf b0 e1 3f bf 00 00 80 bf 68 29 84 3f
       -0.952792 -0.74953747 -1.0 1.0325136
0002d0 20 23 ef 3f 50 d9 ae be d8 2e ae 3e 00 00 80 bf
       1.8682594 -0.3415017 0.34020114 -1.0
0002e0 dc d2 16 bf 00 00 80 bf b4 78 7f bf 14 a2 4d bf
       -0.58915496 -1.0 -0.99793553 -0.80325437
0002f0 00 00 80 bf 58 fb 03 3e 00 00 80 bf 00 00 80 bf
       -1.0 0.12888849 -1.0 -1.0
000300 00 00 80 bf 54 21 0f bf 96 7d d3 be 24 df a9 be
       -1.0 -0.5591023 -0.41306752 -0.33178055
000310 00 00 80 bf 00 00 80 bf 00 86 74 bf 90 6c 22 3e
       -1.0 -1.0 -0.9551697 0.15861726
000320 80 d6 c7 bd 40 c6 4b bf 00 00 80 bf 00 00 80 bf
       -0.097577095 -0.7959938 -1.0 -1.0
000330 00 00 80 bf d2 79 d0 be 20 97 4c 3e 00 00 80 bf
       -1.0 -0.40717942 0.19979525 -1.0
000340 00 00 80 bf 3d 2c 6f bf 74 89 04 bf 64 fd 7a bf
       -1.0 -0.9342688 -0.51772237 -0.98042893
000350 db 7c 26 bf 98 55 62 3f 00 00 80 bf 00 00 80 bf
       -0.65034264 0.88411856 -1.0 -1.0
000360 a3 0c 5d bf 00 00 80 bf 30 b2 64 bf 00 00 80 bf
       -0.8634741 -1.0 -0.8933439 -1.0
000370 2e 4a 7b bf 38 82 39 be 00 00 80 bf 00 00 80 bf
       -0.98160064 -0.18116081 -1.0 -1.0
000380 d6 f3 5b bf 00 00 80 bf d8 cf 4e 3e 00 00 80 bf
       -0.8591894 -1.0 0.20196474 -1.0
000390 40 7a 69 3e 00 00 80 bf e0 96 97 3e 00 00 80 bf
       0.22800541 -1.0 0.29607296 -1.0
0003a0 1c 42 09 bf 0a 68 6d bf 90 d4 d7 3d 00 00 80 bf
       -0.536165 -0.92736876 0.1053859 -1.0
0003b0 e8 ad 1e bf 00 00 80 bf 00 00 80 bf 00 00 80 bf
       -0.6198411 -1.0 -1.0 -1.0
0003c0 00 00 80 bf 08 99 4f bf 00 00 80 bf 00 00 80 bf
       -1.0 -0.8109288 -1.0 -1.0
0003d0 00 00 80 bf 00 00 80 bf 00 00 80 bf 00 00 80 bf
       -1.0 -1.0 -1.0 -1.0
0003e0 00 00 80 bf 00 00 80 bf 00 00 80 bf 00 00 80 bf
       -1.0 -1.0 -1.0 -1.0
0003f0 00 00 80 bf 00 00 80 bf 00 00 80 bf 00 00 80 bf
       -1.0 -1.0 -1.0 -1.0
