Resources/Models/2015412819_model.pt (torch, 493660 bytes, 5 tensors)

0.weight f4 [20, 2, 5, 5]
000000 35 c5 0c 3e f4 90 d7 ba e5 28 3d 3e 8d 58 fa 3d
       0.13747104 -0.0016446398 0.18472631 0.12223921
000010 91 dc ff 3d 40 f7 90 3d 6a ff 3c bd 0b a8 38 bd
       0.124932416 0.07078409 -0.04614202 -0.045082133
000020 9f cb 06 bd 14 2a 87 bd ae 47 f0 bc 92 a6 0d 3e
       -0.032909032 -0.06599823 -0.029331055 0.13833073
000030 06 7c ef bb 96 8d fa bd 9b f0 1f 3e 1d 09 4b bc
       -0.007308486 -0.122340366 0.15619127 -0.0123923095
000040 f2 73 c6 bc c9 b0 36 3c 65 74 a6 3d 48 50 bd bd
       -0.024225209 0.011150547 0.08127669 -0.09243828
000050 3d 43 8e be 2f 0b 5c be 1f 8d 9d be 12 05 fb bd
       -0.27785674 -0.21488641 -0.3077173 -0.122568265
000060 e3 5e 00 bd 75 b0 03 3e 03 61 d8 3d a6 a1 a1 bd
       -0.03134049 0.12860282 0.105653785 -0.0789216
000070 f3 32 a3 3d f4 1a 34 3e 78 26 ba 3a eb de ed 3d
       0.07968702 0.17588407 0.0014202138 0.11614784
000080 26 40 e4 3d bb a1 e5 3d 29 24 04 3e 87 13 b9 bc
       0.11145048 0.11212488 0.12904419 -0.02259232
000090 04 4a 9a bd 16 23 41 bd 88 e5 a8 bd b2 e8 24 3d
       -0.075336486 -0.0471526 -0.082469046 0.040260978
0000a0 a1 c6 b9 be a6 7a 4a be 2e 8c 7a be 55 37 9d be
       -0.36284354 -0.19773349 -0.24467537 -0.30706277
0000b0 86 5f 82 be 02 01 81 be 43 a4 cc be 45 db 80 be
       -0.25463504 -0.2519608 -0.39969072 -0.2516729
0000c0 5b fb 7c be 98 da 71 be db 72 e1 3c 8c e5 72 3b
       -0.2470526 -0.23618543 0.027520588 0.003706309
0000d0 5d 90 24 be 14 05 25 3d 16 54 cd 3d d9 dd 86 bd
       -0.16070695 0.040288046 0.10025804 -0.06585283
0000e0 51 f3 81 3d 13 09 c4 3c 10 b9 c9 bd b5 df c6 bd
       0.06345237 0.023930108 -0.09849751 -0.097106375
0000f0 04 72 de bc 67 e8 40 3d 7f 9c 5e bd c4 c8 43 bd
       -0.027153976 0.047096636 -0.054348465 -0.047798887
000100 18 ef 45 be 7d 93 0c be dc 4c 27 3c b7 02 42 bc
       -0.19329488 -0.13728137 0.010211196 -0.011841468
000110 86 18 c8 3d d7 97 f2 bb a6 e3 6f be 8b c3 13 3d
       0.097703025 -0.0074033546 -0.23426685 0.036075156
000120 51 56 f5 3d 06 b9 11 3d 26 72 08 3e ac 93 66 bc
       0.11979354 0.035576843 0.13324794 -0.014073294
000130 a0 b0 5f 3d ba 30 e8 3c 6a 4a 71 3d 20 73 d6 bd
       0.054611802 0.028343547 0.058908857 -0.10471177
000140 4c c6 d2 bd 87 96 c4 bd 3b 65 1c bd f8 d1 a6 3d
       -0.102917284 -0.09599023 -0.03818248 0.08145517
000150 02 e9 18 3e bd ff ea bd 46 5f 5b be c7 72 51 be
       0.14932635 -0.114745595 -0.21423063 -0.2045394
000160 b8 b7 b8 3d de ed 1a 3e 9f 37 be bd aa 91 96 ba
       0.090194166 0.15129802 -0.09287953 -0.0011487503
000170 0e fc 39 bd b4 e7 99 bd 76 d9 f0 3d b1 09 2f 3e
       -0.045406394 -0.07514897 0.117602274 0.1709354
000180 fc c6 06 bd bc 1b a1 3d 2e 0d 4a 3d 67 86 fe bd
       -0.03290461 0.07866618 0.049328975 -0.12427979
000190 c7 9c b2 bd 5f a6 cd bd 2b d9 bf bc ef 47 83 bd
       -0.08721309 -0.100414984 -0.023418983 -0.064102046
0001a0 e3 b8 5b 3c cb 6f a8 bd be 83 a0 3b 2c 49 73 3d
       0.01341078 -0.08224448 0.0048985174 0.059395954
0001b0 5a f0 a6 bd 10 e9 81 3d d9 c8 da bd 25 68 06 be
       -0.08151312 0.06343281 -0.1068284 -0.13125665
0001c0 05 6a fd bd 3d b5 0d bd 8d 12 16 bd d4 64 c8 bd
       -0.12373737 -0.03459667 -0.036638785 -0.097848564
0001d0 28 5a 2d be 90 1c d3 bd 4c c6 5c 3c d0 c8 dd bc
       -0.16928923 -0.10308182 0.013475012 -0.027073294
0001e0 dc d3 11 3c 48 e4 58 be e3 90 e6 bd 06 2d 11 bd
       0.008900609 -0.21180832 -0.11258104 -0.03544333
0001f0 ba e7 83 bd cf fe d8 3d 89 2d 8a 3d c0 d2 1f bc
       -0.06440683 0.10595476 0.067469664 -0.009754837
000200 67 ca 2c 3c b7 0f 0f be 69 7f 1f 3d 9e 1a 2f 3e
       0.010546303 -0.13970838 0.038939867 0.17099997
000210 5d b4 ed 3d 13 ce 06 3e de 73 89 3c 6a 05 b2 3d
       0.11606667 0.13164549 0.016778883 0.08692439
000220 24 ca e0 3d 41 8c 2b 3e 1d 9b 38 3c df f5 3a bd
       0.10976055 0.16752721 0.011267451 -0.045644637
000230 1b 6f 20 3e 2f 2c 9b 3a da f6 00 bb be d4 36 3d
       0.15667383 0.0011838729 -0.0019678385 0.04463648
000240 b4 57 f2 bd c6 ab be 3d bf 0a 13 be 11 52 d4 bd
       -0.11833134 0.09310107 -0.14359568 -0.103672154
000250 43 27 92 bb de 34 39 be 1f 87 cc bd 0f ec ff bd
       -0.004460247 -0.18086573 -0.0998671 -0.124961965
000260 b7 ec 3b 3d a7 d1 f0 bc 65 1c 52 bd aa 83 da 3c
       0.045880046 -0.029396845 -0.05129661 0.02667411
000270 72 e0 0a be da f0 af bd ac 9a 1d 3e b0 1f 8a 3d
       -0.13562182 -0.08590861 0.15391034 0.06744325
000280 06 85 e0 bc 7a c7 d6 3d fe b0 30 bd 97 f6 15 3e
       -0.02740718 0.10487266 -0.043137543 0.14644848
000290 d7 6d 06 3e 4f 7a f1 bc 3c 4c 93 3a 16 73 e3 bd
       0.13127838 -0.029477267 0.001123793 -0.11105935
0002a0 95 60 04 3d d7 ce 14 bd fa 59 ba 3a 23 28 04 be
       0.03231867 -0.03633007 0.0014217489 -0.12905936
0002b0 5c d1 23 3d a9 c0 08 be 95 24 08 bd ec 65 c3 bb
       0.039994583 -0.13354744 -0.033238012 -0.005963078
0002c0 52 11 5c 3c 0e 3b 03 3d 7a d9 ee bc f9 9a 00 3e
       0.013431864 0.03203874 -0.029156435 0.12559117
0002d0 b7 3d 2d bd d4 6b fd 3c 17 47 7a bd 5c e9 c3 3d
       -0.042295184 0.030935206 -0.061102953 0.09565994
0002e0 57 f9 ba 3d e6 ba 93 bc cd fd bd bb 7d 60 e4 bc
       0.09129589 -0.018033456 -0.0057980777 -0.02787804
0002f0 28 a3 2f 3e 68 79 85 3d bc 66 c0 bd db 51 e4 ba
       0.17152083 0.06517297 -0.09394595 -0.0017419414
000300 23 6a b5 3b ed ad fa 3d e2 c9 c9 3c 3b fe 92 bc
       0.005536334 0.12240205 0.024632398 -0.017943492
000310 ab 74 96 bd 53 8c ac 3d bb 75 0e bd eb 5f 9c bc
       -0.073464714 0.08425202 -0.034780245 -0.019088706
000320 88 25 4b 3d db a8 8a be d1 d5 c1 be da 4d b1 bd
       0.04959634 -0.27081951 -0.3785844 -0.08657427
000330 67 6a cf 3d 63 59 42 3e 25 a9 e7 3d fb 9f 8a be
       0.101277165 0.18979411 0.11311559 -0.2707518
000340 d2 62 a6 be e7 fc 0c be d7 f7 e7 3d 60 fb 01 3e
       -0.3249727 -0.1376835 0.113265686 0.12693548
000350 13 83 1c bd 88 e1 da be 36 dd b2 be 68 0c 1f 3e
       -0.03821094 -0.42750192 -0.34934396 0.15532076
000360 3f 99 01 3e a1 bc 6a 3e 1b b2 68 bd 09 d7 6d be
       0.12656115 0.22923519 -0.05681048 -0.2322656
000370 eb 53 09 3e 9e 66 9b 3e 6f fb 40 3e 5a cf 37 3e
       0.13410918 0.30351728 0.18845914 0.17950192
000380 65 ed cd 3b a6 2e 32 bd c5 e1 28 3e 8c 10 29 3e
       0.006284403 -0.04350152 0.16492374 0.16510218
000390 49 ca ee bc e9 79 88 be 27 83 7f be ee fa c3 3c
       -0.029149191 -0.2665551 -0.24952374 0.023923364
0003a0 c5 43 29 3e 1a 26 82 3d 77 b0 a9 bd 53 74 9b be
       0.16529758 0.063549235 -0.08285611 -0.30362186
0003b0 34 65 9a ba aa a7 ac 3d 55 67 22 3e d2 d4 17 3e
       -0.0011779428 0.08430417 0.1585973 0.14827278
0003c0 01 31 3a be e9 34 1a be d4 15 6a 3d 8a cf e0 3d
       -0.18182756 -0.15059246 0.057149723 0.10977085
0003d0 6a 74 dc 3d 8c 5f c5 3d 60 2e 2c be da 53 63 be
       0.10764392 0.09637365 -0.16814566 -0.22199956
0003e0 bc 21 bb bd 43 a0 71 bd 11 7a a1 3d 67 c7 14 3d
       -0.09137294 -0.058990728 0.078846104 0.036322977
0003f0 e7 b5 7a 3d ed 77 08 be 58 b5 7a 3d a7 ce 1c bd
       0.06120863 -0.13326998 0.0612081 -0.038283017

3.weight f4 [32, 20, 5, 5]
000000 b0 60 8e 3d b9 31 a4 3d 1e 9f 4d 3d b2 0f cb 3b
       0.069520354 0.08017296 0.050200574 0.0061969394
000010 e2 5c 63 3c 71 3b 05 3c 89 35 05 3e 67 d4 2a 3e
       0.013877125 0.008131848 0.13008703 0.16682588
000020 40 96 19 3e 5b 8d dc 3d bc 30 aa 3c ba b1 b2 3d
       0.14998722 0.10769149 0.020775191 0.08725305
000030 0d c9 c8 3d ac 74 a7 3d 75 9c 4f bc d8 23 12 3d
       0.098039724 0.0817655 -0.01267158 0.035678715
000040 95 f0 53 bd 8b 04 a2 bd fe 79 32 be e1 13 45 be
       -0.05174311 -0.07911023 -0.17429349 -0.19245864
000050 1a 31 15 3c 85 f1 2c bc 6b ea e2 bd 44 97 5d be
       0.009105945 -0.01055563 -0.11079868 -0.21639735
000060 fd 79 6e be a5 6f ea 3c bc ac a5 3c b4 d8 1b bc
       -0.23288722 0.02861769 0.020223968 -0.009512115
000070 94 6d 2c 3d ba 63 7a 3c 60 92 61 bc 51 61 8c bd
       0.04209669 0.015282566 -0.013767809 -0.06854499
000080 c0 40 61 3d f7 8d 07 3e c5 cb 30 3e db 94 0c 3d
       0.05499339 0.13237749 0.17265232 0.034321647
000090 e9 97 9a bd 03 b4 98 bd c3 55 12 3d fe 92 11 3e
       -0.07548506 -0.074562095 0.03572632 0.1421623
0000a0 f6 86 22 3d a2 01 5b 3d ba 81 dd 3c 23 fd 1b 3d
       0.03967949 0.053468354 0.027039398 0.038083207
0000b0 aa 76 c5 3d ad a7 fd ba 7f 08 8b 3d fe 32 61 3d
       0.09641774 -0.001935234 0.0678873 0.05498027
0000c0 df 0e 4f bc da 49 b8 bb 57 fe b1 bd 3e 1a ac bc
       -0.012637823 -0.005624038 -0.086910896 -0.021008607
0000d0 32 a2 0b 3d 4a 98 9c 3a 9e 7e af bd e4 61 8a bd
       0.03409023 0.0011947241 -0.08569072 -0.067569524
0000e0 49 3a 1e bc 94 6a 66 3d 34 af 62 bd 03 6b 0b 3c
       -0.009657451 0.056253985 -0.055342868 0.0085094
0000f0 68 52 f4 3c 1c 73 28 3d 2a fb d4 3d e4 be 66 3d
       0.02982445 0.0411254 0.10399468 0.05633439
000100 82 b3 d0 3d 72 a3 67 3d d9 07 20 3c bf ec 04 3c
       0.101904884 0.056552358 0.009767496 0.008113085
000110 6d c3 c0 3d db 4e fc 3d d5 3a e7 3c 3d d0 d0 bd
       0.094122745 0.12319728 0.028226295 -0.10195968
000120 b7 c5 be bd a6 2b dd 3c 1a 5d c4 3c 7b 7b 7f bc
       -0.09315055 0.026998352 0.023970176 -0.015593405
000130 12 9b f0 3c 5d 57 00 bc 00 94 1a 3d 42 88 71 3c
       0.029370818 -0.007833329 0.0377388 0.014741959
000140 66 49 58 bc 26 68 55 3c 42 99 c6 bc 79 5b 9f 3c
       -0.013201093 0.013025319 -0.024243 0.019452797
000150 7d f8 37 bc 69 38 dd 3c 55 4f 46 bd 1d a3 5f 3c
       -0.011228678 0.027004438 -0.0484155 0.013649729
000160 c4 5a e6 3d 16 23 a2 3d 4d cd 6b 3c 99 48 68 bd
       0.11247781 0.07916848 0.014392209 -0.05670986
000170 3a 07 19 bc f8 36 87 3d e8 ed f4 3d 3b 25 04 bd
       -0.009340102 0.06602281 0.119594395 -0.03226207
000180 01 f7 3d bd 52 e9 b7 bd 86 9b 45 bd be 2b a1 3d
       -0.04637814 -0.08980049 -0.04824402 0.07869671
000190 27 03 95 3d 1e 78 8b bd 39 ac 07 bd eb 0b 79 3b
       0.07275992 -0.0681002 -0.03312323 0.0038001488
0001a0 38 b2 6b 3d bd d4 ee 3b 3b 2a 46 bd 7f 33 2c 3d
       0.05754301 0.007288544 -0.048380118 0.042041298
0001b0 7a ea 70 3e 9d 4c c2 3e c8 f2 0c 3c 8c 7d 27 bd
       0.23526946 0.37949076 0.008602805 -0.040891215
0001c0 e5 49 bf bd ed 82 5b 3e e2 00 c8 3e 28 31 98 3d
       -0.09340266 0.21436663 0.39063174 0.07431251
0001d0 42 67 9f bc 32 92 da bd 02 73 19 be 6f ea ea 3d
       -0.019458417 -0.10672416 -0.14985278 0.11470496
0001e0 d7 e7 d9 3d 88 98 5f 3c a4 69 31 bd 5d dc 58 be
       0.10639923 0.013647206 -0.043313637 -0.21177812
0001f0 0f 22 56 be d9 9f c9 3d bf 44 d1 3d 5e 1e b7 bc
       -0.2091143 0.09844942 0.102181904 -0.022353347
000200 45 b1 86 bd 90 49 a6 bd be 72 c0 3c 28 07 ee bb
       -0.0657678 -0.081195 0.023492213 -0.0072640367
000210 a0 38 93 bd 66 0b c6 3a ce eb ce 3c 98 32 a3 3c
       -0.07188535 0.0015109598 0.025258925 0.019921586
000220 9e fa 46 bd 4e 65 89 bd 3e 99 3e 3d b8 b4 5f 3e
       -0.04857885 -0.067087755 0.046532862 0.21846282
000230 f2 32 00 3d 2f 5e 56 bd 1c 79 88 3c 40 bd 37 3e
       0.031298585 -0.052335914 0.016659312 0.17943287
000240 45 9c 93 3e e5 c4 90 bc 7e 40 a0 bd b9 ca 01 bd
       0.28830162 -0.017672012 -0.07824801 -0.031687472
000250 b3 77 01 3e 5a e6 82 3e ec 5a 7f 3d 4a 03 5a 3d
       0.12643318 0.2556637 0.06234257 0.053225793
000260 fb 86 ff 3d c8 e0 1b 3e ad cb cc 3d 62 30 11 bd
       0.12476917 0.15222466 0.099997856 -0.035446532
000270 8b cc c9 3d 40 55 c1 3c ed f5 b6 bd 93 52 fa bd
       0.098534666 0.02360022 -0.08933625 -0.12222781
000280 ea c5 7a bd a5 6d 61 3d c9 ff 10 bb 66 a4 0a be
       -0.0612239 0.055036206 -0.0022125116 -0.13539276
000290 2d 0a 39 be 76 7c 80 bd f9 f0 c7 3c 4c ce cf 3d
       -0.18070288 -0.06273739 0.024406897 0.1014677
0002a0 aa e7 50 3d 60 45 34 3c f2 87 a6 3d 49 be 77 3d
       0.051002182 0.011002868 0.08131398 0.060484204
0002b0 c2 4d 00 3e 64 c5 58 3e a0 01 bf 3e 8f 30 c1 bc
       0.12529662 0.21169049 0.37305927 -0.023582725
0002c0 17 4b 38 bd 5d 63 68 bd 87 e6 29 bd a6 a3 e8 bd
       -0.044993486 -0.056735385 -0.041479614 -0.113593385
0002d0 cd 13 4a 3c 89 2f df bd 93 e1 de bd 57 a2 8c bc
       0.012333822 -0.108977385 -0.108828686 -0.017167253
0002e0 be a6 1c 3c 9a eb be 3d ac e7 f3 3c ab bc f5 bd
       0.009561239 0.09322281 0.029773556 -0.11998876
0002f0 c9 3b 7a bd dd be 9c 3d 2e 62 da bc fc 6e 9b bd
       -0.06109217 0.07653592 -0.026658144 -0.07589528
000300 27 b8 9e bd 9a 57 25 bd fc f1 f8 3d 03 02 43 be
       -0.07749968 -0.040366746 0.1215553 -0.19043736
000310 59 c3 ae be 6f 96 40 be 64 32 be bd d6 db 97 3d
       -0.34133413 -0.18807386 -0.09286955 0.07414977
000320 df 61 92 bd 7d d0 7f bd ae fc f4 bd 9d 0d 06 bc
       -0.07147574 -0.06245469 -0.11962257 -0.008181957
000330 b8 ae 7c bd 67 90 db bd ed ae ca bd c3 8a 87 bc
       -0.061690062 -0.10720902 -0.09896646 -0.016545659
000340 97 62 f0 3d 2a 7f a5 3d e2 f6 83 3c 5d be e9 bd
       0.117375545 0.08080895 0.016108934 -0.11413262
000350 41 9f 68 bb 98 d5 5b 3e 83 ff 3b 3e 24 83 66 3d
       -0.0035495313 0.21468198 0.18359189 0.05627741
000360 91 14 98 bb 7e 61 6d 3c cd 9b 52 3e 28 85 88 3e
       -0.0046411236 0.014488576 0.20567246 0.2666409
000370 de a3 e9 3d c1 ed ce bc 80 18 a9 bd 7b ed 83 bc
       0.11408208 -0.025259854 -0.08256626 -0.01610445
000380 c0 a8 36 3e d2 60 c6 bc c0 39 17 bd 30 2e c1 3d
       0.1783781 -0.02421609 -0.03692031 0.09432638
000390 15 b0 f0 3d 7a 3c 22 3e 3f 2f 61 3d a5 a9 df 3d
       0.11752335 0.15843382 0.054976698 0.10921029
0003a0 99 12 2c ba 11 59 e6 3c 1b 16 e4 3d 91 fe a8 3d
       -0.00065640506 0.028118642 0.11137029 0.0825168
0003b0 c2 36 45 3d 12 50 01 bc 2a 1a 2a be 72 d0 0a be
       0.048147924 -0.007892625 -0.16611543 -0.13556078
0003c0 40 66 26 3d eb 99 55 bc a7 9b 1d bd 43 86 5b be
       0.040624857 -0.013037185 -0.03847852 -0.21437936
0003d0 f4 70 3f be 79 98 4f 3d a2 9e 01 3d ab 02 15 3d
       -0.18695432 0.05068252 0.031645425 0.036379497
0003e0 df 77 61 bb 8d 0d 90 3c 7e 6e b3 3d 3e 30 bb bc
       -0.0034403724 0.017584587 0.08761309 -0.022850152
0003f0 b7 80 c8 bd d2 a9 2e bd cc 15 6a be d3 76 f8 3c
       -0.097901754 -0.042642422 -0.22859877 0.030330097

6.weight f4 [128, 32, 3, 3]
000000 0f 13 a5 3d d3 15 b8 3c 16 7f 69 bd f8 c4 09 bd
       0.08060276 0.022471344 -0.057005964 -0.03363511
000010 cc 22 a6 3c c1 59 a0 3b 6c 34 1b 3e 06 00 8b 3d
       0.020280264 0.004893512 0.15156716 0.06787114
000020 cf 75 3f be 5b e2 42 3d 04 e5 5f bd be e5 bb bc
       -0.18697284 0.04757915 -0.054661766 -0.022936698
000030 14 45 12 3d f2 25 59 bd 5e 1e f4 bd 45 1d ac bc
       0.03571041 -0.053014703 -0.119198546 -0.02101005
000040 90 c8 df bd 55 d2 c8 bd e8 da f3 3d 14 ba 4d 3d
       -0.10926926 -0.09805743 0.119069874 0.050226286
000050 81 7f c5 bd a1 b7 cb bd 4e 79 2e 39 70 5d 49 be
       -0.0964346 -0.09947134 0.00016639123 -0.1966455
000060 ed 56 fc 3c cd 16 e6 bd 43 82 88 be 57 89 18 3e
       0.030803168 -0.11234818 -0.26661882 0.14896141
000070 cf 75 bf 3d 3c b7 00 bd 22 d2 57 3d fc 0c ba bd
       0.09348642 -0.031424746 0.052690633 -0.09084508
000080 52 ea c5 bd 0e d8 34 bb 16 e0 bf 3c 99 b2 d8 3c
       -0.09663834 -0.00275946 0.023422282 0.02645235
000090 5c 0a 97 3d 7f 9e d2 3d fb f6 cf 3d 4a c3 a4 bd
       0.07375023 0.10284137 0.1015453 -0.08045061
0000a0 f7 f2 89 3c a4 52 cd 3d c2 0c 03 bd 39 41 81 3d
       0.016839487 0.10025528 -0.03199459 0.06311268
0000b0 c7 e3 de 3d 6b 8a 36 3d 51 60 d3 3d 37 fa e5 bc
       0.10883289 0.0445656 0.10321105 -0.028073413
0000c0 6e 68 ca 3c 6a 68 d2 3d 5e 61 96 bd 5e 4c 0e 3d
       0.024708 0.10273822 -0.0734279 0.0347408
0000d0 18 82 99 3d bb 0f 33 bd 93 81 e5 3d be 04 1d 3c
       0.074955165 -0.043716174 0.11206355 0.00958365
0000e0 72 78 63 3e c7 98 c2 3d 40 2c 97 3c de b9 31 3e
       0.22213915 0.09501796 0.018453717 0.17356059
0000f0 8c 6b bd 3c 8e 71 d6 3c 4c 1e 43 bd 52 fb b2 bd
       0.023122571 0.026177194 -0.047636315 -0.08739342
000100 0d 03 44 bd c1 ce 13 bd f2 19 78 bd dc f8 31 3d
       -0.047854472 -0.036085848 -0.06057162 0.04345022
000110 a8 d7 79 3d fe 2d 8c 3d 78 bf 29 bb 6c 90 7a 3d
       0.06099668 0.0684471 -0.0025901478 0.061172888
000120 c1 ce 09 bd 8a c0 bc 3c 23 10 f1 3d 2b 90 e3 3d
       -0.03364444 0.023041029 0.11770656 0.11111482
000130 df ad 13 bc 13 98 0f bd c2 a5 0d be 7b 4c 64 be
       -0.009013622 -0.03505714 -0.13832763 -0.222948
000140 64 3b 80 be cb 3e 5e be 37 c4 46 3d 55 20 a7 3e
       -0.2504531 -0.21703641 0.04852697 0.32641855
000150 08 f6 a3 bc b3 3f 1f 3d 66 b6 a0 3d 74 e4 15 bd
       -0.020014778 0.038879108 0.0784729 -0.036594823
000160 08 e2 d1 3d da 0a ab be 2b 4e 82 3d f7 33 1c bd
       0.1024819 -0.33406717 0.063625656 -0.038135495
000170 fc d3 0f be cd a7 87 3d 24 5c 5e 3c 3e d2 e7 3c
       -0.1404571 0.06623802 0.013571773 0.028298493
000180 3d 88 34 3d d1 a3 91 bb e8 ba d9 bc 16 22 a9 bd
       0.04407524 -0.0044445773 -0.026578382 -0.082584545
000190 18 86 1a be f7 d7 c1 3c 6a c9 30 3c d0 c9 35 be
       -0.15090215 0.02366255 0.010790208 -0.17752767
0001a0 5b c4 df 3c 90 06 ab bd da 9a cf bd 14 4d 35 bd
       0.02731531 -0.08350861 -0.101369575 -0.04426296
0001b0 13 dd 0c 3e 01 fe dd bc cb 24 a3 bd 93 ee 8e 3d
       0.13756208 -0.027098658 -0.07966002 0.06979098
0001c0 75 aa 5e bd 16 fa b7 bd 15 d7 db bc 53 3c 74 bd
       -0.05436178 -0.08983247 -0.026835958 -0.059627842
0001d0 1a 2c 14 3e b9 2f e4 3d 72 fb bd 3d ae 44 94 3d
       0.14469948 0.11141915 0.09276475 0.07239662
0001e0 a9 ca 89 bd 55 b6 f8 bd de ec 89 bd f1 ef 12 3e
       -0.067281075 -0.12144152 -0.06734632 0.14349343
0001f0 68 67 22 3d f1 44 11 3b ea d9 f8 3c 2a ea 95 bd
       0.039649397 0.0022166336 0.030377347 -0.07320054
000200 ce b3 20 bc 7c 0a a3 3d 75 51 fa 3c 88 91 88 bc
       -0.009808494 0.07960984 0.03055642 -0.016670957
000210 e7 6a cf bd 46 ff 38 bd 43 0b e1 3c dc 62 13 3b
       -0.10127812 -0.045165323 0.02747119 0.0022489345
000220 d3 84 8c bc 0f e5 58 bd 07 03 fe bd 95 6a 84 bd
       -0.01715318 -0.052952822 -0.12402921 -0.064656414
000230 99 34 bf 3d f9 28 40 bd b2 eb 34 bd 46 69 bb 3d
       0.09336204 -0.046914075 -0.04417009 0.09150939
000240 18 89 a5 3d 4b 52 a8 bd bc 24 d9 bd dd 1a a6 3c
       0.08082789 -0.08218821 -0.1060271 0.020276481
000250 5f 2a 3e bd ff 0f 93 bd fd 14 25 bd b0 b9 7f 3d
       -0.046427127 -0.071807854 -0.04030322 0.062432945
000260 e5 c4 8d 3d 73 7b 58 3c ce 2f 8a 3d 4d d4 fb 3c
       0.0692232 0.013213026 0.06747399 0.030740881
000270 54 3c c3 3b 91 2f c0 bd b0 e5 ac bd aa bc 63 3d
       0.0059581194 -0.093840726 -0.08442247 0.055599846
000280 63 d6 00 bd a5 83 20 bd 12 3a 18 3e 86 79 03 3d
       -0.031454455 -0.039188046 0.14865902 0.032098316
000290 d1 cb 6a 3d 84 12 e7 3c 97 e4 72 3d a5 0d 9f bc
       0.05732328 0.028207071 0.05930003 -0.019415686
0002a0 b8 d9 0a bd a5 38 11 3d e2 63 c5 bc af 40 24 3d
       -0.03389904 0.03545441 -0.02409548 0.04010075
0002b0 0b d0 df 3d 03 88 4d 3d 65 bb ac bd 86 5f b7 bd
       0.10928353 0.05017854 -0.0843418 -0.089537665
0002c0 0a 94 de bc 23 6a f6 3d 05 c6 f6 bc 67 60 ea bb
       -0.0271702 0.12031963 -0.03012372 -0.0071526053
0002d0 08 6d 7d 3c de 9b 44 3d 34 83 ae bc af cb 02 3d
       0.01546789 0.04800021 -0.021302797 0.03193253
0002e0 1a fd ca 3c e4 61 ad bd 5a 9f 3a 3d 9b 85 4c bd
       0.024778891 -0.08465937 0.045562126 -0.049932104
0002f0 c3 ff 92 bd 4c 1b e2 bd 9c f4 a9 bd 65 6c 23 3d
       -0.07177689 -0.11040363 -0.08298609 0.039898295
000300 0f 88 88 3d 75 fe de bc 48 93 0d 3c ae d6 3e 3d
       0.06666576 -0.027220944 0.008641072 0.046591453
000310 04 29 f0 bd 65 85 7e be c3 f3 a9 3d 0b 76 ad 3d
       -0.11726573 -0.24855573 0.08298447 0.084697805
000320 1c 3a f9 bc f6 70 ea bb 14 95 d1 bd 12 f1 ee bd
       -0.030423217 -0.0071545793 -0.102335125 -0.11667074
000330 72 7b 75 bd a0 7d ba bc e8 14 07 3e 40 e7 29 3d
       -0.05993218 -0.02276498 0.13191569 0.041480303
000340 26 54 4d bd 91 64 1e 3e 86 45 3a bc ac 32 1c be
       -0.05012908 0.1546805 -0.011369115 -0.15253705
000350 ae 4e 88 bc 23 44 d6 bc 08 e0 15 3e 02 7c 4e 3e
       -0.01663908 -0.026155537 0.14636242 0.20164493
000360 de 10 21 ba 92 64 f3 3c 66 a0 cc bc 41 8e 2b bd
       -0.0006144176 0.029711042 -0.024978828 -0.04188371
000370 ce f3 52 3d 02 e1 0e bc b7 4c 44 3d a1 ae f5 bc
       0.05150204 -0.008720638 0.047924723 -0.029990496
000380 42 73 aa bd 34 f3 19 3e f1 67 02 3e c0 a1 3c 3d
       -0.08322765 0.15034181 0.12734963 0.046052694
000390 db 99 f0 3d 9f 9f 04 bd fb 9f 8b bd b6 c0 1f bd
       0.117480956 -0.03237879 -0.06817623 -0.039002143
0003a0 c0 26 c4 bd 66 8c 35 bd 96 0e 77 bd ec 5b 71 3d
       -0.095777035 -0.044323348 -0.060316645 0.058925554
0003b0 f3 51 4e bc c0 60 27 3e ec 72 59 3d 6c e0 4c bd
       -0.01259278 0.16345501 0.053088114 -0.050018713
0003c0 ef 52 58 be a2 9d e2 bd a3 ee 09 be 91 26 34 3e
       -0.21125387 -0.11065222 -0.13469939 0.17592837
0003d0 1f 96 80 3b ff d3 0e 3d c0 1c 68 3e d5 0c 4a 3a
       0.003924146 0.034870144 0.22667217 0.00077076006
0003e0 81 72 95 bd e3 a5 47 bd 38 69 24 be 38 cc 35 be
       -0.072972305 -0.048742186 -0.16055763 -0.17753685
0003f0 63 36 3e bd 7f ad 80 3d 12 b7 0c 3d 13 37 ca bb
       -0.046438586 0.06283092 0.034354277 -0.006171116

10.weight f4 [500, 128]
000000 22 2b d6 3d a3 cb 34 3e a2 7a a9 3d 22 9c 78 3d
       0.10457446 0.17655806 0.082753435 0.060695775
000010 48 25 21 be 34 2b 1b be 4f ce 8f 3d 0e d5 d0 bd
       -0.15736878 -0.151532 0.07021772 -0.10196887
000020 99 00 72 bc b6 7c 7f 3d 82 69 12 3d ff df f8 3c
       -0.01477065 0.062374793 0.03574515 0.030380247
000030 ce dc ec bc 8e e8 0f bd 45 b9 3e bd 7c b1 e3 3d
       -0.028913882 -0.03513389 -0.046563406 0.11117837
000040 db 64 5d 3e b1 19 13 be ee b9 97 bd 06 4b 7c 3d
       0.21620505 -0.14365269 -0.0740851 0.061594985
000050 7e 35 33 3d c9 fb 5d be bc b3 1d b9 bd 70 2e 3d
       0.043752186 -0.2167808 -0.00015039643 0.042587984
000060 5e 41 12 3b eb 3c 1c bd cf 85 b0 3d 06 52 3c bd
       0.0022316794 -0.038144033 0.08619272 -0.04597666
000070 9b 0d 5e 3e 2e e7 02 bd 14 d8 96 bd f7 f9 4c bc
       0.21684878 -0.03195875 -0.073654324 -0.012510768
000080 96 f0 96 3d 3b dc 07 be 57 0d 8f 3d f7 4f 06 be
       0.07370107 -0.13267605 0.06984966 -0.13116442
000090 2b ee 43 3e 83 ed c6 3d d6 d4 08 3c 96 9d ae bd
       0.19133823 0.097132705 0.008351525 -0.08526151
0000a0 2d 94 64 3d 28 62 39 bd 0b 73 95 bb 4a 96 d2 3d
       0.055805374 -0.045259625 -0.0045608333 0.102825716
0000b0 e7 e2 fa bc cd 8f 53 bd c9 96 99 3d b3 b9 72 bd
       -0.030625774 -0.05165081 0.07499463 -0.059259128
0000c0 d5 51 c4 3d 3f e3 18 3e 56 28 e4 3d 35 41 1a bc
       0.09585921 0.14930438 0.11140506 -0.009414961
0000d0 67 87 a7 3d 12 10 cc 3c 0b 2b 52 bd d5 fb ac bd
       0.08180123 0.024910007 -0.05131058 -0.08446471
0000e0 c0 f6 24 3d 65 41 01 be c6 a4 9a 3d 4e ca d9 3d
       0.04027438 -0.12622602 0.07550959 0.1063429
0000f0 4a 7b b4 bd 27 c7 95 3d 6f 6f 14 be 24 74 d6 3d
       -0.08812578 0.07313376 -0.14495634 0.10471371
000100 25 db 2a be 34 d3 bf bd 72 4a f2 bd 7d 06 26 3e
       -0.1668516 -0.09366456 -0.118306056 0.16213413
000110 8c 73 7f bd d5 65 e1 bd 07 03 61 3e 0a c1 8f bd
       -0.062366053 -0.11005751 0.21973811 -0.07019241
000120 80 33 f2 bd 1f 39 16 bd 15 a5 28 bd 48 93 d1 bc
       -0.11826229 -0.03667557 -0.04117306 -0.025582924
000130 d9 e6 8b 3c 1f c8 ea 3d bc f7 f9 bc f8 14 56 be
       0.01707785 0.11463951 -0.030513637 -0.20906436
000140 66 03 51 3d 0f 00 67 3d 02 22 bf 3a 5e f3 46 bd
       0.05102863 0.05639654 0.0014582279 -0.048571937
000150 3f 76 12 bd 6b 95 b8 3d fd 6e 88 3b 81 2c d3 bd
       -0.0357573 0.09012874 0.0041636215 -0.10311223
000160 91 f5 e5 bc eb 43 9e 3c 02 db a0 bc 2b 1c a3 bd
       -0.028071197 0.019319495 -0.019635681 -0.07964357
000170 c0 d9 01 3e c3 21 24 bd 16 a6 19 3d 2b 34 16 3d
       0.12680721 -0.04007126 0.037511908 0.036670845
000180 5d 9e 6f bd 02 0b 89 bd 62 8c a0 bd c3 0a 52 bc
       -0.058500636 -0.06691553 -0.07839276 -0.012819949
000190 18 2a 49 3d 23 c3 3f bc 83 25 2c 3d ac 42 16 be
       0.04911241 -0.011704239 0.04202796 -0.14673871
0001a0 78 ad 94 bb 80 18 c6 3d dc 16 8b 3d d6 94 10 3e
       -0.0045372806 0.09672642 0.067914695 0.14119276
0001b0 d4 21 2c bd b8 d9 f2 bc 2b 1f c0 3d ee b5 39 bd
       -0.04202445 -0.029644832 0.09380945 -0.045339517
0001c0 22 6e 1d be db 50 82 3d 44 13 07 bd 2c 6d 2b bd
       -0.15374044 0.06363078 -0.032977358 -0.04185216
0001d0 c6 50 86 bd c2 76 c2 3d 38 f8 0f 3c d9 ec fb 3a
       -0.06558375 0.094953075 0.008787207 0.0019220366
0001e0 76 2b fd bc 9a 91 0d 3d 65 bb f1 38 a4 6d 60 bd
       -0.030904513 0.034562685 0.000115266805 -0.05479206
0001f0 bf 9c 9f 3d 0c 2d 3d bc 8a f1 b6 bd 80 e8 19 bd
       0.07793569 -0.011546385 -0.08932789 -0.037575245
000200 3f a0 0d be a7 ec c5 3d bd 4c 9b bd 81 45 2b 3d
       -0.1383066 0.096642785 -0.07582996 0.04181433
000210 3e 13 88 bd aa 32 49 3d ac 79 2c bb b6 88 c2 3d
       -0.06644295 0.049120583 -0.002631764 0.09498732
000220 79 12 1e be c7 ac 89 bd 94 4b 49 bd dc 81 4e bd
       -0.15436734 -0.06722408 -0.049144343 -0.050416812
000230 24 3e 38 be 70 53 94 bc 97 1f ca bc 94 26 71 3d
       -0.17992455 -0.018106192 -0.024673266 0.05887468
000240 19 79 4c bd eb b2 8d 3d 4e a9 db 3c 3d 97 7e 3d
       -0.049920175 0.069188915 0.02681413 0.06215595
000250 9c 72 7b 3d 3e 3c 3c 3d 00 fc 21 be 17 3a b1 bc
       0.061388597 0.04595589 -0.15818787 -0.021634145
000260 36 38 14 3d 6f 6a b0 3d 4e 68 41 3d d3 a5 5f bc
       0.03618642 0.086140506 0.047218613 -0.013650375
000270 8c 74 9b 3c f4 fe cc bd 94 ff 3c bd 47 3f ec b8
       0.018976472 -0.10009566 -0.046142176 -0.00011265143
000280 7b 77 f1 3d 9c c7 ac bc a7 52 ea bc 58 c2 83 bd
       0.11790367 -0.021091275 -0.028603865 -0.064335525
000290 76 64 d9 bd 59 98 d3 bd 66 a1 02 3e c0 ae f1 bd
       -0.106148645 -0.103317924 0.12756881 -0.11800909
0002a0 da 29 99 3d b6 17 eb bc 1b 42 c8 bd 1e 33 a6 3d
       0.07478686 -0.02869783 -0.097782336 0.081152186
0002b0 de 19 aa bd 97 88 b4 3d d4 56 e2 bd d5 b8 6d 3d
       -0.08305715 0.08815115 -0.110517174 0.058037598
0002c0 d5 3c 67 3d da 99 fa 3d c7 77 5d bd fa 3f d6 3d
       0.0564545 0.12236376 -0.054069307 0.10461421
0002d0 99 fb 03 3e e2 9e 31 3e 30 85 85 bb 03 db da 3d
       0.12888946 0.17345765 -0.004074715 0.106863044
0002e0 ed 14 07 bd c2 a9 00 be 76 1a 2a 3e cf 2b 72 be
       -0.03297894 -0.12564757 0.16611657 -0.23649524
0002f0 3b 6f 94 3c fd 4a 0b 3d bc 74 f8 3d ba b5 88 bd
       0.018119445 0.03400706 0.1213164 -0.066752866
000300 08 09 c2 3d d0 cf 95 3d c2 c6 7a bd ca 64 fb 3d
       0.09474379 0.07315028 -0.061224706 0.12275083
000310 f7 c2 b1 bd 80 8c 84 3c b1 9f 80 bd 9f 59 13 3d
       -0.08679765 0.016180277 -0.06280459 0.03597414
000320 e7 45 7e 3e 56 6d 65 bd fc 95 83 bd 5a d6 74 bd
       0.24831353 -0.056012474 -0.064250916 -0.059774734
000330 17 39 07 3e 85 f4 a8 bd 16 bd ae 3d 03 ac 30 3e
       0.13205372 -0.082497634 0.08532159 0.17253117
000340 55 bb 53 bc 8b 8f 98 bd 83 6c b9 bd 01 b7 5f bc
       -0.012923081 -0.07449254 -0.090539 -0.013654471
000350 49 b9 2c 3d 29 c5 cb bd fa ba c7 bc 87 c0 ac bd
       0.04216889 -0.09949715 -0.02438115 -0.08435159
000360 5e fb 4b bd 8e 6c d3 3d a5 94 17 be 56 c6 43 3d
       -0.04980027 0.103234395 -0.14802797 0.04779657
000370 20 bc 96 bd 69 98 cd 3c fb cd 8b bd d9 05 95 bd
       -0.07360101 0.025097089 -0.06826397 -0.07276506
000380 26 40 56 be 0c 4e 92 3d b0 29 fc bc c8 f6 02 3d
       -0.20922908 0.071437925 -0.030781597 0.03197363
000390 b4 3e 8a 3d 7e 6a a2 3c 1f e7 61 3d 60 85 09 3d
       0.06750241 0.01982617 0.055152055 0.033574462
0003a0 de 8c 03 3e b9 18 ec bb d1 4e 3c 3d 4a e8 cb 3d
       0.12846705 -0.0072050956 0.045973603 0.09956415
0003b0 5b f2 f7 3d 23 b9 33 3d 6d 42 bd 3c 8a a4 f2 bd
       0.121067725 0.043877732 0.023102963 -0.118477896
0003c0 ca 66 be 3d 36 59 6e bd 0e f0 8f 3d 13 f3 df 3d
       0.09296949 -0.058190547 0.07028209 0.109350346
0003d0 4c 22 ec bd c1 3f f0 bd 53 7f 5b bc 79 99 6b 3d
       -0.11529979 -0.1173091 -0.013397056 0.05751941
0003e0 23 fe d4 3d d6 d6 02 3e 85 6a 9b bd ec e8 c9 3d
       0.10400035 0.12777266 -0.07588676 0.098588794
0003f0 be d9 1b be db 6d bc bd b1 5f 8c bd 15 13 72 3c
       -0.15219781 -0.09200641 -0.06854189 0.014775057

12.weight f4 [10, 500]
000000 6a e0 cd bd 1a 9b ea bd 66 2b 31 be ff c3 9f bd
       -0.10052569 -0.114553645 -0.17301711 -0.07801055
000010 01 24 e9 bc 20 e7 3e 3c 77 52 6a 3d 9d 80 0f be
       -0.02845955 0.011651784 0.05720755 -0.14013906
000020 22 19 d7 bd 9f 9c 39 3d 08 3c de bd f1 1c dd bc
       -0.105028406 0.04531538 -0.10851294 -0.02699134
000030 2a c1 ea 3c 39 b6 6c bd a3 0f be 3d b0 0b 62 3b
       0.02865656 -0.05779097 0.09280326 0.003449183
000040 d5 7c 7f bb 93 86 aa bd 64 14 a2 bd 0a 1c 0e 3e
       -0.0038984318 -0.08326449 -0.079140455 0.13877884
000050 dd 47 95 3d 0b 1b a3 3c 59 50 50 3c f8 9f a8 3d
       0.072890975 0.019910356 0.012714469 0.082336366
000060 7a 78 8a 3c 75 af 0c 3e 89 74 35 bd 84 22 93 bd
       0.01690315 0.13738807 -0.04430059 -0.07184318
000070 e4 8e 36 3d 30 e7 b0 bd c1 23 32 bd 5f 4e 8d 3b
       0.044569865 -0.086378455 -0.04349113 0.004312321
000080 f4 54 9a 3d f1 df 02 be 47 3d 55 be c0 48 83 bd
       0.07535735 -0.1278074 -0.20824157 -0.0641036
000090 96 e7 93 3c 6f 15 44 bd 07 5b 32 3d a2 86 0c bd
       0.018054765 -0.047872003 0.04354384 -0.034308083
0000a0 9b c7 ff 3d 0f d0 61 bc be ec 80 bd c9 b3 ce bd
       0.124892436 -0.013782515 -0.06295155 -0.10092885
0000b0 3b 94 f8 bd 41 2c 7b 3d 08 42 9d 3c 46 37 0f bd
       -0.12137648 0.0613215 0.019196525 -0.034964822
0000c0 3b 2f 04 be 63 dc bd 3d 01 a2 cb bd 95 1e de 3d
       -0.12908642 0.09270551 -0.09943009 0.10845677
0000d0 63 8d 6d bc 20 b9 ee 3c e5 fd cf bd 66 5f 5e 3d
       -0.014499041 0.029141009 -0.101558484 0.054290198
0000e0 d0 bf 2f 3d 32 4d bb 3d 20 09 27 3e 17 f6 93 3d
       0.042907536 0.09145583 0.16312075 0.07224672
0000f0 cb 74 c6 3a 90 a8 9f bd 3a a3 ad bd 83 de 5a 3e
       0.0015141008 -0.077958226 -0.084783986 0.21373944
000100 98 ca 68 bd 88 31 a1 3d f4 f6 19 bd e4 3a aa 3c
       -0.056833833 0.078707755 -0.03758903 0.020780034
000110 7a 52 fe 3d 3e 1b 4c 3d 69 08 02 3e 5a 7a 99 3c
       0.12418075 0.049830668 0.1269852 0.0187351
000120 a4 33 4f 3c 1f ec 6c bd ec d5 c3 3c e0 53 35 be
       0.012646589 -0.05784237 0.023905717 -0.17707777
000130 b1 00 3c 3d 9b 03 b3 3d 40 39 0f bd 8e ca b7 bd
       0.045899097 0.08740922 -0.034966707 -0.08974181
000140 0f 89 c1 3c 33 7a f8 bc 80 52 12 be 3e f9 87 3d
       0.023624925 -0.030331707 -0.14289284 0.06639336
000150 c6 55 a4 3c 53 a5 f3 3c f3 64 c7 bd 70 2d 5e 3d
       0.020060431 0.029741919 -0.097360514 0.05424255
000160 96 2a 7d bd e8 9d 93 bd dd 5a 6d bd 11 85 d8 bd
       -0.06180819 -0.072078526 -0.057947982 -0.105722554
000170 9f 37 f1 3d 85 87 96 bd 5b 10 76 3d ff 47 d5 3c
       0.11778187 -0.07350067 0.06007419 0.026035307
000180 aa 55 3c be c8 26 e9 bc dc 0a 05 be b5 cb a2 3d
       -0.18392053 -0.028460875 -0.12992424 0.0794901
000190 1f ba 98 be 10 8c 42 be 4f d6 2b 3c 48 8b ad 3d
       -0.298295 -0.18998742 0.010488107 0.084738314
0001a0 f8 58 d1 bc a4 3a 8a 3d ec 5b 59 bd d8 d6 38 be
       -0.025555119 0.06749466 -0.05306618 -0.18050706
0001b0 c2 71 83 3d 90 ff 8b bd a9 c3 85 bc 27 d3 cc bd
       0.06418182 -0.06835854 -0.01632865 -0.100012116
0001c0 cf bb 20 bd 41 de 1b be 84 32 37 bc 50 57 39 bd
       -0.03924161 -0.15221502 -0.011181477 -0.045249283
0001d0 0c 60 25 bd c5 8e ce bd 0d 5a 56 bc 92 89 be bd
       -0.0403748 -0.10085825 -0.013082993 -0.09303583
0001e0 af d0 d0 bc 2f c1 20 3d 53 6e a7 3d 5a d8 38 bc
       -0.025490133 0.039246734 0.081753395 -0.011282051
0001f0 be 0c 17 3d e3 00 45 3d 39 e1 44 bd c1 62 af bd
       0.036877386 0.04809655 -0.04806635 -0.08563758
000200 69 47 83 bd 8d d4 6c 3d 2a 90 8c 3c bb 00 ad 3d
       -0.06410105 0.05781989 0.017158587 0.08447405
000210 05 d7 cb bd 49 33 14 be b7 22 a4 bd 70 f5 19 3d
       -0.09953121 -0.14472689 -0.08014434 0.037587583
000220 1e 82 28 bb 15 0e 07 be ed c9 49 3d 3e 6e 03 3e
       -0.0025712322 -0.13188966 0.049264837 0.12835023
000230 e4 85 53 bd 30 bd 5a 3c f9 9e 4b 3e 0a 5b 8f 3d
       -0.05164136 0.01335077 0.19884862 0.06999786
000240 b1 9f 50 3d 27 71 0f bd 18 a0 9d 3c e7 3f c5 3b
       0.050933544 -0.03502002 0.019241378 0.0060195806
000250 d2 8a 0f bd c4 b4 84 3c 8a 11 31 be e3 28 5d be
       -0.0350445 0.016199477 -0.17291847 -0.21597628
000260 76 05 1f 3e f2 fb 3e be 6c 9b 88 bd 08 a6 82 3d
       0.15529427 -0.18650797 -0.06670269 0.06379324
000270 0b 72 df 3d db ed 3a ba 8d 0e bc 3c 36 67 bd 3d
       0.10910424 -0.000713078 0.022956157 0.092482015
000280 11 3c b0 bc 83 1c 97 bd 53 a0 12 be 3f 80 12 bd
       -0.021513017 -0.07378485 -0.14318971 -0.035766836
000290 a8 29 fe bc c9 2b 13 be 18 b3 84 3d 01 95 f9 bd
       -0.031025723 -0.14372171 0.06479472 -0.12186623
0002a0 2a 72 dc 3d 14 13 2b 3d 84 f0 9b 3d 34 d1 99 bd
       0.107639626 0.04176624 0.07614234 -0.075106055
0002b0 fc 59 f3 ba c3 37 a7 bd 69 16 61 bd f9 4f dd 3c
       -0.0018566246 -0.081649326 -0.054953013 0.027015673
0002c0 ba 17 70 bd 62 48 b5 bd d7 7e a3 3c d9 dc aa 3d
       -0.058616377 -0.088516966 0.019957943 0.083429046
0002d0 7e dd 43 3d 67 35 4a bd 25 1d 66 bd e2 d4 bd bb
       0.047818653 -0.049367335 -0.05618014 -0.0057932
0002e0 f3 63 bc ba 37 a0 6c bd 5c e5 48 bd 3f dc ac bd
       -0.0014373049 -0.05776998 -0.04904686 -0.08440446
0002f0 a9 ed 1c be 53 74 8e 3d 9c 60 0b be 0e 68 ac 3d
       -0.15325035 0.06955781 -0.13611072 0.08418284
000300 f4 b4 e9 bd ab 99 4f bc 9d de 0c be e5 4b 3c bd
       -0.11411467 -0.012670915 -0.13756795 -0.045970816
000310 5d 16 27 3d 01 56 ce bd 25 e4 8a bd f1 fb 1e be
       0.04079281 -0.10074998 -0.06781796 -0.15525796
000320 77 da 50 bc 7b 97 a9 3d 59 6e 75 3d 58 b0 53 be
       -0.012747399 0.08280846 0.05991969 -0.20672739
000330 4b c5 29 be 61 f2 81 bd e7 08 89 bd 99 21 d9 bc
       -0.16579168 -0.06345058 -0.06691151 -0.026505278
000340 ba 73 d8 bd 3c a6 28 bd 12 4b 24 3e 7e 28 b6 3d
       -0.10568948 -0.04117416 0.16044262 0.08894442
000350 e3 30 e4 3c f9 20 c8 bd 5a 78 0e 3d 08 82 0f be
       0.027855342 -0.09771914 0.034782745 -0.14014447
000360 9d 60 32 3d e7 14 cd bd 96 de 30 be 39 02 9f bd
       0.04354917 -0.100137524 -0.1727241 -0.07764096
000370 82 7f 58 3c c3 58 8e bc f2 b9 34 bd 5b 02 4e bd
       0.013213994 -0.01737631 -0.044122644 -0.050295215
000380 c0 95 3c bd f3 d9 ca 3c bb e8 db bd ef 0c 04 be
       -0.04604125 0.02476213 -0.10737749 -0.12895559
000390 cc 30 85 3d 3f 27 87 3c 0a f0 fb 3c c5 bb 49 3c
       0.06503448 0.016498206 0.030754108 0.012312834
0003a0 33 ee 09 be 55 e1 ed bc 3c e6 fc bc da ed 93 3d
       -0.13469772 -0.02903811 -0.030871503 0.07223101
0003b0 39 c4 a6 bd 00 76 9c 3d c7 f8 17 be be 6b ef 3c
       -0.08142895 0.07639694 -0.14840995 0.02922618
0003c0 1d df 88 bd 7b c9 65 3d a0 de fa bd f4 3a c9 3c
       -0.066831805 0.05610035 -0.122494936 0.024564244
0003d0 78 64 3e bd a3 2e 50 be 87 9c 1a bd 3c 72 e8 bd
       -0.046482533 -0.2033029 -0.037746932 -0.113499135
0003e0 2c 13 03 3d df 8e 3b be 08 30 10 3d a8 bb 13 bc
       0.032000706 -0.1831622 0.035202056 -0.009016909
0003f0 17 af 09 3d 39 0a ab bd 02 3c 89 bc 91 5e 86 bb
       0.033614244 -0.08351559 -0.016752247 -0.0041006287
