Resources/Models/5561081131_model.pt (torch, 492907 bytes, 25 tensors)

model.0.weight f4 [8, 2, 2, 2]
0	0x3e343c92	0.1760123
1	0x3e90adf4	0.28257716
2	0xbe9bd268	-0.30433965
3	0xbe94c333	-0.29055175
4	0xbe80488a	-0.25055343
5	0x3e42bf5a	0.19018307
6	0x3da83191	0.08212579
7	0xbda0a8b9	-0.07844681
8	0x3e7a26fd	0.24428935
9	0x3e213590	0.15743089
10	0xbdf67732	-0.120344535
11	0xbd933cd1	-0.07189334
12	0xbe266a11	-0.16251399
13	0xbe4c6d4e	-0.19963571
14	0xbd533acd	-0.05156975
15	0xbd38e538	-0.045140475
16	0x3f0d7c82	0.5526811
17	0x3e9fbfcf	0.31201026
18	0x3e7bfaa6	0.24607334
19	0x3d77e658	0.060522407
20	0x3dee451b	0.116342746
21	0x3de1d06b	0.11026081
22	0x3e13c3b9	0.14430131
23	0x3e06dd8f	0.13170455
24	0xbe28aeaf	-0.16472887
25	0x3e1c4b5c	0.15263122
26	0x3e9f7bd5	0.31149164
27	0xbec040bd	-0.3754939
28	0xbd7ccf29	-0.061721
29	0xbe3afcb8	-0.18260467
30	0xbe9b16c3	-0.30290803
31	0x3e80e5ea	0.2517541
32	0xbe7d58f4	-0.24740964
33	0xbe9f099f	-0.31062028
34	0xbe76afb5	-0.24090464
35	0xbe5f1677	-0.21785913
36	0x3e4f26b2	0.20229605
37	0x3e91fe2d	0.28514233
38	0x3e9d191f	0.30683228
39	0x3e50286d	0.20327921
40	0xbe2eb788	-0.17062199
41	0xbe434aad	-0.19071455
42	0x3c7a3902	0.015272381
43	0xbda68b06	-0.08131985
44	0xbea7a732	-0.32744747
45	0xbe8b03ce	-0.2715134
46	0x3e8660f2	0.26245838
47	0x3e7c8d58	0.24663293
48	0xbe256a28	-0.16153777
49	0xbe5bd80b	-0.21469133
50	0x3e89d2b3	0.26918563
51	0x3eeb3869	0.45941475
52	0xbdf5964f	-0.1199156
53	0xbdb8aca3	-0.09017303
54	0x3d9f46af	0.07777154
55	0xbe16e1ba	-0.14734545
56	0x3e260315	0.16212113
57	0xbdea189f	-0.11430477
58	0xbe0d89c4	-0.13822085
59	0xbdbaaf2d	-0.091154434
60	0x3e85f3bc	0.26162517
61	0x3e32dfa6	0.17468128
62	0xbe9aba88	-0.30220437
63	0xbe2daac1	-0.16959669

model.1.weight f4 [8]
0	0x3f9854ff	1.1900939
1	0x3fb4cb92	1.4124625
2	0x3f5b854c	0.8575027
3	0x3fa10e34	1.258246
4	0x3f965b2d	1.1746575
5	0x3faaf19c	1.3354983
6	0x3f9248da	1.1428483
7	0x3fad41cb	1.3535703

model.1.bias f4 [8]
0	0x3c309ef2	0.010780083
1	0x3e705a1d	0.23471875
2	0x3d6c8dc8	0.0577524
3	0xbd7b77c0	-0.0613935
4	0x3e8d697a	0.27619535
5	0xbd5e768c	-0.054312274
6	0x3d5f46e8	0.05451098
7	0xbc906c74	-0.01762984

model.1.running_mean f4 [8]
0	0xbadf2ce0	-0.0017026924
1	0xbb7a33f8	-0.0038177948
2	0x3c8cf0c0	0.017204642
3	0xbb8b47b0	-0.004250489
4	0x3b1c3a83	0.0023838587
5	0xbba90320	-0.005157843
6	0x38fd898c	0.000120896
7	0xbb2bc281	-0.0026208463

model.1.running_var f4 [8]
0	0x3b63c538	0.0034755003
1	0x3acde06a	0.0015707139
2	0x3c299e16	0.010352632
3	0x3b3f3f99	0.0029182194
4	0x3bb38a1b	0.00547911
5	0x3b8fcfa4	0.0043887664
6	0x3b5a1f86	0.003328295
7	0x3b37346e	0.0027954835

model.2.state f4 [8, 64, 64]
0	0x3ebc0a40	0.3672657
1	0x3f003798	0.5008483
2	0x3f5db000	0.8659668
3	0x3f5c9698	0.8616729
4	0x3f4b8ba0	0.79509926
5	0x3f5b5718	0.8567977
6	0x3f0f45b0	0.5596571
7	0x3eba0ab0	0.3633628
8	0x3ec029f0	0.37531996
9	0x3da41d00	0.08013344
10	0xbea59bc0	-0.3234539
11	0x3f557160	0.8337612
12	0x3e80a7c0	0.25127983
13	0x3ded8200	0.11597061
14	0x3f083f20	0.5322132
15	0x3f057e98	0.5214629
16	0x3f5db000	0.8659668
17	0x3e79b280	0.24384499
18	0x3e93ca00	0.2886505
19	0x3e8ddac0	0.27705956
20	0x3f3c5ee0	0.7358227
21	0x3f1ff598	0.6248412
22	0x3f3c5ee0	0.7358227
23	0x3ed3fc20	0.41403294
24	0x3f331ec0	0.69968796
25	0x3f44f220	0.76931953
26	0x3d8a1880	0.06742954
27	0x3ded8200	0.11597061
28	0x3f331ec0	0.69968796
29	0x3e691200	0.22760773
30	0x3e3f5680	0.18685341
31	0x3e912700	0.28350067
32	0x3f5af078	0.85523176
33	0x3f5db000	0.8659668
34	0x3f088d80	0.5334091
35	0x3f78baa0	0.9715977
36	0x3e815100	0.2525711
37	0x3f5db000	0.8659668
38	0x3f70ac30	0.9401274
39	0x3d912300	0.07086754
40	0x3e91bb30	0.28463125
41	0x3f5fbe40	0.87399673
42	0x3f5db000	0.8659668
43	0x3f331ec0	0.69968796
44	0x3dae1500	0.08500099
45	0x3f1a0558	0.60164404
46	0x3f5db000	0.8659668
47	0x3d81b700	0.063337326
48	0x3e6b2080	0.22961617
49	0x3f857150	1.0425205
50	0x3f5db000	0.8659668
51	0x3f5db000	0.8659668
52	0xbd493460	-0.049122214
53	0x3d532000	0.05154419
54	0x3f5db000	0.8659668
55	0x3f796680	0.9742203
56	0x3f2d1300	0.67607117
57	0x3f5db000	0.8659668
58	0x3f5db000	0.8659668
59	0xbf747420	-0.9548969
60	0x3f815dfc	1.0106807
61	0x3f644980	0.8917465
62	0x3f5db000	0.8659668
63	0x3ea4f280	0.32216263
64	0x3f5db000	0.8659668
65	0x3f7ed620	0.9954548
66	0x3f6c8920	0.92396736
67	0x3f4ed540	0.80794144
68	0x3f331ec0	0.69968796
69	0x3f4ddb00	0.8041229
70	0x3d528000	0.0513916
71	0x3edd06c0	0.43169212
72	0x3f5db000	0.8659668
73	0x3e2f3240	0.17109013
74	0x3f5db000	0.8659668
75	0x3e376b80	0.17912102
76	0x3e838db0	0.25694036
77	0xbf51d080	-0.8195877
78	0x3f6c3480	0.9226761
79	0x3f19bb40	0.60051346
80	0x3d81b700	0.063337326
81	0x3f331ec0	0.69968796
82	0x3f81a620	1.0128822
83	0x3f512740	0.81700516
84	0x3f5db000	0.8659668
85	0x3f5db000	0.8659668
86	0x3f6d02c0	0.9258232
87	0x3f13cb00	0.5773163
88	0x3e00e080	0.1258564
89	0x3f737640	0.9510231
90	0x3f0fea98	0.56217337
91	0x3f057e98	0.5214629
92	0xbf51d080	-0.8195877
93	0xbd586a00	-0.052835464
94	0x3f4bd640	0.79623795
95	0x3f76a760	0.96349144
96	0x3d83f200	0.06442642
97	0x3edd06c0	0.43169212
98	0x3ee95840	0.45575142
99	0x3f5db000	0.8659668
100	0x3edbdb40	0.42940712
101	0x3ecab2c0	0.395895
102	0x3f586900	0.8453522
103	0x3ebf5680	0.37370682
104	0x3edd06c0	0.43169212
105	0x3f331ec0	0.69968796
106	0x3e6b2080	0.22961617
107	0x3f331ec0	0.69968796
108	0x3f00a6d8	0.50254583
109	0x3eaed740	0.34148598
110	0x3f5c09e0	0.8595257
111	0x3ee38c30	0.44442892
112	0x3f064460	0.5244808
113	0x3f5db000	0.8659668
114	0x3ee59b00	0.44844818
115	0xbe2b5158	-0.16730249
116	0x3efcb2c0	0.49355125
117	0x3f33caa0	0.70231056
118	0x3f5db000	0.8659668
119	0x3f73cae0	0.9523144
120	0x3f5db000	0.8659668
121	0x3ecab2c0	0.395895
122	0x3f5db000	0.8659668
123	0x3f5db000	0.8659668
124	0x3f5db000	0.8659668
125	0x3f5db000	0.8659668
126	0x3f5db000	0.8659668
127	0x3f057e98	0.5214629
128	0x3e951c80	0.29123306
129	0x3f346d70	0.7047949
130	0x3ed3fc20	0.41403294
131	0x3f586900	0.8453522
132	0x3f857150	1.0425205
133	0x3f5b0d00	0.8556671
134	0xbf800000	-1.0
135	0x3f534688	0.825295
136	0x3f5db000	0.8659668
137	0x3f7c0a80	0.9845352
138	0x3f331ec0	0.69968796
139	0x3eab51f0	0.3346095
140	0x3f67cdd8	0.9054847
141	0x3e9f7170	0.31141233
142	0x3f7b0ca0	0.9806614
143	0xbf800000	-1.0
144	0x3ed3eb00	0.41390228
145	0xbf800000	-1.0
146	0x3e7ffd00	0.24998856
147	0x3e3f5680	0.18685341
148	0x3f0c34a0	0.547678
149	0x3e7ef860	0.24899435
150	0x3f6d02c0	0.9258232
151	0xbf2f2ce0	-0.6842785
152	0x3f834c40	1.0257645
153	0x3e617f40	0.22021198
154	0x3f331ec0	0.69968796
155	0x3ecab2c0	0.395895
156	0x3f6c9ba0	0.92424965
157	0x3e91bb30	0.28463125
158	0x3f0627d8	0.52404547
159	0x3ded8200	0.11597061
160	0x3f8277a4	1.0192761
161	0x3f045980	0.51699066
162	0x3ec4cf60	0.38439465
163	0x3f5db000	0.8659668
164	0x3f088d80	0.5334091
165	0x3f5cb320	0.86210823
166	0x3e91bb30	0.28463125
167	0x3f148cb0	0.5802717
168	0x3ef224c0	0.47293663
169	0x3f1d5c20	0.61468697
170	0x3f707ea0	0.93943214
171	0x3f66fd60	0.9023037
172	0x3f4e4220	0.8056965
173	0x3f507e00	0.8144226
174	0x3dab7000	0.08370972
175	0x3eaed740	0.34148598
176	0x3f6698e0	0.9007702
177	0xbdc89400	-0.09793854
178	0x3eb76b80	0.35824203
179	0x3f254538	0.64558744
180	0x3ee1a580	0.4407158
181	0x3dc34a00	0.09535599
182	0x3f49c8f8	0.7882228
183	0x3e46cf60	0.19415045
184	0x3f02a380	0.5103073
185	0x3ecb3700	0.396904
186	0x3f5db000	0.8659668
187	0x3f5db000	0.8659668
188	0xbf800000	-1.0
189	0xbe40a900	-0.18814468
190	0x3f43b320	0.764452
191	0x3f5db000	0.8659668
192	0x3e8d3180	0.27576828
193	0x3eff55c0	0.4987011
194	0x3ec69840	0.38788033
195	0x3f34c880	0.7061844
196	0x3f102a20	0.5631428
197	0x3f0ddac0	0.5541191
198	0x3edb0d00	0.42783356
199	0x3e2e2e00	0.17009735
200	0x3f3768e0	0.716444
201	0x3f057e98	0.5214629
202	0x3de05100	0.109529495
203	0x3f5db000	0.8659668
204	0x3e5eda60	0.21762991
205	0x3f331ec0	0.69968796
206	0x3f5db000	0.8659668
207	0x3f2559a0	0.6458988
208	0x3f0fea98	0.56217337
209	0x3ecab2c0	0.395895
210	0x3f858d5c	1.0433764
211	0x3f5db000	0.8659668
212	0x3ded8200	0.11597061
213	0x3f1cb0f8	0.6120753
214	0x3f057e98	0.5214629
215	0x3f52cd60	0.8234463
216	0x3db3ac80	0.08773136
217	0x3df262c0	0.11835241
218	0x3ed46800	0.41485596
219	0x3ed3fc20	0.41403294
220	0x3f7d04c0	0.9883537
221	0x3f1eada0	0.6198368
222	0x3f331ec0	0.69968796
223	0x3e4036e0	0.18770933
224	0x3f818088	1.011735
225	0x3da4fd80	0.08056164
226	0x3df02700	0.11726189
227	0x3e97bf80	0.2963829
228	0x3f5db000	0.8659668
229	0x3d893c00	0.06700897
230	0x3d191200	0.03737068
231	0x3f644980	0.8917465
232	0x3f5db000	0.8659668
233	0x3ecab2c0	0.395895
234	0x3f58bda0	0.84664345
235	0x3e02a380	0.12757683
236	0x3e117100	0.14203262
237	0x3f576c20	0.8414936
238	0x3f5db000	0.8659668
239	0x3ea053c0	0.31313896
240	0x3f4f2c80	0.80927277
241	0x3d56a180	0.052400112
242	0x3f7f3a38	0.9969821
243	0x3f64aeb0	0.8932905
244	0x3e474180	0.1945858
245	0x3eef7fc0	0.46777153
246	0x3ed71780	0.42010117
247	0x3f58bda0	0.84664345
248	0x3e781200	0.24225616
249	0x3e998230	0.29982138
250	0x3ec34c00	0.3814392
251	0x3e37bfe0	0.17944288
252	0x3f5086f8	0.81455946
253	0x3e8c8300	0.27443695
254	0x3f764c20	0.9620991
255	0x3f5db000	0.8659668

model.2.activations f4 [8, 64, 64]
0	0x00000000	0.0
1	0x00000000	0.0
2	0x00000000	0.0
3	0x00000000	0.0
4	0x00000000	0.0
5	0x00000000	0.0
6	0x00000000	0.0
7	0x00000000	0.0
8	0x00000000	0.0
9	0x00000000	0.0
10	0x80000000	-0.0
11	0x00000000	0.0
12	0x00000000	0.0
13	0x00000000	0.0
14	0x00000000	0.0
15	0x00000000	0.0
16	0x00000000	0.0
17	0x00000000	0.0
18	0x00000000	0.0
19	0x00000000	0.0
20	0x00000000	0.0
21	0x00000000	0.0
22	0x00000000	0.0
23	0x00000000	0.0
24	0x00000000	0.0
25	0x00000000	0.0
26	0x00000000	0.0
27	0x00000000	0.0
28	0x00000000	0.0
29	0x00000000	0.0
30	0x00000000	0.0
31	0x00000000	0.0
32	0x00000000	0.0
33	0x00000000	0.0
34	0x00000000	0.0
35	0x00000000	0.0
36	0x00000000	0.0
37	0x00000000	0.0
38	0x00000000	0.0
39	0x00000000	0.0
40	0x00000000	0.0
41	0x00000000	0.0
42	0x00000000	0.0
43	0x00000000	0.0
44	0x00000000	0.0
45	0x00000000	0.0
46	0x00000000	0.0
47	0x00000000	0.0
48	0x00000000	0.0
49	0x3f800000	1.0
50	0x00000000	0.0
51	0x00000000	0.0
52	0x80000000	-0.0
53	0x00000000	0.0
54	0x00000000	0.0
55	0x00000000	0.0
56	0x00000000	0.0
57	0x00000000	0.0
58	0x00000000	0.0
59	0x80000000	-0.0
60	0x3f800000	1.0
61	0x00000000	0.0
62	0x00000000	0.0
63	0x00000000	0.0
64	0x00000000	0.0
65	0x00000000	0.0
66	0x00000000	0.0
67	0x00000000	0.0
68	0x00000000	0.0
69	0x00000000	0.0
70	0x00000000	0.0
71	0x00000000	0.0
72	0x00000000	0.0
73	0x00000000	0.0
74	0x00000000	0.0
75	0x00000000	0.0
76	0x00000000	0.0
77	0x80000000	-0.0
78	0x00000000	0.0
79	0x00000000	0.0
80	0x00000000	0.0
81	0x00000000	0.0
82	0x3f800000	1.0
83	0x00000000	0.0
84	0x00000000	0.0
85	0x00000000	0.0
86	0x00000000	0.0
87	0x00000000	0.0
88	0x00000000	0.0
89	0x00000000	0.0
90	0x00000000	0.0
91	0x00000000	0.0
92	0x80000000	-0.0
93	0x80000000	-0.0
94	0x00000000	0.0
95	0x00000000	0.0
96	0x00000000	0.0
97	0x00000000	0.0
98	0x00000000	0.0
99	0x00000000	0.0
100	0x00000000	0.0
101	0x00000000	0.0
102	0x00000000	0.0
103	0x00000000	0.0
104	0x00000000	0.0
105	0x00000000	0.0
106	0x00000000	0.0
107	0x00000000	0.0
108	0x00000000	0.0
109	0x00000000	0.0
110	0x00000000	0.0
111	0x00000000	0.0
112	0x00000000	0.0
113	0x00000000	0.0
114	0x00000000	0.0
115	0x80000000	-0.0
116	0x00000000	0.0
117	0x00000000	0.0
118	0x00000000	0.0
119	0x00000000	0.0
120	0x00000000	0.0
121	0x00000000	0.0
122	0x00000000	0.0
123	0x00000000	0.0
124	0x00000000	0.0
125	0x00000000	0.0
126	0x00000000	0.0
127	0x00000000	0.0
128	0x00000000	0.0
129	0x00000000	0.0
130	0x00000000	0.0
131	0x00000000	0.0
132	0x3f800000	1.0
133	0x00000000	0.0
134	0x80000000	-0.0
135	0x00000000	0.0
136	0x00000000	0.0
137	0x00000000	0.0
138	0x00000000	0.0
139	0x00000000	0.0
140	0x00000000	0.0
141	0x00000000	0.0
142	0x00000000	0.0
143	0x80000000	-0.0
144	0x00000000	0.0
145	0x80000000	-0.0
146	0x00000000	0.0
147	0x00000000	0.0
148	0x00000000	0.0
149	0x00000000	0.0
150	0x00000000	0.0
151	0x80000000	-0.0
152	0x3f800000	1.0
153	0x00000000	0.0
154	0x00000000	0.0
155	0x00000000	0.0
156	0x00000000	0.0
157	0x00000000	0.0
158	0x00000000	0.0
159	0x00000000	0.0
160	0x3f800000	1.0
161	0x00000000	0.0
162	0x00000000	0.0
163	0x00000000	0.0
164	0x00000000	0.0
165	0x00000000	0.0
166	0x00000000	0.0
167	0x00000000	0.0
168	0x00000000	0.0
169	0x00000000	0.0
170	0x00000000	0.0
171	0x00000000	0.0
172	0x00000000	0.0
173	0x00000000	0.0
174	0x00000000	0.0
175	0x00000000	0.0
176	0x00000000	0.0
177	0x80000000	-0.0
178	0x00000000	0.0
179	0x00000000	0.0
180	0x00000000	0.0
181	0x00000000	0.0
182	0x00000000	0.0
183	0x00000000	0.0
184	0x00000000	0.0
185	0x00000000	0.0
186	0x00000000	0.0
187	0x00000000	0.0
188	0x80000000	-0.0
189	0x80000000	-0.0
190	0x00000000	0.0
191	0x00000000	0.0
192	0x00000000	0.0
193	0x00000000	0.0
194	0x00000000	0.0
195	0x00000000	0.0
196	0x00000000	0.0
197	0x00000000	0.0
198	0x00000000	0.0
199	0x00000000	0.0
200	0x00000000	0.0
201	0x00000000	0.0
202	0x00000000	0.0
203	0x00000000	0.0
204	0x00000000	0.0
205	0x00000000	0.0
206	0x00000000	0.0
207	0x00000000	0.0
208	0x00000000	0.0
209	0x00000000	0.0
210	0x3f800000	1.0
211	0x00000000	0.0
212	0x00000000	0.0
213	0x00000000	0.0
214	0x00000000	0.0
215	0x00000000	0.0
216	0x00000000	0.0
217	0x00000000	0.0
218	0x00000000	0.0
219	0x00000000	0.0
220	0x00000000	0.0
221	0x00000000	0.0
222	0x00000000	0.0
223	0x00000000	0.0
224	0x3f800000	1.0
225	0x00000000	0.0
226	0x00000000	0.0
227	0x00000000	0.0
228	0x00000000	0.0
229	0x00000000	0.0
230	0x00000000	0.0
231	0x00000000	0.0
232	0x00000000	0.0
233	0x00000000	0.0
234	0x00000000	0.0
235	0x00000000	0.0
236	0x00000000	0.0
237	0x00000000	0.0
238	0x00000000	0.0
239	0x00000000	0.0
240	0x00000000	0.0
241	0x00000000	0.0
242	0x00000000	0.0
243	0x00000000	0.0
244	0x00000000	0.0
245	0x00000000	0.0
246	0x00000000	0.0
247	0x00000000	0.0
248	0x00000000	0.0
249	0x00000000	0.0
250	0x00000000	0.0
251	0x00000000	0.0
252	0x00000000	0.0
253	0x00000000	0.0
254	0x00000000	0.0
255	0x00000000	0.0

model.4.weight f4 [8, 8, 3, 3]
0	0x3debdf71	0.115172274
1	0x3d997d52	0.07494606
2	0x3d28068f	0.04102188
3	0x3e393283	0.18085675
4	0x3e172d8e	0.14763471
5	0x3dd0f633	0.10203209
6	0xbe50481f	-0.20340012
7	0xbdef8e0e	-0.11697017
8	0xbd401005	-0.046890277
9	0xbd85e02f	-0.065369
10	0x3dc79d22	0.097467676
11	0xbd9da3d4	-0.07697263
12	0xbcf48075	-0.02984641
13	0xbde66632	-0.11249961
14	0xbdb5cc14	-0.088768154
15	0x3c61ce52	0.013782101
16	0x3d9da94c	0.076983064
17	0x3de15ea1	0.11004377
18	0xbe0a19d8	-0.13486421
19	0xbe2fa578	-0.17152965
20	0xbda6aefd	-0.08138845
21	0xbe2f9c44	-0.17149454
22	0xbdf2be41	-0.11852694
23	0xbe036243	-0.12830453
24	0xbd5f74a3	-0.054554593
25	0xbde0fdd5	-0.109859146
26	0xbd57e8c7	-0.05271223
27	0x3de55a19	0.111988254
28	0x3e0d62f2	0.13807276
29	0xbbacf138	-0.005277779
30	0x3d4ce274	0.05002065
31	0x3e059533	0.13045196
32	0xbce87229	-0.028374748
33	0xbe414717	-0.18874775
34	0xbe82ecf0	-0.25571394
35	0xbe1e3e96	-0.15453562
36	0x3cf95cfc	0.030439846
37	0x3d043918	0.03228101
38	0xbd53fc17	-0.051754083
39	0x3d9ad496	0.07560079
40	0x3de57136	0.11203234
41	0x3e050278	0.12989223
42	0xbdf3bd04	-0.11901286
43	0xbe0afe54	-0.13573581
44	0x3c88e8fa	0.016712654
45	0x3debea53	0.11519303
46	0x3dca28de	0.09871076
47	0x3e1988a7	0.14993535
48	0x3e0c9278	0.13727748
49	0x3eb0acf0	0.3450694
50	0x3e2612d5	0.16218121
51	0xbe93b5b4	-0.28849566
52	0xbe8fb3b1	-0.2806678
53	0xbe243fd6	-0.16039976
54	0xbdade27d	-0.08490465
55	0x3de0aec2	0.109708324
56	0x3d06a6de	0.03287398
57	0x3d963f18	0.07336253
58	0x3dae08ba	0.08497758
59	0x3cd1ddcd	0.025618458
60	0xbd8ce2bc	-0.06879184
61	0xbccb725c	-0.024834804
62	0x3cda8678	0.026675448
63	0x3c4fb9cb	0.012678574
64	0x3e2ae65a	0.16689435
65	0x3c3784e1	0.011201114
66	0x3e2981bd	0.16553397
67	0x3e9383ad	0.28811398
68	0x3df9b899	0.12193412
69	0xbe615b60	-0.22007513
70	0xbe21e5ed	-0.15810366
71	0xbdda64c4	-0.10663751
72	0xbb992405	-0.0046734833
73	0x3ddc0ae1	0.107442625
74	0x3c9565b8	0.01823698
75	0x3dcaefbf	0.09909009
76	0x3e2aff02	0.1669884
77	0xbc137ecd	-0.0090024
78	0x3de10ac1	0.10988379
79	0x3d9868a7	0.07441836
80	0xbdee5568	-0.11637384
81	0xbd70604d	-0.05868559
82	0x3d5d0607	0.053960826
83	0xbe8528a5	-0.26007572
84	0x3e414d2e	0.18877098
85	0xbd9276a0	-0.07151532
86	0xbe27bbb5	-0.16380198
87	0xbcbe520e	-0.023232486
88	0xbd212849	-0.03934506
89	0xbcece051	-0.028915556
90	0xbd166bfb	-0.036724072
91	0xbe83846d	-0.2568697
92	0xbe07e3bf	-0.13270472
93	0xbe182179	-0.14856519
94	0xbe36cdcf	-0.17851947
95	0xbe091bb7	-0.13389479
96	0xbe05d2dd	-0.13068719
97	0xbdee12a3	-0.116246484
98	0xbe2bcdf9	-0.16777791
99	0x3d085a2d	0.033289123
100	0x3d8625a0	0.06550145
101	0xbd336fa2	-0.043807633
102	0x3e3abc67	0.18235932
103	0x3dc75dbb	0.097346745
104	0xbeaa1b49	-0.33223942
105	0x3e69df6f	0.2283914
106	0x3e08cfd3	0.13360529
107	0xbdd4fc96	-0.103997394
108	0x3e13b7d6	0.14425597
109	0x3daaa4d4	0.0833222
110	0xbdf1c673	-0.11805429
111	0x3e1ce663	0.1532226
112	0x3e141cd6	0.14464125
113	0xbe60f47e	-0.21968266
114	0x3e18de95	0.14928658
115	0x3d7c3f58	0.061583847
116	0xbe051558	-0.12996423
117	0x3d275590	0.040853083
118	0x3e33dd81	0.17564966
119	0x3e58bd07	0.21165858
120	0x3d1f92ac	0.038958237
121	0x3dc5228a	0.096257284
122	0xbe0741f3	-0.13208751
123	0xbc5f062b	-0.01361231
124	0xbd4c245e	-0.04983937
125	0x3cf93ba4	0.030423947
126	0x3db6bb5e	0.08922456
127	0x3d01638d	0.03158908
128	0xbe15d087	-0.14630328
129	0x3dafe7b5	0.085891165
130	0xbd9c728f	-0.07639038
131	0xbe0a0d5c	-0.13481659
132	0xbd1b0c3f	-0.037853476
133	0x397a2a99	0.00023857727
134	0xbd32d938	-0.043664187
135	0x3d9ccc86	0.07656197
136	0x3dfd8e74	0.123806864
137	0x3ddb03b8	0.10694069
138	0x3dd6aa4b	0.104816996
139	0x3db04175	0.08606235
140	0xbe1b069c	-0.1513924
141	0x3ddbfa03	0.10741045
142	0x3c10c47e	0.00883591
143	0xbdc6d1c0	-0.097079754
144	0x3d8bec29	0.06832153
145	0x3d74cebb	0.059767466
146	0x3c7a2eed	0.015269977
147	0x3d4d7e20	0.05016911
148	0x3c50dd69	0.012748101
149	0x3c95547e	0.018228766
150	0x3d7c5d97	0.06161269
151	0x3dcf34d1	0.10117496
152	0xbb1709cf	-0.0023046618
153	0x3d4f57a2	0.050620683
154	0x3e09e68c	0.13466853
155	0x3d1e0278	0.038576573
156	0xbe3dd16c	-0.1853692
157	0xbd8c07c9	-0.068374224
158	0x3d1b78d8	0.037957042
159	0xbe077fda	-0.13232365
160	0xbdb83fca	-0.08996542
161	0x3e1c826b	0.15284126
162	0xbe15f490	-0.14644074
163	0x3d91e780	0.07124233
164	0xbd25f456	-0.04051622
165	0x3da6d245	0.081455745
166	0x3e8c7e50	0.2744012
167	0x3e5d7772	0.21627596
168	0x3d402e36	0.04691907
169	0x3e8038b5	0.25043264
170	0x3d8b5e9a	0.06805153
171	0xbd364ff1	-0.04450983
172	0x3dbc9b44	0.09209302
173	0x3c1b314f	0.009472205
174	0xbe47f0dc	-0.19525474
175	0x3dc90949	0.09816224
176	0x3e3e4e31	0.18584515
177	0xbe175e12	-0.14781979
178	0x3cad3f93	0.021148479
179	0x3db1805d	0.086670615
180	0xbdef3073	-0.11679163
181	0xbd4e61b0	-0.05038613
182	0x3ca322b8	0.019914016
183	0xbe87833c	-0.2646731
184	0xbc5e7918	-0.013578676
185	0xbd8c9e80	-0.06866169
186	0xbe8aee91	-0.27135137
187	0xbd8b9863	-0.06816175
188	0xbafcdebe	-0.0019292457
189	0x3dbc6bb6	0.09200232
190	0x3b8293bc	0.0039848965
191	0xbdbceb8c	-0.092246145
192	0xbd5c2bb9	-0.053752635
193	0x3cefbe5d	0.029265577
194	0xbe03e013	-0.12878446
195	0xbd9627cf	-0.07331812
196	0xbd450146	-0.048096918
197	0xbdd5dab8	-0.10442108
198	0x3d95e811	0.07319654
199	0x3dd4b439	0.10385937
200	0x3e04ba4d	0.12961693
201	0xbd138096	-0.0360113
202	0x3e09a822	0.13443044
203	0x3e567093	0.20941381
204	0xbd128261	-0.03576887
205	0x3d784422	0.06061185
206	0x3d6dbe2f	0.0580427
207	0xbe034ff1	-0.12823464
208	0xbdc90a80	-0.09816456
209	0x3b6f5612	0.0036519808
210	0xbc12957f	-0.008946775
211	0xbb45e314	-0.0030195164
212	0x3dc33869	0.09532244
213	0xbdace5ac	-0.08442244
214	0xbbfc8279	-0.0077059832
215	0x3ccb62df	0.024827419
216	0xbd89ac92	-0.06722368
217	0xbe034dfd	-0.12822719
218	0xbcf58a31	-0.029973121
219	0x3e39ea18	0.18155706
220	0x3e5b98ae	0.21444961
221	0x3dae0d37	0.08498614
222	0xbdcbba14	-0.09947601
223	0x3e0122c7	0.12610923
224	0x3c1916d0	0.009343818
225	0xbe19b5df	-0.15010785
226	0xbe81c4c9	-0.25345448
227	0xbdcfd1e7	-0.101474576
228	0x3e4507ba	0.19241229
229	0x3e81b359	0.25332144
230	0x3d9a0dfa	0.07522197
231	0xbe5ed3bc	-0.21760458
232	0x3d17bcee	0.03704541
233	0xbd4ba47f	-0.049717423
234	0xbe095060	-0.13409567
235	0xbe422ff0	-0.18963599
236	0xbe1164ec	-0.14198655
237	0xbd8e1590	-0.069377065
238	0xbd98c9ef	-0.07460391
239	0xbd69c285	-0.057070274
240	0xbe13b849	-0.14425768
241	0xbe60e393	-0.21961813
242	0xbdf89d62	-0.121393934
243	0x3c0e2437	0.0086756265
244	0xbbf8e34b	-0.007595455
245	0xbdffd8a0	-0.1249249
246	0x3d8a791a	0.067613795
247	0x3e22b93c	0.15890974
248	0x3b456ce6	0.0030124723
249	0x3c4a64c3	0.012353125
250	0x3db51ef5	0.08843795
251	0x3d4fe660	0.050756812
252	0xbd63e5f4	-0.055639222
253	0xbd0f9c14	-0.035060957
254	0xbc3a623f	-0.011375963
255	0xbd501931	-0.050805274

model.5.weight f4 [8]
0	0x3fadb2a1	1.3570138
1	0x3fb5f551	1.421549
2	0x3f6dbd49	0.9286695
3	0x3fc35ec1	1.5263292
4	0x3f837d10	1.0272541
5	0x3f90d42a	1.1314747
6	0x3fa9ce72	1.3266127
7	0x3f8c5a8f	1.0965136

model.5.bias f4 [8]
0	0xbe329e3a	-0.17443171
1	0xbe534d60	-0.20634985
2	0x3e2be7be	0.16787621
3	0xbdd0d249	-0.10196359
4	0xbe8a9f86	-0.27074832
5	0x3e6eaadd	0.23307367
6	0x3d7d66b0	0.06186551
7	0xbe8b139f	-0.27163407

model.5.running_mean f4 [8]
0	0xbc64f7b4	-0.013975073
1	0xbdc46a18	-0.09590548
2	0xbde0049e	-0.10938381
3	0xbccdcdd5	-0.025122562
4	0x3f178558	0.5918784
5	0x3ce342b3	0.027741766
6	0x3dcf9802	0.10136415
7	0xbe26a310	-0.16273141

model.5.running_var f4 [8]
0	0x3e9febf2	0.312347
1	0x3ee958e7	0.4557564
2	0x3ec083d8	0.3760059
3	0x3e911e12	0.28343254
4	0x3ed3d9d9	0.41377142
5	0x3eab61ad	0.33472958
6	0x3e9876e7	0.29778215
7	0x3f17277a	0.5904461

model.6.state f4 [8, 32, 32]
0	0xbf800000	-1.0
1	0xbf800000	-1.0
2	0xbf800000	-1.0
3	0xbf800000	-1.0
4	0xbf800000	-1.0
5	0xbf34ca6b	-0.70621365
6	0xbf4334e3	-0.76252574
7	0xbf800000	-1.0
8	0xbf800000	-1.0
9	0xbf800000	-1.0
10	0xbf800000	-1.0
11	0xbf800000	-1.0
12	0xbf800000	-1.0
13	0xbec2327e	-0.37929147
14	0x3ed1d83c	0.40985286
15	0xbf3ece8e	-0.7453393
16	0xbf800000	-1.0
17	0xbf800000	-1.0
18	0xbf800000	-1.0
19	0xbf800000	-1.0
20	0xbf205700	-0.6263275
21	0xbea1b382	-0.31582266
22	0xbf2c8bf8	-0.67401075
23	0xbf56ccc8	-0.8390622
24	0xbf800000	-1.0
25	0xbf800000	-1.0
26	0xbf800000	-1.0
27	0xbf800000	-1.0
28	0xbf800000	-1.0
29	0xbf800000	-1.0
30	0xbf800000	-1.0
31	0xbf800000	-1.0
32	0x3ea47794	0.3212248
33	0xbf6e6f8c	-0.9313896
34	0xbf800000	-1.0
35	0xbf800000	-1.0
36	0xbf800000	-1.0
37	0x3f26791a	0.65028536
38	0x3f0652bc	0.5246999
39	0x3f312a68	0.6920533
40	0xbd664cc0	-0.05622554
41	0xbe862b52	-0.26204926
42	0xbf800000	-1.0
43	0xbf1ed8f8	-0.6204982
44	0xbd756300	-0.059908867
45	0xbed5abea	-0.41732723
46	0x3e32d100	0.1746254
47	0xbf07fe16	-0.5312208
48	0x3de22190	0.11041558
49	0xbec9f288	-0.3944285
50	0xbeddd758	-0.43328357
51	0xbf7b6666	-0.9820312
52	0xbf800000	-1.0
53	0xbf800000	-1.0
54	0xbf800000	-1.0
55	0xbeae0e8c	-0.33995473
56	0xbf356afa	-0.7086636
57	0xbf5b84e0	-0.85749626
58	0xbf800000	-1.0
59	0x3dd3cac0	0.10341406
60	0xbdfe9d50	-0.12432349
61	0x3e8c96e8	0.27458882
62	0x3e6f9b10	0.23398995
63	0x3c993900	0.018703938
64	0xbeed7cce	-0.4638428
65	0xbf3046f6	-0.6885828
66	0x3eaed408	0.34146142
67	0x3fa2bdcc	1.2714171
68	0xbf654bff	-0.89569086
69	0xbf800000	-1.0
70	0xbebe4ffc	-0.37170398
71	0x3df70e00	0.12063217
72	0xbdb27438	-0.08713573
73	0xbf800000	-1.0
74	0xbf15decf	-0.58543104
75	0xbf21d7e5	-0.63220054
76	0xbebaa556	-0.36454266
77	0xbeaf2d14	-0.3421408
78	0xbf800000	-1.0
79	0xbf800000	-1.0
80	0xbf800000	-1.0
81	0xbf800000	-1.0
82	0xbf800000	-1.0
83	0xbf1e4e6e	-0.61838424
84	0xbe97c8f8	-0.29645514
85	0xbd7f0080	-0.062256336
86	0x3e037ea8	0.12841284
87	0xbe6b76e8	-0.22994578
88	0x3dc88ec0	0.097928524
89	0xbf800000	-1.0
90	0xbf632df2	-0.8874198
91	0xbf519abc	-0.8187673
92	0xbf6b736f	-0.9197301
93	0x3e1b4920	0.15164614
94	0xbdcafc90	-0.09911454
95	0xbeb2a14a	-0.3488868
96	0x3eb27a88	0.3485911
97	0xbe0c560c	-0.137047
98	0x3f312a74	0.69205403
99	0x3e8930a4	0.26794922
100	0x3ed1e0b4	0.40991747
101	0xbf800000	-1.0
102	0xbf10f876	-0.5662912
103	0xbf02e48d	-0.5112999
104	0xbf177d7a	-0.5917584
105	0xbf705914	-0.9388592
106	0xbc91d320	-0.017800868
107	0xbf41e9e6	-0.75747526
108	0xbf800000	-1.0
109	0xbf2cb3f2	-0.67462075
110	0xbf12228e	-0.57083976
111	0x3c105b00	0.008810759
112	0xbf800000	-1.0
113	0xbf800000	-1.0
114	0xbf800000	-1.0
115	0xbf800000	-1.0
116	0xbf800000	-1.0
117	0xbf27f25a	-0.65604174
118	0xbf663142	-0.8991891
119	0xbf797420	-0.9744282
120	0xbf800000	-1.0
121	0xbf6f79db	-0.9354531
122	0xbf800000	-1.0
123	0xbf800000	-1.0
124	0xbf800000	-1.0
125	0xbf800000	-1.0
126	0xbf800000	-1.0
127	0xbf720c36	-0.9454988
128	0x3e60a990	0.21939683
129	0xbe843aa6	-0.25825995
130	0xbf15ad28	-0.5846734
131	0xbf5bdde8	-0.8588548
132	0xbed023f0	-0.40652418
133	0xbf256c51	-0.646184
134	0xbf1a9051	-0.6037646
135	0xbd943578	-0.07236761
136	0xbf74ca85	-0.9562152
137	0xbf800000	-1.0
138	0x3ebe76e8	0.37200093
139	0x3edbea70	0.429523
140	0x3ee5464c	0.44780195
141	0xbeb68804	-0.35650647
142	0xbf7598dc	-0.9593637
143	0x3f5cf7bc	0.8631551
144	0xbf800000	-1.0
145	0xbf800000	-1.0
146	0xbf800000	-1.0
147	0x3f3808da	0.71888506
148	0x3fa09400	1.2545166
149	0x3e98598c	0.2975582
150	0xbf0dde2b	-0.55417126
151	0x3f124b8e	0.5714654
152	0x3e8af55c	0.2714032
153	0xbe7f086c	-0.24905556
154	0x3f31dd32	0.6947814
155	0x3f355768	0.70836496
156	0x3e895444	0.26822102
157	0xbe6a03b8	-0.22852981
158	0xbf24fa04	-0.64443994
159	0xbf45112e	-0.7697934
160	0xbdd22108	-0.102602065
161	0xbf800000	-1.0
162	0xbf800000	-1.0
163	0xbecfdfdc	-0.4060048
164	0xbf800000	-1.0
165	0xbf4cc349	-0.7998548
166	0x3f59f8e0	0.8514538
167	0xbf3b293c	-0.73109794
168	0xbeed8314	-0.46389067
169	0x3f4a4344	0.7900889
170	0xbe912874	-0.28351176
171	0x3e90552c	0.2818998
172	0xbd8e6a48	-0.06953865
173	0xbe17d62c	-0.14827794
174	0x3c7fa080	0.015602231
175	0x3f583918	0.8446212
176	0x3f77a498	0.96735525
177	0x3fc2521c	1.5181308
178	0x3f991568	1.1959658
179	0xbf331fde	-0.699705
180	0x3d163cc0	0.03667903
181	0x3eacf3e8	0.33779836
182	0xbeac2554	-0.3362223
183	0xbe8ac54a	-0.27103645
184	0xbf30032f	-0.6875486
185	0xbf800000	-1.0
186	0xbee8445c	-0.45364654
187	0xbe9517d8	-0.29119754
188	0xbf518eb6	-0.81858385
189	0xbf800000	-1.0
190	0xbf800000	-1.0
191	0xbf800000	-1.0
192	0x3f3ce490	0.7378626
193	0xbf800000	-1.0
194	0xbf2a9090	-0.66626835
195	0xbf204012	-0.62597764
196	0xbef59a78	-0.47969413
197	0xbf08deea	-0.5346514
198	0xbf800000	-1.0
199	0xbf800000	-1.0
200	0xbf800000	-1.0
201	0xbf800000	-1.0
202	0x3e6b6fd0	0.22991872
203	0x3dbbd0c0	0.09170675
204	0xbd022450	-0.03177291
205	0x3efa1b48	0.4884894
206	0x3e909fe0	0.28246975
207	0xbf267cec	-0.65034366
208	0x3f9cb122	1.2241557
209	0xbf800000	-1.0
210	0xbf800000	-1.0
211	0xbf800000	-1.0
212	0xbf800000	-1.0
213	0xbf5b282b	-0.85608166
214	0xbf794e88	-0.97385454
215	0xbf800000	-1.0
216	0xbf800000	-1.0
217	0xbf10432e	-0.5635251
218	0xbf0ecc1e	-0.5578021
219	0xbf6109b2	-0.8790542
220	0xbdb2fcc0	-0.087396145
221	0x3dab4140	0.08362055
222	0xbf39a320	-0.72514534
223	0xbf5342aa	-0.82523596
224	0x3e9853a0	0.297513
225	0xbf800000	-1.0
226	0xbf800000	-1.0
227	0xbf800000	-1.0
228	0xbeba6966	-0.36408538
229	0xbe5943c4	-0.21217257
230	0xbf3f28d0	-0.7467165
231	0x3eb56074	0.3542515
232	0x3f26a742	0.65098965
233	0x3e9ac9c8	0.30232072
234	0xbf800000	-1.0
235	0xbf800000	-1.0
236	0xbf800000	-1.0
237	0x3f4f0c30	0.8087797
238	0x3d211760	0.039328933
239	0xbf800000	-1.0
240	0xbf800000	-1.0
241	0xbf168cfe	-0.58808887
242	0x3fb3689a	1.4016297
243	0x3ec33a84	0.3813058
244	0xbf800000	-1.0
245	0xbf751dab	-0.95748395
246	0xbf0e84b8	-0.5567126
247	0x3ea5aa24	0.3235637
248	0xbeb610fc	-0.35559833
249	0xbf3d9186	-0.74050176
250	0xbf6a09f4	-0.9142144
251	0xbeedb012	-0.46423393
252	0xbf59f61f	-0.85141176
253	0x3d82f920	0.06395173
254	0xbf1623b2	-0.58648217
255	0xbf56c58e	-0.83895195

model.6.activations f4 [8, 32, 32]
0	0x80000000	-0.0
1	0x80000000	-0.0
2	0x80000000	-0.0
3	0x80000000	-0.0
4	0x80000000	-0.0
5	0x80000000	-0.0
6	0x80000000	-0.0
7	0x80000000	-0.0
8	0x80000000	-0.0
9	0x80000000	-0.0
10	0x80000000	-0.0
11	0x80000000	-0.0
12	0x80000000	-0.0
13	0x80000000	-0.0
14	0x00000000	0.0
15	0x80000000	-0.0
16	0x80000000	-0.0
17	0x80000000	-0.0
18	0x80000000	-0.0
19	0x80000000	-0.0
20	0x80000000	-0.0
21	0x80000000	-0.0
22	0x80000000	-0.0
23	0x80000000	-0.0
24	0x80000000	-0.0
25	0x80000000	-0.0
26	0x80000000	-0.0
27	0x80000000	-0.0
28	0x80000000	-0.0
29	0x80000000	-0.0
30	0x80000000	-0.0
31	0x80000000	-0.0
32	0x00000000	0.0
33	0x80000000	-0.0
34	0x80000000	-0.0
35	0x80000000	-0.0
36	0x80000000	-0.0
37	0x00000000	0.0
38	0x00000000	0.0
39	0x00000000	0.0
40	0x80000000	-0.0
41	0x80000000	-0.0
42	0x80000000	-0.0
43	0x80000000	-0.0
44	0x80000000	-0.0
45	0x80000000	-0.0
46	0x00000000	0.0
47	0x80000000	-0.0
48	0x00000000	0.0
49	0x80000000	-0.0
50	0x80000000	-0.0
51	0x80000000	-0.0
52	0x80000000	-0.0
53	0x80000000	-0.0
54	0x80000000	-0.0
55	0x80000000	-0.0
56	0x80000000	-0.0
57	0x80000000	-0.0
58	0x80000000	-0.0
59	0x00000000	0.0
60	0x80000000	-0.0
61	0x00000000	0.0
62	0x00000000	0.0
63	0x00000000	0.0
64	0x80000000	-0.0
65	0x80000000	-0.0
66	0x00000000	0.0
67	0x3f800000	1.0
68	0x80000000	-0.0
69	0x80000000	-0.0
70	0x80000000	-0.0
71	0x00000000	0.0
72	0x80000000	-0.0
73	0x80000000	-0.0
74	0x80000000	-0.0
75	0x80000000	-0.0
76	0x80000000	-0.0
77	0x80000000	-0.0
78	0x80000000	-0.0
79	0x80000000	-0.0
80	0x80000000	-0.0
81	0x80000000	-0.0
82	0x80000000	-0.0
83	0x80000000	-0.0
84	0x80000000	-0.0
85	0x80000000	-0.0
86	0x00000000	0.0
87	0x80000000	-0.0
88	0x00000000	0.0
89	0x80000000	-0.0
90	0x80000000	-0.0
91	0x80000000	-0.0
92	0x80000000	-0.0
93	0x00000000	0.0
94	0x80000000	-0.0
95	0x80000000	-0.0
96	0x00000000	0.0
97	0x80000000	-0.0
98	0x00000000	0.0
99	0x00000000	0.0
100	0x00000000	0.0
101	0x80000000	-0.0
102	0x80000000	-0.0
103	0x80000000	-0.0
104	0x80000000	-0.0
105	0x80000000	-0.0
106	0x80000000	-0.0
107	0x80000000	-0.0
108	0x80000000	-0.0
109	0x80000000	-0.0
110	0x80000000	-0.0
111	0x00000000	0.0
112	0x80000000	-0.0
113	0x80000000	-0.0
114	0x80000000	-0.0
115	0x80000000	-0.0
116	0x80000000	-0.0
117	0x80000000	-0.0
118	0x80000000	-0.0
119	0x80000000	-0.0
120	0x80000000	-0.0
121	0x80000000	-0.0
122	0x80000000	-0.0
123	0x80000000	-0.0
124	0x80000000	-0.0
125	0x80000000	-0.0
126	0x80000000	-0.0
127	0x80000000	-0.0
128	0x00000000	0.0
129	0x80000000	-0.0
130	0x80000000	-0.0
131	0x80000000	-0.0
132	0x80000000	-0.0
133	0x80000000	-0.0
134	0x80000000	-0.0
135	0x80000000	-0.0
136	0x80000000	-0.0
137	0x80000000	-0.0
138	0x00000000	0.0
139	0x00000000	0.0
140	0x00000000	0.0
141	0x80000000	-0.0
142	0x80000000	-0.0
143	0x00000000	0.0
144	0x80000000	-0.0
145	0x80000000	-0.0
146	0x80000000	-0.0
147	0x00000000	0.0
148	0x3f800000	1.0
149	0x00000000	0.0
150	0x80000000	-0.0
151	0x00000000	0.0
152	0x00000000	0.0
153	0x80000000	-0.0
154	0x00000000	0.0
155	0x00000000	0.0
156	0x00000000	0.0
157	0x80000000	-0.0
158	0x80000000	-0.0
159	0x80000000	-0.0
160	0x80000000	-0.0
161	0x80000000	-0.0
162	0x80000000	-0.0
163	0x80000000	-0.0
164	0x80000000	-0.0
165	0x80000000	-0.0
166	0x00000000	0.0
167	0x80000000	-0.0
168	0x80000000	-0.0
169	0x00000000	0.0
170	0x80000000	-0.0
171	0x00000000	0.0
172	0x80000000	-0.0
173	0x80000000	-0.0
174	0x00000000	0.0
175	0x00000000	0.0
176	0x00000000	0.0
177	0x3f800000	1.0
178	0x3f800000	1.0
179	0x80000000	-0.0
180	0x00000000	0.0
181	0x00000000	0.0
182	0x80000000	-0.0
183	0x80000000	-0.0
184	0x80000000	-0.0
185	0x80000000	-0.0
186	0x80000000	-0.0
187	0x80000000	-0.0
188	0x80000000	-0.0
189	0x80000000	-0.0
190	0x80000000	-0.0
191	0x80000000	-0.0
192	0x00000000	0.0
193	0x80000000	-0.0
194	0x80000000	-0.0
195	0x80000000	-0.0
196	0x80000000	-0.0
197	0x80000000	-0.0
198	0x80000000	-0.0
199	0x80000000	-0.0
200	0x80000000	-0.0
201	0x80000000	-0.0
202	0x00000000	0.0
203	0x00000000	0.0
204	0x80000000	-0.0
205	0x00000000	0.0
206	0x00000000	0.0
207	0x80000000	-0.0
208	0x3f800000	1.0
209	0x80000000	-0.0
210	0x80000000	-0.0
211	0x80000000	-0.0
212	0x80000000	-0.0
213	0x80000000	-0.0
214	0x80000000	-0.0
215	0x80000000	-0.0
216	0x80000000	-0.0
217	0x80000000	-0.0
218	0x80000000	-0.0
219	0x80000000	-0.0
220	0x80000000	-0.0
221	0x00000000	0.0
222	0x80000000	-0.0
223	0x80000000	-0.0
224	0x00000000	0.0
225	0x80000000	-0.0
226	0x80000000	-0.0
227	0x80000000	-0.0
228	0x80000000	-0.0
229	0x80000000	-0.0
230	0x80000000	-0.0
231	0x00000000	0.0
232	0x00000000	0.0
233	0x00000000	0.0
234	0x80000000	-0.0
235	0x80000000	-0.0
236	0x80000000	-0.0
237	0x00000000	0.0
238	0x00000000	0.0
239	0x80000000	-0.0
240	0x80000000	-0.0
241	0x80000000	-0.0
242	0x3f800000	1.0
243	0x00000000	0.0
244	0x80000000	-0.0
245	0x80000000	-0.0
246	0x80000000	-0.0
247	0x00000000	0.0
248	0x80000000	-0.0
249	0x80000000	-0.0
250	0x80000000	-0.0
251	0x80000000	-0.0
252	0x80000000	-0.0
253	0x00000000	0.0
254	0x80000000	-0.0
255	0x80000000	-0.0

model.9.weight f4 [8, 8, 3, 3]
0	0xbd3b066a	-0.045660414
1	0xbd54da0e	-0.051965766
2	0xbd3a52e7	-0.045489218
3	0x3bee62be	0.0072749546
4	0xbc25fef7	-0.010131589
5	0x3d17fd7f	0.037106987
6	0xbd31b764	-0.043387786
7	0x3dc2aa2f	0.09505116
8	0xbd5387d3	-0.051643204
9	0x3c856ed6	0.016288202
10	0x3d9903ea	0.0747145
11	0x3b58ca0d	0.0033079416
12	0x3c9f195a	0.019421268
13	0xbda7853a	-0.08179708
14	0xbd81b8db	-0.063340865
15	0xbcc25e27	-0.023726536
16	0xbd2af245	-0.041734952
17	0x3dcf29d7	0.10115402
18	0xba4f5ed2	-0.00079105527
19	0xbdaa32f0	-0.08310497
20	0xbe06e9d3	-0.13175134
21	0x3b20f651	0.0024560879
22	0x3e277923	0.16354804
23	0xbe48595a	-0.19565335
24	0xbdaaf194	-0.083468586
25	0x3eb0a6c5	0.34502235
26	0xbd74253c	-0.059605822
27	0x3c8b2550	0.016985565
28	0xbc104b35	-0.008806993
29	0x3dbef6e0	0.093244314
30	0xbe569c35	-0.20958026
31	0x3dd4b72e	0.10386501
32	0x3e1bd86b	0.15219276
33	0xbe58dbf4	-0.21177655
34	0xbce15d7e	-0.0275104
35	0x3da0109b	0.07815667
36	0xbca34851	-0.019931944
37	0x3b56ee7b	0.0032795954
38	0xbdb0d080	-0.08633518
39	0xbe758cad	-0.23979445
40	0x3e8202f3	0.25392875
41	0xbc2336cb	-0.009961794
42	0xbe0d8678	-0.13820827
43	0xbcfebad6	-0.03109495
44	0x3db60b77	0.088889055
45	0x3d85ca77	0.06532758
46	0xbdcf0b69	-0.10109598
47	0xbe1e75d9	-0.15474643
48	0xbc54a504	-0.012978796
49	0x3e4ac347	0.19801055
50	0xbca2d048	-0.019874707
51	0xbe3fef15	-0.18743546
52	0x3e34213e	0.17590806
53	0x3cd5f78c	0.026119016
54	0x3c506230	0.012718722
55	0xbd6cc0ce	-0.05780106
56	0x3b055cc5	0.0020349484
57	0xbe2148d6	-0.15750441
58	0x3e28e927	0.1649519
59	0x3d64c50c	0.05585198
60	0xbddaaafb	-0.10677143
61	0x3de789f0	0.11305606
62	0xbda0709a	-0.07833977
63	0xbba791bd	-0.005113809
64	0xbd8b0960	-0.067888975
65	0xbe292412	-0.16517666
66	0xbd5c7c7d	-0.05382966
67	0x3db01a54	0.08598772
68	0xbe5ece71	-0.21758439
69	0x3e0bf48d	0.13667507
70	0xbdb6073c	-0.088880986
71	0xbe0136bc	-0.12618536
72	0xbdc92e59	-0.09823293
73	0x3adb808e	0.0016746686
74	0x3d06cca4	0.032910004
75	0x3e388818	0.18020666
76	0x3e49627e	0.19666478
77	0xbe3a07e9	-0.1816708
78	0x3f02669d	0.50937825
79	0x3ebe779b	0.37200627
80	0xbe6e2648	-0.2325679
81	0x3be74b22	0.007058517
82	0x3b501c17	0.0031755024
83	0xbe44e1a1	-0.19226696
84	0xbdb99324	-0.09061268
85	0x3d722bd0	0.059123814
86	0x3d8ebe21	0.06969858
87	0x3cc01a73	0.023450112
88	0x3d92623a	0.071476415
89	0xbc2a5cb9	-0.010398083
90	0xbd375715	-0.044760782
91	0xbc83eea3	-0.016105002
92	0x3d450d64	0.048108473
93	0xbcd596d1	-0.026072891
94	0xbd2088be	-0.039192908
95	0x3b2bb902	0.0026202803
96	0xbd58120f	-0.052751597
97	0xbd19a91f	-0.037514802
98	0x3c3c64a1	0.011498601
99	0xbe7b6619	-0.24550666
100	0xbe112936	-0.14175877
101	0xbe23ecf8	-0.16008365
102	0x3e2eacde	0.17058131
103	0x3e61e956	0.22061667
104	0xbe33cdff	-0.1755905
105	0x3e72e7c4	0.23721224
106	0x3eb73648	0.357836
107	0xbdcc3cf9	-0.09972567
108	0xbd423a35	-0.04741879
109	0xbd83de15	-0.06438843
110	0xbdbf8225	-0.09350995
111	0xbc8c69ca	-0.017140288
112	0xbca3a9af	-0.019978372
113	0xbceeb675	-0.029139737
114	0xbcb6adf0	-0.022299737
115	0xbd176570	-0.036961973
116	0xbd9b5533	-0.0758461
117	0xbb33894a	-0.0027395063
118	0xbd2b54e2	-0.041828997
119	0xbce0e13d	-0.027451152
120	0x3da50f71	0.08059586
121	0x3d87fbcf	0.066398256
122	0xbe1e045a	-0.15431347
123	0x3d3d0d89	0.046155486
124	0x3d9e22f3	0.0772151
125	0xbd9ae6c7	-0.075635485
126	0xbd66734a	-0.056262292
127	0x3ca9420b	0.020661375
128	0xbe0c0145	-0.1367236
129	0x3de08f1e	0.109647974
130	0x3dd46aee	0.10371958
131	0xbe94841c	-0.2900704
132	0x3da06965	0.078326024
133	0x3e2c177c	0.16805834
134	0xbd421832	-0.047386356
135	0x3d626e59	0.055281017
136	0xbd0809fa	-0.03321264
137	0xbe3ffcce	-0.18748781
138	0x3d349157	0.04408392
139	0xbe7f6c96	-0.24943766
140	0xbda71d69	-0.081599064
141	0xbc7322e9	-0.014839866
142	0xbcdafe67	-0.026732637
143	0xbd75cb0c	-0.060008094
144	0xbc2d2a1f	-0.0105691245
145	0xbe4c799c	-0.19968265
146	0xbd7fd9d0	-0.06246358
147	0xbe345845	-0.17611797
148	0xbd2877ec	-0.04112999
149	0x3deac68d	0.11463652
150	0xbdd15f21	-0.102232225
151	0x3dd684d7	0.10474556
152	0x3e0448d7	0.12918411
153	0xbe01783d	-0.12643524
154	0xbe9a281f	-0.30108735
155	0xbe178392	-0.14796284
156	0xbe4c9606	-0.19979104
157	0x3d83b7bd	0.0643153
158	0x3dd94084	0.106080085
159	0xbe004870	-0.12527633
160	0x3ecc186b	0.3986238
161	0x3e7c71d1	0.24652793
162	0x3de42aa0	0.111409426
163	0x3da7aea9	0.08187611
164	0xbd609125	-0.05482592
165	0x3df5792f	0.119860046
166	0xbc5c0e7a	-0.013431186
167	0xbe7ba4de	-0.2457461
168	0x3dca8d04	0.09890178
169	0xbe11ef7b	-0.14251511
170	0xbe256ba8	-0.16154349
171	0xbbb1bc5f	-0.005424067
172	0xbd63bf96	-0.055602632
173	0x3d03a479	0.032139275
174	0xbca4a7f0	-0.02009961
175	0xbce16ca8	-0.027517632
176	0x3b95cdb0	0.004571639
177	0xbd9e31ef	-0.07724368
178	0xbd9c3fb9	-0.07629342
179	0x3d8d8aec	0.06911263
180	0x3e47bb57	0.19505058
181	0x3d283a73	0.041071367
182	0xbce456bc	-0.02787339
183	0x3cb771ef	0.022393195
184	0x3e2959e9	0.16538204
185	0xbe3c5fb9	-0.1839589
186	0xbde2f0b8	-0.1108107
187	0x3e11a16a	0.14221731
188	0x3c802fd0	0.015647799
189	0x3d2c538c	0.042071864
190	0x3da2fb93	0.0795814
191	0xbd59ba15	-0.053155977
192	0x3e277e4d	0.16356774
193	0xbdf99eb7	-0.121884756
194	0xbdc072ca	-0.09396894
195	0x3ddb7408	0.107154906
196	0xbe1ae7fd	-0.15127559
197	0xbdd1824f	-0.102299325
198	0xbc84da72	-0.016217444
199	0x3c66d5e7	0.014089084
200	0xbda05433	-0.0782856
201	0x3e360e46	0.17778882
202	0xbd178f74	-0.037002042
203	0xbdb27570	-0.08713806
204	0x3dbff815	0.0937349
205	0xbdd1705f	-0.10226511
206	0x3b769b63	0.0037629239
207	0x3da50e4c	0.080593675
208	0x3d227a6d	0.039667536
209	0x3d81314f	0.06308233
210	0x3c3bf1a3	0.011471185
211	0x3d1bcc5b	0.038036685
212	0xbddbc8d8	-0.10731667
213	0xbe00b833	-0.12570266
214	0x3ce3e4c7	0.02781905
215	0xbd4a4813	-0.04938514
216	0x3c7941f6	0.01521348
217	0xbd42c02b	-0.047546547
218	0xbd0b3194	-0.03398283
219	0xbdb083d2	-0.08618893
220	0x3e90baab	0.28267416
221	0x3e34e31d	0.17664762
222	0xbdc7dae2	-0.097585455
223	0x3dabecd8	0.08394784
224	0x3d42af9b	0.04753075
225	0xbe097541	-0.13423635
226	0xbe8395a9	-0.2570012
227	0xbe524d89	-0.2053739
228	0x3bde6f5a	0.0067881765
229	0x3d754c26	0.059887074
230	0x3da08f44	0.07839826
231	0x3e2bf326	0.16791973
232	0x3d167c8f	0.036739882
233	0xbccfbd6f	-0.025358884
234	0xbcc2ca68	-0.023778155
235	0x3dcc475e	0.0997455
236	0x3e33d03e	0.17559907
237	0x3dbcc9de	0.092181906
238	0xbd30a8c1	-0.043129686
239	0xbd937f6c	-0.07202038
240	0xbe33d944	-0.17563349
241	0xbe1d35f9	-0.1535262
242	0xbdd5055d	-0.104014136
243	0xbc7c15f2	-0.015386092
244	0x3e0bc740	0.13650227
245	0x3d3b6269	0.045748148
246	0x3dd43af6	0.103628084
247	0x3df84696	0.12122838
248	0x3c7b0b46	0.015322512
249	0x3d2794ac	0.04091327
250	0xbe3b755f	-0.18306492
251	0xbe31fb08	-0.17380917
252	0x3defe1fb	0.11713024
253	0x3e3270d1	0.17425849
254	0x3da83bf3	0.082145594
255	0xbcad827a	-0.02118038

model.10.weight f4 [8]
0	0x3f9f38f9	1.2439262
1	0x3f983787	1.1891946
2	0x3f857952	1.0427649
3	0x3f9ccd66	1.2250183
4	0x3f9526e0	1.1652489
5	0x3f9a8fd2	1.207514
6	0x3f8b4ebe	1.0883405
7	0x3f945ca8	1.1590776

model.10.bias f4 [8]
0	0xbe531fa9	-0.20617546
1	0xbd9a6bbb	-0.07540079
2	0xbe8685e3	-0.26274022
3	0xbe644aa5	-0.222941
4	0xbe49d0c5	-0.19708546
5	0xbe150a28	-0.14554656
6	0xbe3d968c	-0.1851446
7	0xbe3c9287	-0.18415271

model.10.running_mean f4 [8]
0	0xbd8b2cdd	-0.06795666
1	0x3a6251bd	0.0008633396
2	0xbde1a1fc	-0.11017224
3	0xbe028eb7	-0.12749754
4	0xbd8563fa	-0.0651321
5	0xbdeaff40	-0.11474466
6	0xbec12b19	-0.37728193
7	0xbf08512a	-0.53248847

model.10.running_var f4 [8]
0	0x3f1bd08b	0.60865086
1	0x3f3ef729	0.74595886
2	0x3f569e1a	0.83834994
3	0x3fc6e8a6	1.5539749
4	0x3f6fd20a	0.9367987
5	0x3f71584f	0.94275373
6	0x3f8d97dd	1.106197
7	0x3fc5d218	1.545474

model.11.state f4 [8, 16, 16]
0	0x3f2ff738	0.687366
1	0xbe628430	-0.22120738
2	0x3f27eb94	0.6559384
3	0x3ef4f480	0.4784279
4	0x3e6886a0	0.22707605
5	0x3ecd262c	0.40068185
6	0xbeaa6df8	-0.33287024
7	0x3e8e9d14	0.27854216
8	0xbf800000	-1.0
9	0xbed06274	-0.40700114
10	0xbf534e5f	-0.8254146
11	0x3e602dd8	0.21892488
12	0xbf551e34	-0.8324921
13	0xbf2cdc74	-0.67523885
14	0x3ed8ab88	0.42318368
15	0xbf800000	-1.0
16	0x3ed1e9f8	0.40998816
17	0xbf800000	-1.0
18	0xbf800000	-1.0
19	0xbf800000	-1.0
20	0x3f2f69ec	0.68521
21	0x3e88e71c	0.26738822
22	0xbf170772	-0.58995736
23	0xbe56ff88	-0.20995915
24	0xbf800000	-1.0
25	0xbf800000	-1.0
26	0xbf800000	-1.0
27	0xbf800000	-1.0
28	0xbf65c5e5	-0.8975509
29	0xbf800000	-1.0
30	0xbf800000	-1.0
31	0xbf800000	-1.0
32	0x3f2061f8	0.6264949
33	0xbf800000	-1.0
34	0xbf800000	-1.0
35	0x3f1e476c	0.6182773
36	0xbf6f9232	-0.9358245
37	0x3f70f446	0.9412273
38	0xbeae8294	-0.34083998
39	0xbd6e2550	-0.058141053
40	0xbf800000	-1.0
41	0xbf800000	-1.0
42	0xbf800000	-1.0
43	0xbf800000	-1.0
44	0xbf800000	-1.0
45	0xbf800000	-1.0
46	0xbf800000	-1.0
47	0xbf800000	-1.0
48	0x3fa9e140	1.3271866
49	0xbf5d26ba	-0.8638722
50	0x3df27980	0.118395805
51	0x3fbbb4ca	1.4664547
52	0xbed9bf08	-0.42528558
53	0xbf800000	-1.0
54	0xbf800000	-1.0
55	0x3f959c5e	1.1688344
56	0xbe39a6b8	-0.18130004
57	0xbe9eea9e	-0.31038374
58	0xbf800000	-1.0
59	0xbf800000	-1.0
60	0xbf800000	-1.0
61	0xbf800000	-1.0
62	0xbf1df419	-0.6170059
63	0xbf800000	-1.0
64	0x3ca4bd80	0.020109892
65	0xbf800000	-1.0
66	0x3e14f770	0.14547515
67	0x3f39a34c	0.72514796
68	0x3f891d72	1.0712111
69	0xbf800000	-1.0
70	0xbf800000	-1.0
71	0x3f66bf80	0.90135956
72	0x3f8422d8	1.0323133
73	0x3e8dd4b0	0.2770133
74	0xbf498337	-0.7871584
75	0xbf800000	-1.0
76	0xbf800000	-1.0
77	0xbf800000	-1.0
78	0xbeaa8718	-0.33306193
79	0xbf800000	-1.0
80	0x3e689db0	0.22716403
81	0xbf800000	-1.0
82	0x409a67ab	4.825155
83	0x3f168108	0.58790636
84	0xbf800000	-1.0
85	0x3ed18760	0.40923595
86	0xbf800000	-1.0
87	0xbf800000	-1.0
88	0xbf800000	-1.0
89	0xbf800000	-1.0
90	0xbf1c6d89	-0.6110464
91	0xbf3a4844	-0.7276652
92	0xbf800000	-1.0
93	0xbf800000	-1.0
94	0xbec833b6	-0.39101952
95	0xbf555844	-0.8333781
96	0x3eabc2f8	0.33547187
97	0xbf800000	-1.0
98	0x40aea8c5	5.4581017
99	0x408bf9c0	4.374237
100	0xbf800000	-1.0
101	0x3f9b5c60	1.2137566
102	0xbec0cc44	-0.37655842
103	0xbf800000	-1.0
104	0xbf800000	-1.0
105	0xbf3aa35a	-0.72905505
106	0xbe3adde4	-0.18248707
107	0x3fd001c4	1.6250539
108	0xbf800000	-1.0
109	0xbf800000	-1.0
110	0xbf800000	-1.0
111	0xbf22875a	-0.6348778
112	0xbe0351b0	-0.1282413
113	0xbf800000	-1.0
114	0xbf800000	-1.0
115	0xbf08f860	-0.5350399
116	0xbf800000	-1.0
117	0xbd727460	-0.059193015
118	0xbf800000	-1.0
119	0xbf800000	-1.0
120	0xbf800000	-1.0
121	0xbf800000	-1.0
122	0xbf800000	-1.0
123	0xbf800000	-1.0
124	0xbf800000	-1.0
125	0xbf800000	-1.0
126	0xbf800000	-1.0
127	0xbf800000	-1.0
128	0x3f2cd760	0.67516136
129	0xbf800000	-1.0
130	0xbf800000	-1.0
131	0x40538fa0	3.3056412
132	0xbf800000	-1.0
133	0xbf800000	-1.0
134	0xbf800000	-1.0
135	0xbf800000	-1.0
136	0xbf800000	-1.0
137	0xbf7d6f8c	-0.9899833
138	0xbf800000	-1.0
139	0xbf800000	-1.0
140	0xbf50f5d4	-0.81625104
141	0xbf5b76fd	-0.85728437
142	0xbf346866	-0.704718
143	0xbf76ba8f	-0.96378416
144	0x3fae97f0	1.3640118
145	0xbf800000	-1.0
146	0xbf800000	-1.0
147	0x3fef93e0	1.8717003
148	0xbf800000	-1.0
149	0x3ece9b84	0.40353024
150	0xbf800000	-1.0
151	0xbf800000	-1.0
152	0xbf800000	-1.0
153	0xbf3410cc	-0.7033813
154	0xbf800000	-1.0
155	0xbeb95bd6	-0.36202878
156	0xbf800000	-1.0
157	0xbf800000	-1.0
158	0xbf800000	-1.0
159	0xbf682601	-0.9068299
160	0x3f913efa	1.1347344
161	0xbf800000	-1.0
162	0xbf800000	-1.0
163	0xbf800000	-1.0
164	0xbf800000	-1.0
165	0xbf800000	-1.0
166	0xbf63567e	-0.8880385
167	0xbf800000	-1.0
168	0xbf542cbc	-0.8288076
169	0xbf800000	-1.0
170	0xbf800000	-1.0
171	0x3f930994	1.1487298
172	0xbf800000	-1.0
173	0xbf6dbcae	-0.9286603
174	0xbf800000	-1.0
175	0xbf79fc50	-0.97650623
176	0x3f6e4e68	0.9308839
177	0xbf5c7976	-0.86122835
178	0xbf800000	-1.0
179	0xbf800000	-1.0
180	0xbf800000	-1.0
181	0xbf800000	-1.0
182	0xbf800000	-1.0
183	0xbf800000	-1.0
184	0xbf308708	-0.6895604
185	0xbede7a58	-0.43452716
186	0x3ef040c0	0.469244
187	0xbf800000	-1.0
188	0xbf800000	-1.0
189	0xbf3168a5	-0.693003
190	0xbf800000	-1.0
191	0xbf800000	-1.0
192	0xbd3745e0	-0.044744372
193	0x3ecd9300	0.40151215
194	0xbf100380	-0.5625534
195	0xbf2c943a	-0.67413676
196	0xbf800000	-1.0
197	0xbf37cb56	-0.7179464
198	0xbf800000	-1.0
199	0xbe429ed0	-0.19005895
200	0x3f14ed8c	0.5817497
201	0xbf0818cf	-0.53162855
202	0x3e5c4318	0.21509969
203	0x3fd7efa4	1.6870008
204	0xbf800000	-1.0
205	0xbf800000	-1.0
206	0xbf7181ce	-0.9433869
207	0xbf800000	-1.0
208	0x3ed8fcf0	0.42380476
209	0xbf800000	-1.0
210	0xbf800000	-1.0
211	0xbf800000	-1.0
212	0xbf0fc347	-0.56157345
213	0xbf1fbac8	-0.6239438
214	0xbf800000	-1.0
215	0xbf55bd4a	-0.8349196
216	0xbf800000	-1.0
217	0xbf800000	-1.0
218	0xbf1b6cfb	-0.60713166
219	0x4024a4b0	2.5725517
220	0xbf800000	-1.0
221	0xbf800000	-1.0
222	0xbf800000	-1.0
223	0xbf800000	-1.0
224	0x3fb230f8	1.3921194
225	0xbf800000	-1.0
226	0xbf800000	-1.0
227	0xbf800000	-1.0
228	0xbf800000	-1.0
229	0xbeca38b6	-0.39496392
230	0xbf800000	-1.0
231	0xbf800000	-1.0
232	0xbf800000	-1.0
233	0xbf40c9e2	-0.7530805
234	0xbf800000	-1.0
235	0x3f8a3c00	1.079956
236	0xbf800000	-1.0
237	0xbf800000	-1.0
238	0xbf3c8775	-0.7364419
239	0xbf800000	-1.0
240	0xbf7c537c	-0.9856489
241	0xbf800000	-1.0
242	0xbf800000	-1.0
243	0xbf800000	-1.0
244	0xbf800000	-1.0
245	0xbf800000	-1.0
246	0xbf800000	-1.0
247	0xbf726930	-0.94691753
248	0xbf800000	-1.0
249	0xbf800000	-1.0
250	0xbf800000	-1.0
251	0x3e65b458	0.22432077
252	0xbf800000	-1.0
253	0xbf800000	-1.0
254	0xbf57f8a9	-0.843638
255	0xbf800000	-1.0
