Resources/Models/5727935647_model.pt (torch, 493660 bytes, 5 tensors)

0.weight f4 [20, 2, 5, 5]
0	0xbde180f7	-0.11010926
1	0x3d9a4e4d	0.07534466
2	0x3d553a20	0.052057385
3	0x3d484fb8	0.04890415
4	0x3e096e73	0.1342104
5	0x3daf1182	0.08548261
6	0x3e176db1	0.14787938
7	0x3e59554f	0.21223949
8	0x3e4a7599	0.19771422
9	0x3d9b1fb8	0.07574409
10	0x3e8f365b	0.27971157
11	0x3e762fdd	0.24041696
12	0x3dd18c49	0.102318354
13	0xbdba3b8c	-0.09093389
14	0xbebb28d6	-0.36554593
15	0xbca8f729	-0.020625668
16	0xbe3d6fbc	-0.18499655
17	0xbef34a30	-0.47517538
18	0xbf04084e	-0.5157517
19	0xbe83172c	-0.25603616
20	0xbe8b603b	-0.27221856
21	0xbec06d98	-0.37583613
22	0xbe217bd7	-0.15769897
23	0x3ceab198	0.028649136
24	0x3e2ce7e9	0.16885342
25	0x3d8c1aa3	0.06841018
26	0xbe24e05f	-0.16101216
27	0xbe18980f	-0.14901756
28	0xbdf586e3	-0.11988618
29	0xbdb5c274	-0.088749796
30	0xbe76fb08	-0.24119198
31	0xbe4ff4c9	-0.20308222
32	0xbc8df655	-0.017329374
33	0x3d47370a	0.048636474
34	0x3d04e196	0.032441698
35	0xbddf5d54	-0.10906473
36	0xbb37b641	-0.0028032216
37	0x3d5986e9	0.053107176
38	0x3d99587b	0.074875794
39	0x3e3e9ceb	0.18614547
40	0x3c788e6c	0.015170675
41	0x3e13be6e	0.14428112
42	0x3e71c46a	0.23610082
43	0x3e63c240	0.22242069
44	0x3d9489d4	0.07252851
45	0x3dbef880	0.09324741
46	0x3e17d85a	0.14828625
47	0xbcf1d80e	-0.029521968
48	0xbe243bd9	-0.16038455
49	0xbe581527	-0.21101819
50	0xbd5f610d	-0.054535914
51	0xbe180252	-0.14844635
52	0xbf09f90f	-0.5389566
53	0xbf0c0738	-0.54698515
54	0xbf0d1852	-0.55115235
55	0x3d2918ef	0.041283544
56	0xbe7e96cb	-0.2486221
57	0xbf386f8b	-0.720452
58	0xbf85cc9f	-1.045307
59	0xbf6a6c3d	-0.9157141
60	0x3c873e7a	0.016509283
61	0x3d271f2e	0.04080122
62	0xbd0832f2	-0.03325171
63	0xbf259005	-0.6467288
64	0xbf5642c8	-0.8369565
65	0x3e099a0b	0.13437669
66	0x3d6d2198	0.057893366
67	0x3e054677	0.13015161
68	0x3be520a9	0.006992419
69	0xbeca5527	-0.3951809
70	0x3e544c01	0.20732118
71	0x3e25ae8a	0.16179863
72	0x3e8ffca9	0.28122452
73	0x3e5d844d	0.216325
74	0x3d6d688b	0.057961028
75	0x3da18d50	0.07888281
76	0xbc97dffa	-0.018539418
77	0xbd983487	-0.07431894
78	0xbe42b3ae	-0.19013855
79	0xbddff7c2	-0.10935928
80	0x3d77bf18	0.060484976
81	0x3d0c2899	0.034218404
82	0xbdeacb5d	-0.1146457
83	0xbd3e16e7	-0.04640856
84	0xbb216c04	-0.0024631033
85	0xbbcf2949	-0.0063220602
86	0x3d8b04d0	0.06788027
87	0x3cd7a369	0.026323037
88	0xbc40ed02	-0.011775257
89	0xbe0e531f	-0.13898896
90	0x3e7d897a	0.24759474
91	0x3d15d846	0.036583208
92	0x3e182084	0.14856154
93	0x3b15bb0a	0.002284708
94	0x3daa7384	0.08322814
95	0x3e76216f	0.24036191
96	0x3e565d52	0.20934036
97	0x3e639b4a	0.22227207
98	0x3e3f7c66	0.18699798
99	0x3df6a38e	0.12042914
100	0xbdd6cd53	-0.10488381
101	0xbcefa2ea	-0.029252488
102	0x3e17f06d	0.14837809
103	0x3d621a57	0.0552009
104	0x3e263849	0.16232409
105	0xbd61b8a5	-0.05510773
106	0xbe917b98	-0.28414607
107	0xbe8ab2c0	-0.270895
108	0xbe9d4c32	-0.30722195
109	0xbd6e928e	-0.058245234
110	0x3db6cb23	0.08925464
111	0xbd62581c	-0.05525981
112	0xbe04dc31	-0.12974621
113	0xbe680154	-0.22656757
114	0xbe907954	-0.28217566
115	0xbd07cb3f	-0.033152815
116	0x3d7ef151	0.062241856
117	0x3d29616f	0.041352686
118	0xbdf6a661	-0.12043453
119	0xbea06001	-0.31323245
120	0x3e0392e4	0.12849003
121	0x3e055703	0.13021474
122	0x3e408bb1	0.18803288
123	0x3e696dbd	0.22795768
124	0xbd84f043	-0.06491139
125	0x3cb236d5	0.021754662
126	0x3e2502bf	0.16114329
127	0x3d7a15dc	0.061056003
128	0x3e056fbc	0.13030905
129	0x3db8d35e	0.0902469
130	0xbe2aeff3	-0.16693096
131	0x3dac31b7	0.0840792
132	0x3e0b69e0	0.13614607
133	0x3d81480a	0.063125685
134	0x3df24857	0.11830204
135	0xbea0aeef	-0.31383464
136	0xbda8b927	-0.0823844
137	0x3e2dc1d5	0.16968472
138	0x3d8e0e49	0.069363184
139	0x3e20fd57	0.15721641
140	0xbeaac9d1	-0.333571
141	0xbea723eb	-0.3264459
142	0xbca80592	-0.020510469
143	0x3e30b423	0.17256217
144	0x3e0ce7a2	0.13760236
145	0xbe18a42b	-0.14906375
146	0xbebe1acb	-0.37129816
147	0xbeabcc17	-0.33554146
148	0xbe7f6d78	-0.24944103
149	0x3caf4441	0.02139485
150	0x3dce42f6	0.100713655
151	0x3d29500b	0.0413361
152	0x3e169f14	0.14709121
153	0x3d6766bd	0.056494463
154	0x3d8a9145	0.06765989
155	0x3deafff0	0.114745975
156	0x3df96f1f	0.12179398
157	0x3d3f7483	0.046741974
158	0x3e0e97f5	0.13925155
159	0xbd8cdafc	-0.068777055
160	0xbd99935d	-0.074988104
161	0x3e064ab2	0.13114432
162	0x3df6ad27	0.12044745
163	0xbcabf83b	-0.020992389
164	0x3e1b17aa	0.15145746
165	0xbd295f41	-0.041350607
166	0x3e07d0c6	0.13263234
167	0x3dbd0d9a	0.0923111
168	0xbcd4f1f5	-0.02599428
169	0xbdcb504f	-0.09927427
170	0xbd0552e5	-0.032549758
171	0x3e0d3a96	0.1379188
172	0x3d0d24cf	0.03445893
173	0xbdfd9d05	-0.12383465
174	0x3d8f0697	0.06983679
175	0x3d53ebfc	0.051738724
176	0xbd11033d	-0.03540348
177	0x3cf979b3	0.030453539
178	0xbddc502a	-0.107574776
179	0xbeb4313c	-0.35193813
180	0x3dcb708a	0.099335745
181	0x3d22f36c	0.039782926
182	0x3e3bfa77	0.18357264
183	0xbead9aeb	-0.33907256
184	0xbeeb431f	-0.45949647
185	0x3d2ce461	0.042209987
186	0x3e18dd9e	0.1492829
187	0x3ddd4a61	0.10805202
188	0xbf0a8955	-0.541158
189	0xbf11b75f	-0.5692043
190	0x3d72c7be	0.05927252
191	0x3d18db8e	0.03731876
192	0x3bd68303	0.0065463795
193	0xbf3bf898	-0.734262
194	0xbedfb633	-0.43693694
195	0x3e204a38	0.15653312
196	0x3da04a7c	0.07826707
197	0xbe857b84	-0.26070797
198	0xbf2d9d2a	-0.6781794
199	0xbe9f3ee2	-0.31102663
200	0x3c5f1ae0	0.013617247
201	0x3d9bc839	0.07606549
202	0xbe881cc3	-0.26584443
203	0xbdda85a8	-0.10670024
204	0x3d477ea6	0.048704766
205	0x3e08f2de	0.13373896
206	0xbda03014	-0.0782167
207	0xbf194dbb	-0.5988423
208	0xbe6043cc	-0.21900862
209	0x3e2774ed	0.16353197
210	0xbcf6696f	-0.030079572
211	0xbf0882e8	-0.5332475
212	0xbf1fa1a1	-0.62356
213	0xbd86e12e	-0.06585918
214	0x3e4744fa	0.19459906
215	0xbe836466	-0.25662535
216	0xbf2a7354	-0.66582227
217	0xbe363634	-0.17794114
218	0x3cc43eb6	0.023955684
219	0x3e14b5fa	0.14522544
220	0xbf0ae69b	-0.54258126
221	0xbe84b372	-0.25918156
222	0x3cf3fb53	0.029782927
223	0x3e5a34f2	0.2130926
224	0x3e1f4b2e	0.15556023
225	0x3ca89c71	0.02058241
226	0x3e1453fb	0.14485161
227	0x3db51e20	0.088436365
228	0x3d286d29	0.04111973
229	0x3c2c671c	0.01052263
230	0x3e033dfd	0.12816615
231	0x3e3af7e9	0.18258633
232	0x3e04930f	0.12946723
233	0x3d4734a9	0.048634205
234	0xbdfac045	-0.12243704
235	0x3cbcfc07	0.023069395
236	0xbbfa483a	-0.0076380046
237	0x3e4309b9	0.19046678
238	0x3bf7b11d	0.0075589553
239	0xbd918d3b	-0.07107016
240	0xbcc5ccac	-0.024145447
241	0x3d54dcae	0.05196827
242	0x3e1dbaf4	0.15403348
243	0x3d1c9fc1	0.03823829
244	0xbe0b0be2	-0.13578752
245	0x3d3105df	0.04321849
246	0x3de200b8	0.11035293
247	0x3e12ba96	0.1432899
248	0x3d7cb3a7	0.061694767
249	0xbea754fe	-0.3268203
250	0x3b8d353c	0.0043093245
251	0x3d94cb79	0.07265372
252	0x3dd15ad5	0.10222403
253	0xbe11b52a	-0.14229265
254	0xbdba0ba2	-0.0908425
255	0xbdb2f613	-0.08738341

3.weight f4 [32, 20, 5, 5]
0	0x3d6fe8aa	0.058571495
1	0xbc0ebb4f	-0.00871165
2	0x3c694c0d	0.014239323
3	0x3d5680e0	0.052369
4	0xbd847219	-0.06467075
5	0x3d886285	0.06659416
6	0x3c7b3443	0.015332284
7	0x3b7cb558	0.0038560238
8	0xbc9d268b	-0.019183418
9	0xbe34e5e0	-0.17665815
10	0x3db48bda	0.08815737
11	0xbd57c041	-0.052673582
12	0xbdcca95a	-0.09993239
13	0xbe50dd85	-0.20397003
14	0xbe378a84	-0.17923933
15	0x3dccf62e	0.100078925
16	0xbd53df2e	-0.051726513
17	0xbe601eb2	-0.2188671
18	0xbe821236	-0.2540452
19	0xbed6edab	-0.419782
20	0x3d6c7f37	0.05773851
21	0x3b43351a	0.002978629
22	0xbe3e95d5	-0.18611844
23	0xbeacfb24	-0.33785355
24	0xbf00bd3f	-0.50288767
25	0x3de41f6e	0.11138807
26	0x3dc727d8	0.097243965
27	0x3d3ffe08	0.046873122
28	0x3dd02f17	0.10165232
29	0xbe1b6eee	-0.15179035
30	0x3cc5e842	0.0241586
31	0x3df49d40	0.119440556
32	0x3e14511e	0.14484069
33	0x3daf3430	0.08554876
34	0xbe2ba31b	-0.16761439
35	0x3dd194d8	0.10233468
36	0x3dbca51f	0.09211182
37	0x3e2f7d30	0.17137599
38	0x3e700e45	0.23442943
39	0x3d81c634	0.06336632
40	0x3bc37346	0.0059646694
41	0xbd37b135	-0.044846732
42	0xbc8afd81	-0.016966583
43	0x3e0b509f	0.13604973
44	0x3dbf9c1f	0.093559496
45	0x3d491db6	0.0491006
46	0x3ce3d1ca	0.027809996
47	0xbd7ed185	-0.062211532
48	0x3ceb695e	0.028736766
49	0x3e26ebba	0.1630086
50	0x3e4e0fd0	0.2012322
51	0x3d9490c2	0.07254173
52	0x3d515d21	0.051114205
53	0xbb524cde	-0.0032089273
54	0xbd9b7708	-0.07591063
55	0x3dd87fbc	0.105712384
56	0x3dcdff22	0.10058428
57	0xbca70392	-0.020387445
58	0xbd0d5a05	-0.034509677
59	0xbe21fd6d	-0.1581933
60	0xbca2b7c8	-0.019863024
61	0x3d8ea1a1	0.06964422
62	0x3da32b56	0.0796725
63	0xbcaba772	-0.020953868
64	0xbd2e7578	-0.042592496
65	0xbd48c622	-0.04901708
66	0x3d4af6b8	0.049551696
67	0x3db68671	0.089123614
68	0xbd6e52a8	-0.058184296
69	0xbdb7d92e	-0.089769706
70	0xbdb2695c	-0.08711502
71	0x3c2e7257	0.010647378
72	0xba3eceaa	-0.000727872
73	0xbd45a36d	-0.048251558
74	0xbe29aa99	-0.16568984
75	0xbd1dc1d5	-0.03851493
76	0xbb0b0a25	-0.0021215763
77	0x3d2dac18	0.04240045
78	0xbcb77bdc	-0.022397928
79	0xbd041773	-0.032248925
80	0xbcf068a4	-0.029346772
81	0x3abaa595	0.0014240021
82	0x3b1b1ada	0.0023667128
83	0x3d9f03f6	0.07764427
84	0x3ca71b25	0.020398686
85	0x3d109c20	0.035305142
86	0x3beccf23	0.007226841
87	0x3d6c07fc	0.057624802
88	0x3e26319b	0.1622986
89	0xbc9c79a1	-0.019100966
90	0x3d940d59	0.07229108
91	0x3cfa9b46	0.030591618
92	0x3dce09cf	0.100604646
93	0x3e2dd8bc	0.16977209
94	0xbd1ca897	-0.038246717
95	0x3d952cde	0.07283948
96	0x3e17c246	0.14820203
97	0x3e222ceb	0.15837447
98	0x3e5af261	0.21381523
99	0x3d4de626	0.050268315
100	0x3c9ed6ce	0.019389536
101	0x3d8e78f8	0.06956667
102	0x3d15fe0a	0.036619224
103	0x3dfef7e7	0.12449627
104	0x3e0dc854	0.1384595
105	0xbc5d5eb6	-0.01351135
106	0xbc58d2a6	-0.013233816
107	0x3d9c1ed5	0.07623068
108	0x3da0e4a1	0.078561075
109	0xbd82b743	-0.06382611
110	0x3ce498ae	0.027904835
111	0xbb9168b4	-0.0044375304
112	0x3d80a83a	0.06282087
113	0x3dc298ff	0.09501838
114	0xbe5ec131	-0.21753384
115	0x3c8cb9be	0.017178413
116	0x3d0685b3	0.03284235
117	0x3de47ae1	0.1115625
118	0x3df298c5	0.11845545
119	0xbd8cfeb8	-0.06884521
120	0x3e008e24	0.12554222
121	0x3e2057bb	0.15658467
122	0x3e624280	0.2209568
123	0x3e2c6fc6	0.16839513
124	0x3c2f08e5	0.010683273
125	0x3d6afce7	0.057370093
126	0x3dc20b75	0.094748415
127	0x3cef6618	0.029223487
128	0xbc2df4c3	-0.010617438
129	0xbd1e1af3	-0.03859992
130	0x3d4969a3	0.04917301
131	0x3df895eb	0.121379696
132	0x3e146db6	0.14494976
133	0x3dbc97f9	0.09208674
134	0xbe2a0096	-0.16601786
135	0x3bd5dda8	0.0065266676
136	0x3e03775b	0.12838499
137	0x3e8d9202	0.27650458
138	0x3e6a1386	0.2285901
139	0xbe192e65	-0.14959104
140	0x3bce0e75	0.0062883445
141	0x3dffc0b5	0.12487928
142	0x3e793f49	0.24340548
143	0x3ea26837	0.31720135
144	0xbd7a2c5e	-0.061077468
145	0x3d01e987	0.03171685
146	0x3d97ce4d	0.074123956
147	0x3e39bf8b	0.18139474
148	0x3e94c08f	0.2905316
149	0x3d267cf1	0.040646497
150	0x3ca52858	0.020160839
151	0x3d15ad00	0.03654194
152	0x3d173f0e	0.036925368
153	0xbbe1f048	-0.006895099
154	0xbe8a085d	-0.26959506
155	0x3d58f6ee	0.052969866
156	0x3dfd9fbf	0.12383985
157	0x3e0635c9	0.13106455
158	0x3dbb21a0	0.09137273
159	0xbe1b2b10	-0.15153146
160	0x3de439c8	0.111438334
161	0x3dde6185	0.10858444
162	0x3e311b04	0.17295462
163	0x3e1bd1b4	0.15216714
164	0x3cd1938f	0.025583057
165	0x3dd8f1dc	0.10593006
166	0x3d9487c1	0.072524555
167	0x3dd73b84	0.105093986
168	0x3e18cf0b	0.1492273
169	0x3e0050fa	0.1253089
170	0x3e36a83e	0.17837617
171	0x3d8fe8a6	0.07026796
172	0x3d420d3d	0.047375906
173	0x3b8af45c	0.0042405557
174	0x3e0719b7	0.13193403
175	0x3da20e00	0.079128265
176	0xbbfdd0bc	-0.0077458303
177	0xbd174702	-0.036932953
178	0xbcb3fdd4	-0.02197162
179	0xbe72be04	-0.23705298
180	0x3d9566f3	0.07295027
181	0xbcd68fee	-0.026191678
182	0x3d310bc1	0.0432241
183	0xbdbfd579	-0.093668886
184	0xbf02a6f2	-0.5103599
185	0x3d4afc1c	0.049556836
186	0x3c915b08	0.017743602
187	0x3b8b5270	0.0042517707
188	0xbe2d7d94	-0.16942436
189	0xbee841bf	-0.4536266
190	0x3d8c765c	0.06858513
191	0x3c71aff2	0.014751421
192	0x3cb3138c	0.021859907
193	0xbd838953	-0.06422677
194	0xbe506f39	-0.20354928
195	0x3e0e0f7a	0.13873091
196	0x3c8b1be0	0.016981065
197	0x3caf5a4f	0.021405367
198	0xbd862118	-0.06549281
199	0xbd052308	-0.03250411
200	0x3d2c272f	0.042029556
201	0x3d2e3430	0.04253024
202	0xbcd817e4	-0.02637858
203	0xbdc94d55	-0.09829203
204	0xbeb1c715	-0.347222
205	0x3ca4ed69	0.020132737
206	0x3d8a2d8d	0.06746969
207	0x3d742d56	0.05961355
208	0x3b295ebe	0.0025843824
209	0xbea51738	-0.32244277
210	0xbd094ae5	-0.03351869
211	0xbd893b9c	-0.06700823
212	0x3a4529d4	0.00075211865
213	0xbd1438ca	-0.03618697
214	0xbdbeb079	-0.09311003
215	0x3da52971	0.08064545
216	0xbdf9f708	-0.122053206
217	0xbe4ccf66	-0.20000991
218	0xbe837f4f	-0.25683066
219	0xbe209af0	-0.15684104
220	0x3e023a58	0.12717569
221	0xbd156eb0	-0.036482513
222	0xbe18ea04	-0.1493302
223	0xbe8a9921	-0.27069953
224	0xbe4bbba8	-0.19895804
225	0x3cc8ddf0	0.02451989
226	0xbc2e1971	-0.010626183
227	0x3c8a31c7	0.016869439
228	0xbd49c1c6	-0.049257062
229	0xbe0f865c	-0.14016098
230	0xbd3a768b	-0.045523208
231	0xbc979e9c	-0.018508248
232	0xbd0a3218	-0.03373918
233	0xbdbb9670	-0.09159553
234	0xbea1f0fa	-0.31629163
235	0xbca02ec2	-0.019553546
236	0xbb9e97ec	-0.004839888
237	0x3d286cfa	0.041119553
238	0xbcd1efe4	-0.025627084
239	0xbecfa5ca	-0.40556175
240	0x3d656b47	0.05601051
241	0xbc4ed4f8	-0.012624018
242	0xbd6c9960	-0.057763457
243	0x3b8ad416	0.0042367084
244	0xbeb86e0c	-0.3602146
245	0x3ddf2d1a	0.10897274
246	0x3d094d53	0.033521008
247	0x3d0bf8f8	0.034172982
248	0x3c8fb0f2	0.017540429
249	0xbe0f916a	-0.14020315
250	0x3bd63fcc	0.006538367
251	0xbd1dcda3	-0.03852619
252	0x3d8bac86	0.068200156
253	0x3c975103	0.018471247
254	0xbe0adc10	-0.1356051
255	0x3bd2e610	0.006436117

6.weight f4 [128, 32, 3, 3]
0	0xbea5770a	-0.32317382
1	0xbe3b8617	-0.1831287
2	0x3cac7c9e	0.021055516
3	0xbb1a6630	-0.0023559444
4	0xbdeb290b	-0.11482438
5	0xbd3ff080	-0.046860218
6	0xbdb0bf41	-0.08630229
7	0xbd8c1486	-0.06839852
8	0xbc398f0c	-0.011325609
9	0x3c4fd52f	0.012685104
10	0xbde113fa	-0.10990138
11	0x3c976d8d	0.018484855
12	0x3daad69e	0.08341716
13	0xbba32310	-0.004978545
14	0x3cdc7e67	0.026915742
15	0xbe0bf596	-0.13667902
16	0xbd5443f2	-0.05182261
17	0xbb3a447e	-0.0028422172
18	0xbcacb46b	-0.021082124
19	0x3dd53a45	0.10411505
20	0x3e18ea34	0.14933091
21	0xbd41358a	-0.0471702
22	0xbd3e17c7	-0.046409395
23	0xbe2039aa	-0.15646997
24	0x3de0255c	0.10944626
25	0x3d23d96c	0.04000227
26	0xbd8158d1	-0.063157685
27	0x3da4d6a4	0.08048752
28	0x3cd3fa88	0.025876299
29	0x3c64f9fa	0.013975615
30	0x3d6aeb7e	0.05735349
31	0xbcccea23	-0.025013989
32	0xbd062c8d	-0.03275733
33	0xbdece5cb	-0.11567267
34	0xbd3df6f1	-0.04637808
35	0x3d6c7882	0.057732113
36	0xbd3f0305	-0.04663374
37	0xbdf730ae	-0.12069832
38	0xbe4df21f	-0.20111893
39	0x3d17f5b0	0.03709954
40	0x3d1748c9	0.036934648
41	0x3e3cee09	0.18450178
42	0xbd806e24	-0.06271008
43	0xbe28d53e	-0.16487595
44	0xbe614475	-0.2199877
45	0xbc3de570	-0.011590347
46	0xbcbd457d	-0.023104424
47	0x3d847243	0.06467106
48	0x3c849700	0.016185284
49	0xbd837904	-0.06419566
50	0xbb1b1ee9	-0.0023669547
51	0x3ce69d47	0.028151168
52	0x39292536	0.00016130958
53	0x3e2dd607	0.16976176
54	0xbd7ff0ae	-0.06248539
55	0x3dd1bfc0	0.102416515
56	0x3ce92541	0.028460147
57	0xbe0466ab	-0.1292979
58	0xbe1e9cba	-0.15489474
59	0xbd82558d	-0.06363974
60	0xbe29b42b	-0.16572635
61	0xbc6f573f	-0.014608203
62	0x3dd2e43a	0.10297437
63	0xbdc47f4f	-0.09594595
64	0xbd06b238	-0.032884806
65	0xbe0b4aed	-0.136028
66	0x3c6653fa	0.0140581075
67	0x3bc182e3	0.0059054955
68	0xbe3381da	-0.17530003
69	0xbcaad17b	-0.020851841
70	0xbdb3872a	-0.08766015
71	0xbcd64185	-0.026154289
72	0xbd81272e	-0.06306301
73	0xbe054230	-0.1301353
74	0xbe6407cc	-0.222686
75	0x3ba37c96	0.004989217
76	0xbd0e7d98	-0.034787744
77	0xbd618edc	-0.055067882
78	0x3d21d57b	0.03951023
79	0xbd30f83d	-0.04320549
80	0xbdb08e2d	-0.08620868
81	0xbd05baaa	-0.03264872
82	0xbd47a82f	-0.048744377
83	0xbe109813	-0.14120512
84	0xbb1ce0c0	-0.0023937672
85	0xbde804f8	-0.11329073
86	0xbdacba2e	-0.084339485
87	0x3d0ad66f	0.033895906
88	0xbe21c694	-0.15798408
89	0xbdbac7e9	-0.09120161
90	0x3d3f795b	0.046746593
91	0x3c602138	0.013679795
92	0xbdbcedd5	-0.0922505
93	0x3d947429	0.07248718
94	0xbc2510c1	-0.010074795
95	0x3db258f3	0.08708372
96	0xbe44e316	-0.19227251
97	0xbde3ad2b	-0.111170135
98	0xbd0a876e	-0.033820562
99	0x3e1c9a7e	0.15293309
100	0x3e00305f	0.12518452
101	0x3cfb88fa	0.030704964
102	0x3d71816d	0.05896132
103	0xbc0e99d0	-0.008703664
104	0xbe1381e7	-0.14405023
105	0x3c6c70e6	0.014431214
106	0x3ccbb69a	0.024867345
107	0x3cf7afed	0.030235255
108	0x3d5987b1	0.05310792
109	0xbd06a5f4	-0.03287311
110	0xbc94336b	-0.018090924
111	0xbd924365	-0.07141761
112	0xbded187f	-0.11576938
113	0xbda54ccc	-0.080712885
114	0x3dd6492e	0.10463177
115	0x3ce484bd	0.027895326
116	0xbe0018a5	-0.12509401
117	0xbdbd5663	-0.092449926
118	0xbc850ae5	-0.016240546
119	0x3e0559f6	0.13022599
120	0x3dde58d1	0.10856784
121	0x3cc8575f	0.024455724
122	0xbe009e86	-0.12560472
123	0x3bd3ff57	0.006469648
124	0xbd18191b	-0.037133317
125	0xbcc9002a	-0.024536211
126	0xbc1cd8cc	-0.009573173
127	0xbe11217a	-0.14172927
128	0xbdb77001	-0.0895691
129	0x3cc8206a	0.024429519
130	0x3be5a59c	0.0070082676
131	0x3d8a6d0e	0.06759082
132	0xbe62d0b2	-0.22149923
133	0xbd857a27	-0.06517439
134	0xbd944438	-0.07239574
135	0x3d69e15f	0.057099696
136	0x3d80d2f6	0.062902376
137	0x3c4237ed	0.011854154
138	0x3e222b58	0.15836847
139	0x3be7ad02	0.0070701847
140	0xbe1c931e	-0.15290496
141	0xbd90313b	-0.0704064
142	0xbd9e5970	-0.077319026
143	0xbd55d7fb	-0.05220793
144	0xbe1f94b2	-0.15584067
145	0x3d88f0be	0.06686543
146	0x3e62cac1	0.22147657
147	0xbcc0f320	-0.023553431
148	0x3cd8223c	0.026383512
149	0x3d5e91a8	0.054338127
150	0xbe7a8dcd	-0.24468155
151	0xbd40c52b	-0.047063034
152	0xbb981964	-0.0046416987
153	0x3d8bbce3	0.06823137
154	0x3ccf847e	0.025331732
155	0x3c6d84ae	0.014496965
156	0xbe08d975	-0.13364203
157	0x3cf425aa	0.029803116
158	0xbdcb457c	-0.099253625
159	0x3921229f	0.00015367054
160	0xbc29609f	-0.010337978
161	0xbe840661	-0.25786117
162	0x3e19f8d0	0.1503632
163	0x3dbbdb13	0.091726445
164	0x3cc41e5e	0.023940261
165	0xbd0257e7	-0.03182211
166	0x3daba73f	0.08381509
167	0x3e05fed5	0.13085492
168	0xbe40c7b0	-0.18826175
169	0xbd9e7127	-0.07736426
170	0xbd1a4df1	-0.037671987
171	0x3cdbb589	0.026819961
172	0xbe36cf63	-0.17852549
173	0xbe1b095f	-0.15140294
174	0x3e28aa2f	0.1647117
175	0x3d50066c	0.050787374
176	0x3cece4b5	0.02891765
177	0xbde310db	-0.11087199
178	0xbe130046	-0.14355573
179	0x3c398d0f	0.011325135
180	0xbc542339	-0.012947851
181	0xbcb3444d	-0.021883154
182	0xbd2c65cf	-0.04208928
183	0x3d61047c	0.054935917
184	0x3c7d4f4f	0.015460803
185	0x3d9d259c	0.07673189
186	0x3d98579e	0.07438587
187	0x3c0c3760	0.008558124
188	0x3d62ac51	0.055340115
189	0x3c13ff53	0.009033042
190	0x3d199b9d	0.03750192
191	0x3c75a5db	0.014993156
192	0x3d99f504	0.07517436
193	0x3d2d41a8	0.042298943
194	0x3d33cb6a	0.043895163
195	0xbe1adad5	-0.1512254
196	0xbc8dd6c3	-0.01731432
197	0x3db6471e	0.08900283
198	0x3aed3539	0.0018097527
199	0xbd768842	-0.06018854
200	0xbd20dee6	-0.039275073
201	0xbdebed95	-0.115199246
202	0xbdb3be6f	-0.08776557
203	0xbbf6a1f6	-0.0075266315
204	0xbc569475	-0.013096918
205	0x3b513aab	0.0031925838
206	0x3bc8cdf5	0.0061280676
207	0x3dd99826	0.10624723
208	0x3d70469d	0.058661092
209	0x3d72bf21	0.059264306
210	0xbb98f730	-0.004668139
211	0xbc924756	-0.017856281
212	0xbd3053a6	-0.043048523
213	0x3ca2945b	0.019846132
214	0xbdf60575	-0.120127596
215	0xbd75b152	-0.05998356
216	0x3d836c4a	0.06417139
217	0x3d036960	0.032082915
218	0xbbae7745	-0.0053242766
219	0x3daf6994	0.08565059
220	0xbcdb3fec	-0.026763879
221	0xbc998f57	-0.018745108
222	0xbdf83782	-0.12119962
223	0x3de199c3	0.11015656
224	0x3deaf23b	0.11471983
225	0x3d797f5f	0.060912486
226	0x3d837382	0.06418516
227	0x3e1ac0f3	0.15112667
228	0xbdb14359	-0.08655424
229	0xbd88b78d	-0.066756345
230	0xbdfea2cc	-0.12433395
231	0xbdf29c54	-0.118462235
232	0xbe228edf	-0.15874813
233	0xbed28746	-0.4111883
234	0x3cb7b351	0.022424372
235	0xbcfeb24c	-0.031090878
236	0xbd4e6faf	-0.05039948
237	0x3d4d96ae	0.050192527
238	0xbd42be3f	-0.047544714
239	0x3e04b949	0.12961306
240	0xbe2de674	-0.16982442
241	0xbd5601a6	-0.052247666
242	0x3e098a85	0.13431747
243	0xbd8374c6	-0.06418757
244	0xbdb55725	-0.08854512
245	0xbca37827	-0.019954754
246	0xbddf7a86	-0.10912041
247	0x3d1b10eb	0.03785793
248	0x3d92b837	0.071640424
249	0x3e1eac3c	0.1549539
250	0x3c27de61	0.01024589
251	0xbd15c423	-0.036564004
252	0x3e47100c	0.19439715
253	0x3e09a736	0.13442692
254	0x3e166cc6	0.14689931
255	0x3c848110	0.016174823

10.weight f4 [500, 128]
0	0x3dcf365b	0.10117789
1	0x3e093520	0.13399172
2	0xbbd657a6	-0.00654121
3	0x3d95dbd2	0.07317318
4	0xbd80a4f5	-0.06281463
5	0xbda9cf52	-0.08291496
6	0x3e131018	0.14361608
7	0x3d9b85c4	0.07593873
8	0xbd3fcac1	-0.04682422
9	0x3d50267e	0.05081796
10	0x3c636c43	0.013880792
11	0x3dac7ea5	0.08422593
12	0x3dac4f6d	0.08413587
13	0x3dbb91c2	0.091586605
14	0x3cb500ca	0.022095103
15	0x3dc49943	0.09599545
16	0x3dde557e	0.1085615
17	0x3c76c33a	0.015061194
18	0x3c2fc1cc	0.010727357
19	0xbdc0728b	-0.09396847
20	0x3d5fc88e	0.054634623
21	0x3d0658de	0.032799594
22	0xbe5c7908	-0.21530545
23	0xbd1732ae	-0.036913566
24	0xbe682cbf	-0.2267332
25	0x3da254f4	0.0792636
26	0xbd0af8b1	-0.033928577
27	0xbdba98c0	-0.09111166
28	0xb7f68a00	-2.9389746e-05
29	0xbe0843a5	-0.13307054
30	0xbae37b79	-0.0017355523
31	0xbd47e67c	-0.04880379
32	0xbd471a91	-0.04860932
33	0x3cf59948	0.029980317
34	0x3e431484	0.19050795
35	0xbce488c5	-0.027897248
36	0xbe39f71f	-0.18160675
37	0xbda3c029	-0.07995636
38	0x3e4200d8	0.18945634
39	0x3d00af92	0.031417437
40	0x3d2a9ac4	0.041651502
41	0xbd25be5d	-0.040464748
42	0x3e58c375	0.21168311
43	0xbd8fb970	-0.07017791
44	0xbe55d65d	-0.20882554
45	0x3e8a61c6	0.2702772
46	0xbe82ac59	-0.25522116
47	0xbd83e007	-0.06439214
48	0xbd96981e	-0.07353233
49	0xbe46e09c	-0.19421619
50	0x3d0e667f	0.034765717
51	0x3dba5b93	0.09099498
52	0xbd958b72	-0.07301988
53	0x3ca5d47f	0.020242928
54	0x3d5c2852	0.05374939
55	0x3e313c40	0.1730814
56	0x3de684d9	0.112558074
57	0xbdb5d57d	-0.0887861
58	0xbeb069f7	-0.34455845
59	0x3aaa87d0	0.0013010446
60	0x3e4e15cf	0.20125507
61	0xbe2a4218	-0.16626775
62	0x3d1df5aa	0.03856436
63	0x3ddc19e8	0.10747129
64	0x3ccfba86	0.025357496
65	0xbbc99d64	-0.0061527956
66	0x3df0c758	0.11756772
67	0x3c4ec7ff	0.012620925
68	0x3d8895c1	0.06669188
69	0x3e464c7d	0.19365115
70	0xbe52ce8c	-0.20586604
71	0xbd9190da	-0.07107706
72	0x3cd67db5	0.026182989
73	0x3dbe85fb	0.093028985
74	0xbe3e51c2	-0.18585876
75	0xbde813b2	-0.113318816
76	0x3e2657a2	0.16244367
77	0xbe264fe1	-0.16241409
78	0xbdf66435	-0.12030832
79	0x3d316d17	0.043316927
80	0x3d44b935	0.04802819
81	0x3e4d35ec	0.20040101
82	0x3e279b7e	0.1636791
83	0xbe32715a	-0.17426053
84	0x3e3750b4	0.1790188
85	0xbcf97fb1	-0.030456396
86	0x3ca99e13	0.020705258
87	0xbc621ecc	-0.013801288
88	0x3ba4768a	0.005019014
89	0x3c149cd8	0.009070598
90	0xbd220dde	-0.039564006
91	0xbd21b2a4	-0.039477006
92	0xbd8813f9	-0.066444345
93	0x3e03738e	0.1283705
94	0xbcfff9a7	-0.031246973
95	0xbe4ee665	-0.20205076
96	0xbd244dd9	-0.040113304
97	0xbdc54390	-0.09632027
98	0xbdc89f26	-0.0979598
99	0x3d826f3a	0.06368871
100	0xbe0581e4	-0.1303783
101	0x3e59d005	0.2127076
102	0xbdf42d8a	-0.119227484
103	0x3da980c2	0.08276512
104	0x3da90209	0.08252341
105	0x3dbce7ef	0.09223925
106	0xbc98d38b	-0.018655559
107	0xbe374780	-0.17898369
108	0x3e070e12	0.13188961
109	0xbe3509e7	-0.17679559
110	0xbc531214	-0.012882728
111	0x3d888f3e	0.06667946
112	0xbe14905f	-0.14508198
113	0x3d18d9dd	0.037317146
114	0xbd28f387	-0.04124787
115	0xbd347a62	-0.044062026
116	0x3dd9f339	0.10642094
117	0x3da297c1	0.07939101
118	0xbcf51395	-0.029916564
119	0x3c459e7c	0.012061711
120	0xbde01ae2	-0.109426275
121	0xbc8779b6	-0.016537528
122	0xbdffb94b	-0.12486514
123	0xbd73e127	-0.059540894
124	0xbe079c40	-0.13243198
125	0xbe2ec27c	-0.17066377
126	0x3e47f7a0	0.19528055
127	0x3de313f8	0.11087793
128	0xbdedf386	-0.11618714
129	0xbd629259	-0.05531535
130	0xbd24480e	-0.04010778
131	0xbd67405f	-0.056457873
132	0xbe23b6be	-0.1598768
133	0x3d110c5d	0.03541218
134	0x3d9a674a	0.07539232
135	0xbbcd6bc6	-0.006268951
136	0xbe05433d	-0.1301393
137	0xbb8cc9b9	-0.004296508
138	0xbd420c38	-0.047374934
139	0x3d0c45b3	0.034246158
140	0x3da146ff	0.078748696
141	0xbe5bc70a	-0.21462646
142	0x3b504a12	0.003178243
143	0x3d024498	0.031803697
144	0x3dc64a64	0.09682158
145	0x3d78970a	0.060690917
146	0x3dda9070	0.106720805
147	0x3e15393f	0.14572619
148	0xbd179914	-0.03701122
149	0x3d7b333e	0.061328165
150	0x3deac75c	0.11463806
151	0xbe15b122	-0.14618352
152	0x3de430fc	0.111421555
153	0xbde7379e	-0.11289905
154	0xbd785865	-0.060631175
155	0xbdb1c246	-0.08679633
156	0xbd819d60	-0.06328845
157	0x3d227541	0.039662603
158	0x3dc0e2ad	0.09418235
159	0xbd3b4f93	-0.045730185
160	0xbe232733	-0.15932922
161	0xbdbc9899	-0.09208793
162	0xbe37f8a3	-0.17965941
163	0x3d81eb3b	0.06343695
164	0x3d9c9c3f	0.07646989
165	0x3dcdcf36	0.10049288
166	0xbe3aef4f	-0.18255351
167	0x3da5d660	0.080975294
168	0x3e0aedc7	0.13567267
169	0x3c997185	0.018730888
170	0xbde2ec06	-0.11080174
171	0x3d5dd3e6	0.05415716
172	0xbceec8a6	-0.029148411
173	0x3d8446de	0.06458829
174	0x3d91d499	0.07120628
175	0x3e2ee6fe	0.17080304
176	0xbd138ac7	-0.03602102
177	0x3d3c89f6	0.046030007
178	0x3e1a29dc	0.1505503
179	0x3dd3f4e7	0.10349446
180	0x3d10e5e3	0.035375487
181	0xbd900ec5	-0.07034067
182	0xbcc79073	-0.024360871
183	0x3c2dcf27	0.010608471
184	0xbdac4025	-0.08410672
185	0x3db13c3d	0.08654068
186	0xbd1abd97	-0.037778463
187	0xbc574279	-0.013138407
188	0xbda0a88d	-0.078446485
189	0x3d5303b2	0.051517196
190	0x3d846b68	0.064657986
191	0x3ddd0d94	0.107936054
192	0xbd9fabc4	-0.077964336
193	0x3d3ebb0a	0.046565093
194	0x3e0fd1bd	0.14044853
195	0xbdcc028f	-0.099614255
196	0xbd7431ee	-0.05961793
197	0xbda9770a	-0.08274658
198	0xbc1caf9b	-0.009563352
199	0x3d93b195	0.072116055
200	0x3c6e5cc6	0.014548486
201	0xbcf6399a	-0.030056763
202	0x3da4c50f	0.080453984
203	0xbde3f580	-0.1113081
204	0x3d4e642e	0.050388508
205	0x3e4c3504	0.19942099
206	0x3da65797	0.08122175
207	0x3d17d89b	0.037071805
208	0xbd9ccffa	-0.07656856
209	0xbd2b80de	-0.041870944
210	0xbd59bb62	-0.053157218
211	0x3df234da	0.11826487
212	0x3d91c5cd	0.07117806
213	0xb9f32d13	-0.00046382155
214	0xbd169e0f	-0.03677183
215	0x3d795cc5	0.060879488
216	0x3db7b917	0.0897085
217	0x3c712efe	0.0147206765
218	0xbd83c77f	-0.06434535
219	0xbde9c47f	-0.11414432
220	0xbcaa4ed4	-0.020789541
221	0xbd8a2052	-0.06744446
222	0xbd2de621	-0.042455796
223	0xbd9731a8	-0.07382518
224	0xbb89e08d	-0.0042076767
225	0x3da51ab5	0.080617346
226	0x3d93c834	0.0721592
227	0xbe652c79	-0.22380246
228	0x3e338224	0.17530113
229	0xbe476173	-0.19470768
230	0xbd88e23c	-0.06683776
231	0xbb1ae730	-0.0023636334
232	0x3c06bea8	0.008224167
233	0xbd33173b	-0.043723326
234	0xbc302c1d	-0.010752705
235	0x3d15b702	0.036551483
236	0xbd8da440	-0.06916094
237	0xbdafc03b	-0.08581587
238	0x3e3fc201	0.1872635
239	0xbd40c88c	-0.047066256
240	0xbdd5deb6	-0.10442869
241	0x39850545	0.00025371663
242	0x3c343217	0.0109982705
243	0xbd5f2b3e	-0.0544846
244	0x3d30e468	0.043186575
245	0x3cf7003a	0.030151475
246	0x3d9b891d	0.07594512
247	0x3e197ced	0.14989062
248	0x3d17fcf2	0.03710646
249	0xbd7873bb	-0.060657244
250	0x3d3882b5	0.045046527
251	0xbd892352	-0.0669619
252	0xbe1e9842	-0.15487769
253	0xbe1b550d	-0.15169163
254	0xbda4a9e7	-0.08040219
255	0xbca8d855	-0.020610968

12.weight f4 [10, 500]
0	0x3e1870c0	0.1488676
1	0x3ddbf9f4	0.10741034
2	0x3db54d87	0.08852678
3	0xbe032d16	-0.12810168
4	0x3db708af	0.08937203
5	0x3e11de88	0.14245045
6	0x3cc7cebb	0.024390569
7	0xbc580494	-0.013184685
8	0x3d8491be	0.064731106
9	0x3c8c22d4	0.017106451
10	0xbcdb679d	-0.026782805
11	0xbc774245	-0.0150914835
12	0x3d22f394	0.039783075
13	0xbdc58f1a	-0.09646435
14	0x3d4a6f16	0.049422346
15	0x3c8c46f5	0.017123679
16	0xbdac6021	-0.08416773
17	0xbcffcaec	-0.03122469
18	0x3de6d99f	0.11271977
19	0x3e1ada4e	0.15122339
20	0x3dee16df	0.11625456
21	0xbe2d1fbd	-0.16906638
22	0x3d89c968	0.06727868
23	0xbd0b9a6d	-0.03408282
24	0x3d976ef1	0.07394207
25	0xbdd3e6bc	-0.103467435
26	0x3da8df52	0.0824572
27	0x3b0882c1	0.0020829889
28	0xbcc2156c	-0.023691855
29	0xbdecd4af	-0.11564004
30	0xbd9335b7	-0.0718798
31	0xbe133600	-0.14376068
32	0xbe2ee503	-0.17079549
33	0x3d34145e	0.043964736
34	0x3c65f876	0.0140362885
35	0x3b1accb3	0.0023620545
36	0xbcc4aadb	-0.024007251
37	0xbe1f0b85	-0.15531738
38	0xbdc0a6c6	-0.094068095
39	0xbc92d303	-0.017922884
40	0xbd617c96	-0.055050455
41	0xbe036baa	-0.1283404
42	0xba728b89	-0.000925236
43	0xbb3cc11a	-0.002880162
44	0x3df3db4f	0.11907064
45	0x3cbc0f2d	0.022956455
46	0xbddead40	-0.108728886
47	0xbdb3cfaf	-0.08779847
48	0xbd875181	-0.066073425
49	0xbcda2532	-0.026629064
50	0x3cf600c3	0.03002966
51	0x3d2c4986	0.042062305
52	0xbc23ba49	-0.009993144
53	0xbc994324	-0.018708773
54	0x3cc2ce44	0.023779996
55	0x3cfe4e9b	0.031043341
56	0x3cf27cec	0.029600583
57	0xbdd59629	-0.104290314
58	0xbe3556c3	-0.17708878
59	0xbc3e3028	-0.011608161
60	0x3d80ee26	0.06295423
61	0xbe3b7d16	-0.18309435
62	0x3dcc20e2	0.099672094
63	0xbe36f9aa	-0.17868677
64	0x3d73f181	0.059556488
65	0xbd926ff8	-0.071502626
66	0xbd9a3b7b	-0.07530876
67	0x3d883680	0.0665102
68	0xbe81fa3a	-0.2538622
69	0xbe298461	-0.16554405
70	0xbc1c3093	-0.009533065
71	0xbe10d41a	-0.1414341
72	0x3df6d724	0.120527536
73	0xbe3fb71f	-0.18722199
74	0xbdf09b89	-0.11748416
75	0x3d2b648f	0.041843947
76	0x3befb8f1	0.007315748
77	0x3da28efe	0.0793743
78	0x3e0a274e	0.13491556
79	0xbe316331	-0.17322995
80	0x3c7cd542	0.015431704
81	0x3d03e00e	0.032196097
82	0x3d18697f	0.037209984
83	0x3de68608	0.11256033
84	0xbe06bade	-0.13157222
85	0xbc6e6bcf	-0.014552071
86	0xbdb1402d	-0.08654819
87	0x3d60fe25	0.05492987
88	0xbcf16519	-0.029467152
89	0xbbbf9aab	-0.0058472953
90	0xbc6dc508	-0.014512308
91	0x3b85ef7c	0.0040873867
92	0xbe0281a3	-0.12744765
93	0x3cbd3483	0.023096329
94	0x3cdcb0c0	0.02693975
95	0xbbfa3984	-0.007636251
96	0x3cab8f97	0.020942492
97	0xbccc511b	-0.024941018
98	0xbd7ce83f	-0.061744925
99	0x3d693d54	0.056943253
100	0xbe175561	-0.14778663
101	0x3ac04afa	0.0014670782
102	0xbe0eedba	-0.13957873
103	0xbcabec48	-0.020986691
104	0xbd1314b6	-0.035908423
105	0xbc941ea1	-0.018081011
106	0xbe7e31ea	-0.24823728
107	0xbcdf0cb2	-0.027227733
108	0xbe396846	-0.18106183
109	0x3d0ecf0f	0.034865435
110	0xbc8d09a6	-0.017216515
111	0x3dfc8b4d	0.12331257
112	0xbd5e838b	-0.054324668
113	0xbb3b8a51	-0.0028616379
114	0xbc974f60	-0.018470466
115	0x3bd6a864	0.0065508354
116	0xbd8caffb	-0.06869503
117	0x3d60c77e	0.05487775
118	0xbd8d56d6	-0.06901328
119	0xbdec9879	-0.11552519
120	0x3dc03c52	0.09386505
121	0xbd26a36d	-0.0406832
122	0xbc00c75a	-0.007860029
123	0x3c126df6	0.00893735
124	0xbd8e41d2	-0.06946148
125	0xbddd1995	-0.10795895
126	0x3da99e8a	0.08282192
127	0x3d03d4d5	0.032185394
128	0x3cc8f1fd	0.024529452
129	0x3c552173	0.013008463
130	0xbd8db84b	-0.06919917
131	0x3d73f177	0.05955645
132	0x3dd30932	0.10304488
133	0xbc56518e	-0.013080968
134	0x3da07db9	0.0783648
135	0x3e1bbab0	0.15207934
136	0x3e130dd7	0.14360748
137	0x3d65a1fa	0.056062676
138	0xbe271bc2	-0.16319183
139	0xbc476764	-0.012170646
140	0xbe880355	-0.26565042
141	0xbe1dca26	-0.15409145
142	0x3c9b4870	0.01895544
143	0xbd89b2ac	-0.06723532
144	0x3d2ae80b	0.0417252
145	0xbe116c0e	-0.14201376
146	0x3db21a7d	0.086964585
147	0xbea47d4b	-0.3212684
148	0x3983f4d5	0.0002516868
149	0xbb526a43	-0.0032106794
150	0xbcb5b952	-0.022183094
151	0xbc817cce	-0.015806582
152	0xbd99aa51	-0.075031884
153	0xbe301f50	-0.17199445
154	0x3cf674af	0.030084936
155	0xbc955b92	-0.01823214
156	0xbb4e4d7e	-0.0031479294
157	0xbd87eb16	-0.06636636
158	0xbd774c2e	-0.060375385
159	0x3ba6150c	0.005068427
160	0xbd322b05	-0.043498058
161	0xbd8a4df4	-0.0675315
162	0xbd910a29	-0.07082016
163	0x3de2ab27	0.11067801
164	0xbdcc9be8	-0.09990674
165	0x3b5db603	0.0033830411
166	0x3d03b12f	0.032151397
167	0xbd228082	-0.039673336
168	0x3d16731c	0.03673087
169	0xbcd7ab2c	-0.026326738
170	0x3db7b588	0.08970171
171	0x3d4d66ee	0.05014699
172	0xbdae538c	-0.08512029
173	0x3b589352	0.0033046794
174	0xbdb639e1	-0.08897758
175	0xbdc86d55	-0.097864784
176	0xbdb4a9d8	-0.088214576
177	0xbdaf69d6	-0.085651085
178	0xbda2b9c1	-0.07945586
179	0x3d2f2b8a	0.04276613
180	0xbd821f9b	-0.063536845
181	0xbd2ff6a7	-0.042959835
182	0x3cee5641	0.029093863
183	0x3c8d08e5	0.017216155
184	0x3dc6b25d	0.09701989
185	0xbd9ed06e	-0.077545986
186	0x3addefd8	0.0016932441
187	0x3cba6044	0.022750981
188	0x3d91d2be	0.07120274
189	0xbde831ec	-0.11337647
190	0xbb1c7ea7	-0.0023879202
191	0xbd2af88a	-0.04174093
192	0x3c3ba8e6	0.011453843
193	0xbe4f1ddb	-0.20226233
194	0xbc845dfe	-0.0161581
195	0x3caa2a5c	0.020772152
196	0x3cf4588c	0.029827379
197	0xbe43675c	-0.19082397
198	0x3e64cce8	0.2234379
199	0x3c225173	0.009907114
200	0x3c7a0ccb	0.015261839
201	0xbd324097	-0.04351863
202	0x3d471690	0.0486055
203	0x3e4ce1fb	0.2000808
204	0xbbf1e6d1	-0.007382252
205	0x3d968fb7	0.0735163
206	0xbc985e59	-0.018599676
207	0x3e285668	0.16439211
208	0x3e289eb0	0.16466784
209	0x3d83195d	0.06401322
210	0x3d27b082	0.040939815
211	0xbd5be844	-0.053688303
212	0x3d55b27e	0.052172177
213	0xbd3978f8	-0.04528138
214	0x3d072c42	0.033001192
215	0xbde830c1	-0.11337424
216	0xbe0c9151	-0.13727309
217	0xbe1fb18e	-0.15595075
218	0x3d3d8365	0.046267886
219	0xbcd67e0e	-0.026183154
220	0x3dc5da1a	0.0966074
221	0xbd4500f5	-0.048096616
222	0xbb048e57	-0.0020226443
223	0xbd0e69eb	-0.03476898
224	0xbccbcf51	-0.02487913
225	0xbd35c893	-0.044380736
226	0xbc9cba5f	-0.019131837
227	0x3dfc8608	0.12330252
228	0x3e3c483f	0.18386935
229	0x3dc11710	0.09428227
230	0xbe072cba	-0.13200656
231	0xbaf795d6	-0.0018889259
232	0xbe4ad7eb	-0.19808929
233	0xbd3bccd1	-0.045849625
234	0x3c67f148	0.014156647
235	0xbcb678b8	-0.02227436
236	0xbd8ae645	-0.06782202
237	0x3e106126	0.14099559
238	0x3d09bb87	0.033626106
239	0xbd2daaae	-0.0423991
240	0xbd016caf	-0.03159779
241	0xbd389930	-0.045067966
242	0x3d938b0a	0.07204254
243	0xbd2717dc	-0.04079424
244	0xbca01e28	-0.01954563
245	0xbdb712dc	-0.08939144
246	0xbd0b5633	-0.034017753
247	0xbd4f9b7e	-0.0506854
248	0xbd25767e	-0.040396206
249	0xbd9bd1dc	-0.07608387
250	0xbce92311	-0.028459104
251	0x3d9a6ff1	0.075408824
252	0xbc339b0c	-0.010962259
253	0x3d4b12eb	0.04957859
254	0xbdfc6c53	-0.12325349
255	0xbcdc127c	-0.026864283
