Resources/Models/6706078547_model.pt (torch, 493660 bytes, 5 tensors)

0.weight f4 [20, 2, 5, 5]
000000 fe 4d 10 3e 13 ce ac 3a 25 8d 40 3e 74 a0 01 3e
       0.14092252 0.0013183973 0.18803842 0.12658864
000010 8a bd f0 3d a3 e7 89 3d 4d 3a 35 bd 6b 45 17 bd
       0.11754902 0.06733634 -0.044245053 -0.036931437
000020 d5 51 c2 bc 6b 91 95 bd f3 86 41 bd b2 18 09 3e
       -0.023720661 -0.07303127 -0.04724784 0.13388327
000030 52 0d 92 3b 6a dc e4 bd 35 83 19 3e 16 b1 22 bd
       0.0044571543 -0.11174853 0.14991458 -0.039719664
000040 1a 1e 07 bd 37 e4 50 3c 17 90 ae 3d a1 cd c3 bd
       -0.03298769 0.012749723 0.08523577 -0.09560705
000050 9d b7 9a be 91 89 5b be 8c d8 95 be ce 85 ef bd
       -0.3021821 -0.21439196 -0.29266775 -0.11695443
000060 1e b4 21 bd b7 e7 ea 3d d1 50 d6 3d d7 51 9e bd
       -0.039478414 0.11469977 0.10464633 -0.077304535
000070 17 1c ac 3d b2 5b 35 3e 92 da bc bc 6e 40 df 3d
       0.08403795 0.1771076 -0.023053441 0.10900961
000080 92 96 e2 3d 52 3a e8 3d 3f b0 0a 3e 1c 82 5a bd
       0.11063875 0.11339249 0.13543795 -0.05334674
000090 15 bc a4 bd 83 6b 2d bd e4 5b 9a bd b3 d7 5c 3d
       -0.08043686 -0.04233886 -0.07537058 0.053916644
0000a0 14 5f c8 be c0 22 5b be ce 23 81 be 54 58 9b be
       -0.3913504 -0.21399975 -0.2522263 -0.30340827
0000b0 ed 18 7d be 64 e3 84 be 11 4f d3 be c0 2e 85 be
       -0.2471654 -0.25954735 -0.4127126 -0.2601223
0000c0 55 9e 81 be ab 6d 80 be 23 03 34 3d bb f8 61 3c
       -0.2531611 -0.2508367 0.043948304 0.013792212
0000d0 7e 75 35 be 17 f0 f4 3b 04 63 9d 3d 97 ba 69 bd
       -0.17720601 0.00747491 0.07684901 -0.05706271
0000e0 fb b2 89 3d 7f c9 53 3c b3 b8 05 be e0 f9 03 be
       0.06723591 0.012926458 -0.13058738 -0.12888288
0000f0 46 0c f8 bc 19 89 4b 3d 76 58 61 bd 33 a1 6d bd
       -0.03027929 0.049691293 -0.055016004 -0.05801506
000100 a9 bf 4e be 7e a6 01 be 05 d4 54 3c 72 fb c9 bb
       -0.201903 -0.12661168 0.0129900025 -0.006164008
000110 81 48 cd 3d 01 74 b0 bb 6c 7f 65 be da d4 15 3d
       0.10023595 -0.0053849225 -0.22411889 0.036579944
000120 90 f9 f1 3d d4 ef 04 3d fa ee 10 3e 1f 2f 10 bc
       0.118151784 0.03245528 0.14153662 -0.008800297
000130 7a 58 6c 3d eb ec 1d 3d 14 99 9c 3d f2 bc bd bd
       0.057701565 0.03855602 0.07646385 -0.09264554
000140 cf 00 b8 bd 43 f0 c5 bd ff 0e 27 bd 29 ae b2 3d
       -0.08984529 -0.09664967 -0.040785786 0.08724625
000150 58 09 1a 3e e6 6f d5 bd 05 bc 5d be f0 08 66 be
       0.15042627 -0.104217336 -0.21653755 -0.22464347
000160 68 a4 a0 3d 15 e5 13 3e b6 0f a4 bd 21 61 44 bb
       0.07843858 0.14442857 -0.08010809 -0.002996512
000170 02 3b 6d bd cc 0f a7 bd 8d 38 e9 3d 71 f1 32 3e
       -0.057917602 -0.0815731 0.11387739 0.17474915
000180 c7 dd f7 bc 93 8e a6 3d 8a 25 7e 3d 7b b0 e0 bd
       -0.030257119 0.081326626 0.06204752 -0.10971161
000190 1a c6 86 bd 5b 46 ba bd a6 3a e8 bc 45 94 97 bd
       -0.065807536 -0.090954505 -0.028348278 -0.07401327
0001a0 3a 4c 93 3c 72 da 7a bd 6e 22 8f 3c f9 bb 2a 3d
       0.017980684 -0.061243482 0.017472472 0.04168317
0001b0 c6 fb dd bd 01 43 68 3d f9 aa b0 bd fb 7e cf bd
       -0.108390376 0.056704525 -0.086263604 -0.101316415
0001c0 66 af 26 be c9 16 aa bd d4 19 8a bd dc fe 8e bd
       -0.16277847 -0.08305127 -0.067432076 -0.06982204
0001d0 ab 12 f3 bd 13 90 ed bd 91 d1 bb bc ec d0 71 bd
       -0.11868795 -0.115997456 -0.022927077 -0.059037134
0001e0 8d e8 d1 3c b7 47 3c be f1 af f1 bd bc 75 86 bd
       0.025623584 -0.18386732 -0.11801136 -0.06565425
0001f0 2b e3 ca bd df 08 d5 3d 88 62 8f 3d 09 0c e2 3a
       -0.0990661 0.10402083 0.07001215 0.0017246018
000200 4f 21 0f 3d 3e 83 01 be b3 87 d0 3c d5 86 29 3e
       0.034943875 -0.12647721 0.025455331 0.1655534
000210 68 47 00 3e 5d 1e 1f 3e 7b 90 11 3d 09 11 a3 3d
       0.1252724 0.15538926 0.035538178 0.079622336
000220 ce 12 d2 3d 56 93 30 3e 35 88 c7 3c 24 d0 f1 bc
       0.10257493 0.17243704 0.02435694 -0.029518194
000230 a0 b1 1f 3e f0 9b b7 bb aa 56 16 bc 89 1c 54 3d
       0.15595102 -0.005603306 -0.009175936 0.051785026
000240 0c e0 c8 bd a9 82 c5 3d 1f 16 1c be 15 c4 01 be
       -0.098083586 0.09644062 -0.15242814 -0.12672456
000250 ee e8 a4 bc 9c 24 41 be 0a 0b 9e bd 25 94 cf bd
       -0.0201306 -0.18861622 -0.07716949 -0.10135678
000260 73 60 6d 3d 5f 54 ad bc de 5d 5b bd bc d0 31 3d
       0.05795331 -0.021158395 -0.053556316 0.043411955
000270 4c de fa bd 92 1d a8 bd 2d d1 20 3e 1a 22 95 3d
       -0.12249431 -0.08208765 0.15704794 0.07281895
000280 c3 6a b2 bc e0 eb d3 3d 22 87 34 bd f0 f8 18 3e
       -0.021779424 0.10347724 -0.044074185 0.14938712
000290 11 0e 15 3e 40 d1 01 bd 39 21 51 bc e2 90 f7 bd
       0.14556147 -0.031693697 -0.012764269 -0.12088181
0002a0 71 32 ec 3c cb a5 bc bc f9 32 c2 bb 21 2e 16 be
       0.028832646 -0.023028275 -0.0059264866 -0.14666034
0002b0 d2 53 a4 3c 7d 57 16 be 2a 5c f0 bc 20 a9 c3 ba
       0.0200595 -0.14681812 -0.029340822 -0.0014927723
0002c0 c5 b1 73 3c ab ba e0 3c e3 fe fe bc d4 9b f3 3d
       0.0148739265 0.02743276 -0.031127399 0.11894956
0002d0 3c be 17 bd 15 d2 06 3d 0f c8 5f bd 0a 56 c1 3d
       -0.037046656 0.032915194 -0.05463415 0.09440239
0002e0 75 6f ad 3d a2 19 6c bc 7f f8 45 bb 90 61 bf bc
       0.08468524 -0.014410408 -0.003020793 -0.023361951
0002f0 50 4d 2a 3e 35 5d 44 3d e8 ab ae bd 1e 99 7c 39
       0.16631055 0.04794045 -0.08528882 0.00024089633
000300 d0 2c c0 3b 57 2c e9 3d 39 e5 9a 3b e4 85 5c bb
       0.005864717 0.1138541 0.0047270325 -0.003364914
000310 a8 cb 82 bd ca cf 9e 3d 2b 9a 28 bd 14 4e 0c bd
       -0.063865006 0.07754476 -0.04116265 -0.03425415
000320 e8 ff 40 3d cf 79 8b be 82 8b c5 be 9c a8 e2 bd
       0.04711905 -0.2724137 -0.38583 -0.11067316
000330 c5 fc 89 3d 58 4d 43 3e 82 5f ec 3d 04 49 90 be
       0.06737665 0.19072473 0.11541654 -0.28180707
000340 9b 4c aa be 63 d6 0d be ac 70 f0 3d 55 d3 0a 3e
       -0.3326157 -0.13851313 0.117402405 0.1355718
000350 76 03 1c bd 63 85 db be 0e e5 a0 be 07 19 28 3e
       -0.038089238 -0.42875203 -0.31424755 0.16415797
000360 2f d7 09 3e c0 d9 65 3e 23 71 92 bd 6a dc 6b be
       0.13460992 0.22446346 -0.07150485 -0.230333
000370 58 58 16 3e cc 5b a2 3e dd 2d 41 3e a6 ee 34 3e
       0.14682138 0.3171066 0.18865152 0.17669162
000380 7f 5e 4d bb d4 98 47 bd 92 f0 27 3e cc 50 26 3e
       -0.0031336842 -0.048729733 0.16400364 0.16241759
000390 52 3f 1d bd 0e 30 90 be a0 09 7c be 49 00 05 3d
       -0.038390465 -0.28161663 -0.24613047 0.032470975
0003a0 03 68 2b 3e 87 70 5a 3d 7e 5f c6 bd 76 54 96 be
       0.16738896 0.05332997 -0.096861824 -0.29361314
0003b0 b4 38 49 3c 8a d5 b4 3d a7 32 20 3e 54 ab 08 3e
       0.0122815855 0.08829792 0.15644322 0.13346606
0003c0 1b 7a 34 be 05 cf 0a be 7f 47 91 3d bc 3d f8 3d
       -0.17624705 -0.13555534 0.07093715 0.1212115
0003d0 ea af dd 3d fd 07 a9 3d b4 25 31 be e4 d1 56 be
       0.108245686 0.08253477 -0.17299539 -0.20978504
0003e0 d7 c0 89 bd 76 ae 10 bd d3 ff c4 3d f1 ba 33 3d
       -0.067262344 -0.03532263 0.09619107 0.043879453
0003f0 7c 5e 71 3d b1 92 11 be 0c c8 88 3d 0b 90 d6 bc
       0.058927998 -0.14216115 0.06678781 -0.026191732

3.weight f4 [32, 20, 5, 5]
000000 7e 21 a6 3d 77 1a b2 3d b8 04 aa 3d 4a 43 50 3d
       0.08111857 0.08696454 0.08301681 0.05084542
000010 e0 a6 07 3d 76 1b b4 3c 3e bd f6 3d e5 6c 24 3e
       0.03311813 0.02198575 0.12047814 0.16057165
000020 1b 5a 18 3e cb f5 de 3d 0f 2e 8a 3c 1b 7a 83 3d
       0.14878123 0.10886725 0.016867666 0.06419774
000030 1d ad 82 3d 9b 40 37 3d 87 93 45 bd 74 d8 cb 3b
       0.06380675 0.044739347 -0.048236396 0.0062208716
000040 f3 bd 7d bd 39 d8 b2 bd 3f 7c 44 be 55 05 67 be
       -0.061948728 -0.087326474 -0.19188021 -0.22560628
000050 45 50 0b 3d 63 02 41 3c be 01 b4 bd d7 d2 5f be
       0.034012098 0.011780354 -0.08789395 -0.21857773
000060 7c 84 82 be 3e ff 2e 3c c0 6c a2 3c da 89 06 3c
       -0.25491703 0.010680972 0.019827247 0.008211577
000070 ca 8f 6b 3d 46 c4 8b 3c 14 63 ae ba 68 77 24 bd
       0.057510175 0.017061364 -0.0013304674 -0.040152937
000080 34 a4 64 3d 8d e1 f5 3d 3f 1e 2d 3e f6 9c 1d 3d
       0.05582066 0.12005911 0.16906069 0.038479768
000090 4a 6d 6d bd 94 44 73 bd cd d4 da 3c c4 87 06 3e
       -0.057965554 -0.059391573 0.0267128 0.13137728
0000a0 85 de 13 3d 6c c7 61 3d 31 53 e8 3c f6 c4 20 3d
       0.036100883 0.055121824 0.028359981 0.039250337
0000b0 f0 bf 91 3d 41 a9 c2 3c a7 f1 85 3d 98 e7 7b 3d
       0.07116687 0.023762347 0.06540232 0.061500162
0000c0 4e 6b 06 3c 45 04 ab bc b8 57 c7 bd 77 62 81 bd
       0.008204294 -0.02087606 -0.09733528 -0.06317609
0000d0 21 8f ac bb 88 67 ca bb a8 69 bb bd 68 40 a5 bd
       -0.0052660857 -0.0061768927 -0.09151012 -0.08068925
0000e0 3e e9 09 bd e1 f6 f6 3c 67 e7 46 bd 2f 39 1c 3c
       -0.033669703 0.030147018 -0.048560526 0.009535118
0000f0 bd 40 d9 3c d3 55 c7 3c 2a df ac 3d 9d 51 43 3d
       0.026520127 0.024332916 0.08441003 0.047685254
000100 72 c0 c1 3d 1d 5f 49 3d b5 c1 20 bc 7b b2 07 bc
       0.09460534 0.049162973 -0.009811808 -0.008282299
000110 b5 41 bf 3d 8c ac 02 3e eb e5 18 3d e3 ac ca bd
       0.093387045 0.12761134 0.03732864 -0.09896257
000120 6c 15 ad bd ed 5c 1b 3d 0e 2d 2a 3d 02 89 f8 bc
       -0.084513515 0.037930418 0.041546874 -0.030338768
000130 5c a0 50 3b c5 01 f2 bb 18 f3 03 3d f6 d1 e7 3b
       0.0031833863 -0.007385465 0.032214254 0.00707459
000140 90 8e 08 bd 7e 75 da 3b c2 13 61 bc 4e bb a2 3c
       -0.033339083 0.006666838 -0.013737621 0.019864704
000150 84 1b ea bc b6 6d 8e 3c ec 79 36 bd 69 74 d8 3c
       -0.028577574 0.017386299 -0.044549868 0.026422696
000160 94 06 e3 3d 6c 97 8e 3d d2 5e c9 3c bc ff 65 bd
       0.11085239 0.06962475 0.024581347 -0.05615209
000170 4d 05 23 bc ce bc 88 3d 1a 90 fd 3d 10 2c f2 bb
       -0.009949994 0.06676637 0.12381001 -0.0073905066
000180 53 2f 92 bc f7 1b 9e bd 1a f7 4c bd d6 cb 99 3d
       -0.017844832 -0.077201776 -0.050040342 0.07509582
000190 db 32 b0 3d b0 b3 a5 bd 8f 51 1b bd 93 21 f2 3c
       0.0860345 -0.08090913 -0.037919577 0.029557025
0001a0 ef f5 c8 3d e0 7a 65 3c 5a ec 7f bd de 73 3a 3d
       0.09812533 0.014006346 -0.06248126 0.045520656
0001b0 02 62 6e 3e 1e bd c2 3e 98 85 4c 3b f0 0d b6 bd
       0.23279575 0.3803491 0.0031207558 -0.08889377
0001c0 bb a7 b4 bd ca 0d 60 3e 32 da c2 3e 94 f1 97 3d
       -0.088210545 0.2188026 0.38057095 0.07419124
0001d0 c9 1c 95 bd 76 29 0b be 18 93 1d be 4c 34 8c 3d
       -0.07280881 -0.13590035 -0.15388143 0.06845912
0001e0 58 23 f2 3d 8a 12 4b 3a 96 4d 76 bd 75 fd 58 be
       0.118231475 0.0007746598 -0.060132585 -0.21190436
0001f0 8e f3 6d be 6e 62 bc 3d 0c ed d1 3d df 26 f3 bc
       -0.2323744 0.091984615 0.10250291 -0.029681621
000200 fc c3 8a bd 58 17 b0 bd a6 79 04 3d d8 da 02 bc
       -0.06775662 -0.085982025 0.032342575 -0.007986747
000210 c7 89 6b bd 5d 98 fe 3c c0 21 40 3d a5 a5 3a 3d
       -0.05750444 0.031078512 0.046907187 0.045568127
000220 fe 39 82 bd da 8c 5b bd 93 4e 8c 3d 16 20 7c 3e
       -0.063587174 -0.053601123 0.06850924 0.24621615
000230 5f 15 5b 3d 5f e7 96 bd 19 70 4e 3c e5 15 3d 3e
       0.053487178 -0.07368349 0.012599968 0.18465383
000240 24 3a 9a 3e af bd 16 bd 45 f3 e2 bd cc 66 5d bd
       0.30122483 -0.03680199 -0.11081556 -0.054053113
000250 79 f2 cf 3d 45 84 71 3e 32 c6 b2 3d ac 27 87 3d
       0.1015367 0.23585613 0.08729209 0.06599364
000260 19 73 d5 3d af 40 f2 3d ba 5c 24 3d 2a 66 cf bc
       0.10422344 0.11828744 0.040127493 -0.02531727
000270 a6 15 ac 3d 87 db 0a bc 54 0a e1 bd ca 67 0b be
       0.084025666 -0.008475191 -0.10988298 -0.13613811
000280 b8 f0 6a bd b5 01 6d 3d 86 a4 8e 3c a6 98 f8 bd
       -0.057358474 0.057862956 0.017412435 -0.121384904
000290 8e 90 34 be 87 88 1c bd 4f aa 42 3d 1f 32 c1 3d
       -0.17633268 -0.03821614 0.0475257 0.09433388
0002a0 32 be a0 3d 77 53 31 3d 92 13 6b 3d d7 79 19 3d
       0.07848777 0.04329249 0.05739171 0.03746971
0002b0 f8 b9 ec 3d d1 56 64 3e 04 77 ca 3e 44 f9 04 bd
       0.11558908 0.22298743 0.39543927 -0.03246428
0002c0 8d 9e 5f bd 9f ad 22 bd 1e f7 47 bd 6d da dd bd
       -0.054594565 -0.03971636 -0.048819654 -0.10832677
0002d0 ba f8 55 3c f5 79 bb bd 4f d3 87 bd ce dd dd 3a
       0.013059789 -0.09154121 -0.06632101 0.0016927065
0002e0 84 36 95 3c 0c 29 b5 3d a1 34 a7 3c 44 42 b5 bd
       0.018214472 0.0884572 0.020410838 -0.0885053
0002f0 c7 29 ce bc 29 18 c7 3d 75 e0 e8 bc 8e a2 bf bd
       -0.025166405 0.09721405 -0.028427342 -0.09357177
000300 d9 2f 7e bd ec 83 11 bc 4e 95 07 3e ed e3 42 be
       -0.06205735 -0.00888155 0.13240549 -0.1903226
000310 ac 15 a8 be bc d0 26 be 99 26 93 bd fa b9 7e 3d
       -0.32829034 -0.16290563 -0.07185096 0.06218908
000320 ac b5 85 bd d0 9e 8c bd 4f 0f b6 bd 8c 98 e9 3c
       -0.06528792 -0.068662286 -0.08889639 0.028515123
000330 c2 bc 52 bd 71 4f 33 bd 39 9e 76 bd 26 58 25 3a
       -0.051449545 -0.043776933 -0.060209487 0.00063073856
000340 9f 6f 27 3e 0b 7c 03 3e 5c 40 43 3d 1b b4 ba bd
       0.16351174 0.12840287 0.0476688 -0.09116384
000350 ee 99 76 3a 9f 27 5f 3e ca f5 5f 3e 9d e4 12 3d
       0.00094070926 0.21792458 0.21871105 0.035862554
000360 95 57 8b bb 79 7a 84 3c ae 27 22 3e c7 fc 8a 3e
       -0.004252384 0.01617168 0.15835449 0.2714598
000370 f7 15 99 3d 5a 2c 12 bd 83 bb ba bd ba 83 2a bd
       0.074748926 -0.03568683 -0.09117796 -0.04162953
000380 f5 43 27 3e 85 49 19 bc 18 c3 08 3b 2f 77 07 3e
       0.16334517 -0.009355907 0.0020868238 0.13229059
000390 86 5c 00 3e fb da 0b 3e 75 c0 34 3d f3 ff cc 3d
       0.12535295 0.13657753 0.044128854 0.10009756
0003a0 03 a7 d6 3c 81 f5 2b 3d 10 e5 b7 3d 8b d2 b8 3d
       0.026202684 0.041982178 0.08979237 0.09024533
0003b0 7e 11 77 3d de ee 33 3c 43 c3 18 be 9e 0e 19 be
       0.060319416 0.010982243 -0.14918236 -0.14946982
0003c0 71 b9 45 3d 05 ee 2c 3c 1c 55 3f bc 48 e3 33 be
       0.048272554 0.010554795 -0.0116780065 -0.1756717
0003d0 e8 e8 3f be bb 59 20 3d 31 15 5c 3d 4f c4 6b 3d
       -0.1874119 0.039148074 0.053731147 0.05756026
0003e0 12 3d 09 3b 3d aa 0a 3c 32 f0 b2 3d bd 4a ce bc
       0.0020940942 0.0084634395 0.0873722 -0.025182122
0003f0 e2 fa c6 bd 90 f2 95 bd 28 b0 83 be 62 1a e1 3c
       -0.09715821 -0.07321656 -0.25720334 0.0274784

6.weight f4 [128, 32, 3, 3]
000000 df 2c 86 3d 4f ee 87 3d ed 7e bb bc e4 d6 7a bc
       0.06551527 0.06637251 -0.022887671 -0.015310023
000010 74 2e f4 3c 09 7e d1 bc 27 3b 25 3e d5 84 00 3e
       0.029807307 -0.025572794 0.16135846 0.12550671
000020 c4 e0 3e be 63 96 47 3d c4 05 fe bc 50 20 07 3c
       -0.18640429 0.048727404 -0.031008609 0.00824745
000030 c5 38 89 3c 7e f6 73 bd 70 b9 c0 bd b3 6c ff bb
       0.016750703 -0.059561245 -0.094103694 -0.0077949404
000040 c8 5f 7e bd e6 93 fe 3c 3b 33 d8 3d e4 3a 80 3d
       -0.062103063 0.031076383 0.105566464 0.062612325
000050 1b 4b c0 bd 1c dd bd bd 00 c9 43 bd 73 3a 56 be
       -0.09389325 -0.09270689 -0.04779911 -0.20920734
000060 62 96 6e 3d 84 b5 4a bd 03 fa 38 be ea 6c 24 3e
       0.058248885 -0.049489513 -0.18064122 0.16057172
000070 e7 03 04 3e 62 d2 2c bc 8e 04 47 3d 1f b3 b9 bd
       0.12892114 -0.010548206 0.048588328 -0.09067368
000080 00 d1 c8 bd 0d b2 a0 bc 8d 39 14 3d 6d 15 4a 3d
       -0.098054886 -0.019616151 0.036187697 0.04933684
000090 90 a1 89 3c 85 84 ad 3c 51 24 88 3d 04 96 cc bc
       0.016800672 0.021181354 0.06647552 -0.024973877
0000a0 b7 d5 bd 3c f2 e9 a5 3d d6 63 72 bc 00 99 e9 3c
       0.023173196 0.08101262 -0.014794311 0.028515339
0000b0 d7 50 e7 3d 75 72 ab 3d 6c 3d 05 3e 44 3b b9 3b
       0.11294716 0.0837144 0.13011712 0.005652817
0000c0 69 6a 1b 3d ce 17 bc 3d d7 7d ab bc 3e b4 f3 3a
       0.037943278 0.09184228 -0.020934029 0.0018593145
0000d0 26 55 d4 3d 55 be 59 3c 97 7b 62 3d c1 c8 bd 39
       0.10367803 0.013290008 0.055293646 0.00036198462
0000e0 e3 83 8a 3e 88 b0 78 3c 6e 82 d6 bc 21 95 17 3e
       0.27053747 0.015178807 -0.02618524 0.14802982
0000f0 61 d2 4f 3c a7 f3 fc bc a3 84 66 bd b8 a6 94 bd
       0.012684436 -0.030877901 -0.056278836 -0.072583616
000100 44 9f d0 bc 8a 48 16 bc 92 68 2e bd 79 b6 3f 3d
       -0.025466569 -0.009172568 -0.042580195 0.04680488
000110 29 e1 56 3d ab f7 96 3d 3d 41 d2 ba bd bd 11 3d
       0.052460823 0.07371458 -0.0016041171 0.03558134
000120 2f 83 3c bd a3 b2 65 3d 5d 50 fe 3d e8 da ab 3d
       -0.046023544 0.056078564 0.12417672 0.083913624
000130 c4 1c 47 3c d3 73 25 bd 1b b3 5c be a0 fe 9d be
       0.012152854 -0.04039366 -0.21552698 -0.30858326
000140 10 5e a7 be e2 3c 3b be 33 b3 9f 3b c1 64 84 3e
       -0.32688951 -0.18284944 0.004873657 0.2585812
000150 af 15 88 3c 39 76 75 3c 78 e1 c0 3d 06 fb 25 bd
       0.016611902 0.0149818 0.09418005 -0.040522598
000160 81 2b a5 3d 43 44 af be 09 ba 35 3d 8b 69 35 bc
       0.08064938 -0.34231767 0.04436687 -0.011072527
000170 3e 4a a2 bd 4c f9 31 3d 0c 92 09 3d 85 f1 64 3c
       -0.07924317 0.04345064 0.033586547 0.013973598
000180 23 9a 7b 3d e9 d5 c1 bb 2e fa 98 bc 89 ec 0d be
       0.061426293 -0.0059153927 -0.018673982 -0.13859762
000190 e8 65 2d be 68 b4 51 bc 88 bd 27 3d 19 0d f5 bd
       -0.16933405 -0.01279936 0.040952235 -0.11965389
0001a0 3e 00 51 bc 55 ed 12 39 cb 18 3f bd e3 dc 99 bc
       -0.012756405 0.00014012058 -0.046654504 -0.018782085
0001b0 37 86 1a 3e 33 25 02 3c 58 c1 4b bc 62 80 b6 3d
       0.15090261 0.007943439 -0.012436233 0.08911206
0001c0 a6 40 2d bd 1e 96 d6 bd 51 8f 83 bb 28 5c 31 bd
       -0.04229798 -0.10477851 -0.0040148874 -0.043300778
0001d0 a8 11 f7 3d 5d 19 09 3e 89 e9 99 3d af fa 1d 3d
       0.120639145 0.13388582 0.075152464 0.03856915
0001e0 b4 e8 a6 bd 20 86 de bd 02 ec 4d bd 78 76 2f 3e
       -0.08149853 -0.10865426 -0.050273903 0.17135036
0001f0 62 a0 71 3d f7 f5 ce 3d 14 e0 1b 3d 01 29 bb bc
       0.058990844 0.10105508 0.038055494 -0.0228467
000200 9f 1a 0b bd 80 32 9d 3d 7d d2 4a 3d d1 71 4a bd
       -0.033960935 0.07675648 0.049517144 -0.04942495
000210 51 60 4a bd 9f 90 d4 bc 8c d2 ab 3d 83 a6 8d bc
       -0.04940826 -0.025947867 0.08389768 -0.017291313
000220 ef 43 3d bd 59 ce 99 bd 1b 3f 07 be eb 83 cd bc
       -0.046207365 -0.07510061 -0.13207667 -0.025087317
000230 e4 4c 87 3d 0f e3 70 3c 57 fe b9 bc 75 66 ff 3c
       0.066064626 0.0147025725 -0.022704287 0.031176785
000240 50 ff ff 3c fc 60 d1 bd d6 b7 80 bd 63 0f 3a bc
       0.031249672 -0.102235764 -0.06285064 -0.011356208
000250 79 a9 3b bd 6d e7 6f bd 5a e7 67 bd 52 fa a1 3c
       -0.04581592 -0.058570314 -0.05661712 0.019772682
000260 51 4f d3 3c 3a a8 35 3d 88 8a e9 3d bc 32 09 3d
       0.025794657 0.044349886 0.11403376 0.03349565
000270 ac 1e 02 3d 46 b3 8e bd 0b c8 1f be 99 3c 93 3d
       0.031767532 -0.069677874 -0.15603654 0.071892925
000280 66 dc 28 bd 70 2a 23 be 0b 2d 04 3e 70 83 51 3c
       -0.041225813 -0.15934157 0.12907808 0.012787685
000290 d6 0c ed 3d dd d3 0f ba 82 1e 44 3d cd 04 b0 bd
       0.11574714 -0.0005486587 0.047880657 -0.08594666
0002a0 3a 06 9c 39 5a d3 a3 3d 1a 04 93 bc 49 ca 9e 3c
       0.00029759278 0.079992965 -0.017946292 0.019383566
0002b0 23 dd ba 3d 16 7c da 3c 96 9e 99 bd 88 51 5e bd
       0.0912421 0.026670497 -0.07500951 -0.054276973
0002c0 34 d5 0b ba c6 60 ef 3d 1d 61 f2 bb f3 e5 45 3c
       -0.0005334199 0.1168838 -0.0073968307 0.01207875
0002d0 b0 ed c8 3c be d8 4e 3d 0d 3a c6 3b ff 0b 6b 3c
       0.0245274 0.05049967 0.0060494007 0.014346122
0002e0 b2 08 5a 3c 3d 07 59 bd e5 b7 45 3d e4 78 0f bd
       0.013307737 -0.05298542 0.04827108 -0.0350274
0002f0 33 9b d6 bd 1f 70 85 bd 93 09 80 bd 05 4a 38 3c
       -0.10478821 -0.06515526 -0.06251826 0.011248116
000300 68 15 a5 3d ba ee 03 3d 05 88 6f 3d 79 09 65 3d
       0.080607235 0.03221009 0.058479328 0.055917237
000310 7d 89 ea bd 3d 7c 83 be 26 28 0a 3d 07 5b 84 3d
       -0.11452005 -0.25680724 0.033729695 0.064626746
000320 dc c4 71 bd d6 ff 22 bc 11 a1 93 bd 5e 26 cc bd
       -0.05902563 -0.009948691 -0.07208455 -0.099682555
000330 cc 3b 48 bd 2c e1 45 bd 4b ec ca 3d 29 b1 cb 3c
       -0.04888515 -0.048310444 0.099083506 0.02486475
000340 3a a7 69 bd 4b ae 03 3e 28 62 a0 38 93 76 13 be
       -0.057044245 0.12859456 7.6476776e-05 -0.14400701
000350 6b 72 a6 bc 26 f9 0e bd 2c 91 08 3e 59 43 41 3e
       -0.02031823 -0.034905575 0.13336629 0.18873347
000360 a5 75 e3 bc 35 ec 15 3c 60 74 0b bd 0b 51 81 bd
       -0.027766058 0.009150554 -0.03404653 -0.06314286
000370 d2 cf a3 3d 40 fc 98 bc 32 0f a2 bb c9 45 d0 3b
       0.07998623 -0.01867497 -0.004945659 0.0063559753
000380 c7 0b 1f bc c0 96 2f 3e e7 c4 e2 3d 48 ed 15 3d
       -0.009707398 0.1714735 0.110727124 0.036603242
000390 33 92 9e 3d 66 37 10 3d 0b 53 d3 bd 07 f4 35 bb
       0.07742729 0.035209082 -0.103185736 -0.002776386
0003a0 eb 8e 76 bd a8 0d 4a 3c a4 54 48 3c d1 e2 b1 3d
       -0.06019489 0.0123323575 0.012227211 0.0868584
0003b0 72 7d 8d 3c aa e3 05 3e 34 3d 6b 3d 9e 43 a1 bc
       0.017271731 0.13075128 0.057431415 -0.019685563
0003c0 d8 ef 98 be af d5 54 be 5f 87 68 be d3 29 63 3e
       -0.29870486 -0.20784639 -0.2270789 0.22183923
0003d0 21 45 5d bc 5e c7 8a 3d 02 a7 2c 3e d9 d5 e8 3a
       -0.013505251 0.067763075 0.16860583 0.0017763927
0003e0 cd 86 9d bd 84 5f 35 bd 0a da c7 bd 4d 3a 49 be
       -0.07691727 -0.044280544 -0.097583845 -0.19651146
0003f0 82 c8 b4 bd de de 1c 3c d4 2f 1b bc 79 a3 8c bc
       -0.08827306 0.00957462 -0.009471852 -0.017167794

10.weight f4 [500, 128]
000000 c9 70 e5 3d 04 6c 8a 3d a8 71 97 3d c8 b2 c7 3d
       0.11203153 0.067588836 0.07394725 0.09750897
000010 78 6e a6 bd 4b 04 0d be 19 03 64 3d e9 ab 02 be
       -0.08126539 -0.13771169 0.055667017 -0.12760891
000020 c9 a6 0e 3d f5 2b e6 3d 48 b5 5b 3d b4 3b 59 3d
       0.034827027 0.11238853 0.05363968 0.053035453
000030 b8 73 07 bd ad bc 4c bd 1f 21 5b bd 6a c6 c5 3d
       -0.033069342 -0.049984623 -0.053498384 0.09656985
000040 f1 f8 4a 3e 49 2e ff bd 1b 4b 9d bd ef 29 aa 3d
       0.19821526 -0.1246 -0.07680341 0.083087794
000050 df 1a 85 3d 88 61 3f be 75 e9 29 bd 8f 04 31 3d
       0.06499266 -0.18689549 -0.041482408 0.043217238
000060 18 5f d5 3c 7f e3 4f bd f5 ed 97 3d 1a cf 88 bc
       0.02604632 -0.050754067 0.074184336 -0.016700316
000070 a8 e4 5e 3e aa 20 bf bc 5e 89 d8 bc 3d c9 c8 ba
       0.21766913 -0.023331005 -0.02643269 -0.0015318763
000080 bc 40 10 3d b2 8d ba bd 23 b9 a4 3d 41 87 6d bd
       0.035217986 -0.091090575 0.080431245 -0.057990316
000090 15 17 c5 3d 8c fb 81 3d 71 27 0a 3d 13 45 3f be
       0.09623543 0.06346807 0.03372902 -0.18678693
0000a0 95 4c 92 3d b9 2e 99 bd 5f 05 1a 3d 8a 85 c0 3d
       0.07143513 -0.07479615 0.03760278 0.094004706
0000b0 62 e6 0e bc eb 45 a4 bd 7b 98 a8 3d 02 b0 5c bd
       -0.00872192 -0.08021148 0.08232208 -0.05387879
0000c0 c2 f6 ec 3d 11 56 31 3e 47 10 78 3d 70 a3 5d bd
       0.11570503 0.17317988 0.0605624 -0.054110944
0000d0 54 96 aa 3d 54 ed 2e 3d 21 27 54 bd 08 35 e4 bd
       0.08329454 0.042706802 -0.05179513 -0.111429274
0000e0 5f 8b cf 3c 41 37 e2 bd a1 b4 00 3e 83 ed 38 3d
       0.025335012 -0.11045695 0.12568904 0.045148384
0000f0 66 58 8d bd 89 3b 83 3d f5 95 8a bd 67 09 fe 3d
       -0.06901626 0.0640784 -0.06766883 0.12404137
000100 77 1f 71 bd bc 42 be bd 1f d3 5a bd 67 80 03 3e
       -0.058867898 -0.09290072 -0.053423997 0.1284195
000110 89 8a 32 bd 07 b1 96 bd 9c 1e 4b 3e c5 92 87 bd
       -0.04358915 -0.07357984 0.19835895 -0.06619791
000120 9e 4f a3 3d 87 ad 30 be 82 93 68 bc 5a 49 81 bc
       0.0797417 -0.17253695 -0.014195325 -0.015782047
000130 b8 62 8e 3c cf b2 30 3e 90 ae 78 3c 74 2a 52 be
       0.017381057 0.1725571 0.015178338 -0.20524007
000140 f6 bd 1a 3c 43 ea a6 3d 7a 7a 6a bc 9b 9d 87 3c
       0.009444704 0.081501506 -0.014311427 0.016554644
000150 d2 4f a9 bb 32 d8 74 3d 6b 5f e0 bd 63 9d 8e bd
       -0.005166986 0.059776492 -0.109556995 -0.06963613
000160 28 ad 7f ba 28 42 79 39 b9 c5 74 bd bd 38 89 bd
       -0.00097532803 0.00023771136 -0.059758876 -0.06700275
000170 73 7c a5 3d 2f 28 b6 3b af ab 6c 3d 79 eb 87 3d
       0.080803774 0.0055589895 0.057780918 0.0663671
000180 f3 d2 83 bd 39 c1 a1 bd e3 b4 f9 bc 26 25 ca 3c
       -0.0643672 -0.078981824 -0.030481761 0.024675917
000190 f7 cf a5 3d 66 cd 9c 3b 51 98 0a bd 18 fb de bd
       0.08096307 0.0047852276 -0.033836666 -0.10887736
0001a0 ef da 81 3b f6 45 07 3d 76 01 4c 3d 8e 4e 1c 3e
       0.0039628665 0.033025704 0.04980608 0.15264341
0001b0 82 ee 22 bc 61 19 90 bd 28 c3 f7 3d c0 5f a3 bc
       -0.00994456 -0.07036091 0.1209777 -0.019943118
0001c0 3b 02 13 be 79 3b a2 3d d5 8b 66 3c 9c 0b 01 3c
       -0.1435632 0.079215 0.0140714245 0.007876303
0001d0 02 18 b8 bd 92 0c c7 3d b3 79 a8 bc 5a 14 9c 3c
       -0.08988954 0.097191945 -0.020565843 0.019052673
0001e0 cc 80 c2 3b 45 ad d7 bc d8 69 2e bc f6 29 34 bd
       0.005935764 -0.026327739 -0.010645352 -0.04398533
0001f0 f6 51 2b 3d 26 3b ee 3c 60 cf 8a bd a0 30 95 bd
       0.04182621 0.029080939 -0.06777835 -0.07284665
000200 56 58 ec bd 17 78 fd 3c 3c f8 6d bd 80 f0 26 3d
       -0.11540286 0.030941052 -0.058098063 0.040756702
000210 ac ca a3 3c 44 2d f0 3d 61 ae e6 bb 15 44 7b 3d
       0.019994102 0.11727384 -0.0070398306 0.061344225
000220 90 d4 23 be c2 e9 e0 3c 74 5c ba bd 9f 1a 9f bd
       -0.15999055 0.027455214 -0.09099665 -0.077687494
000230 9b c3 46 be ba 6e 33 bd 03 62 22 bd a5 7e 7a 3d
       -0.19410555 -0.04380677 -0.039644253 0.061155934
000240 31 d2 88 bc 16 47 74 3d 93 72 27 bc 22 7b 45 3d
       -0.01670179 0.059638105 -0.010220188 0.04821313
000250 59 ed 44 3d 7f ff f4 3c 24 01 19 be 7b f9 c6 3d
       0.048077915 0.029906986 -0.14941841 0.097155534
000260 b0 d7 5e 3d 9b 86 82 3d 3a fb 63 3d d3 3e d1 bc
       0.054404914 0.0637333 0.05565951 -0.025542652
000270 da e3 24 3c ce 02 ec bd b0 b2 82 bd 3e 86 06 bb
       0.01006409 -0.115239725 -0.06381738 -0.0020526792
000280 09 75 22 3e fd 10 0a bd a4 c5 f7 3a 05 d3 56 bd
       0.15864958 -0.033707608 0.0018903506 -0.052447338
000290 ba 22 ba bd e4 62 a9 bd 6f 15 c5 3d 7d 92 da 3b
       -0.09088655 -0.08270815 0.09623229 0.006670295
0002a0 c9 46 94 3d b1 e3 57 bd d2 4f 03 be c4 72 a4 3d
       0.07240064 -0.052707378 -0.12823418 0.08029702
0002b0 f6 c6 bd bd 01 c2 92 3d b7 ee b7 bd 07 ee 10 3d
       -0.092664644 0.071659096 -0.08981078 0.03538325
0002c0 d9 67 27 3d a6 d4 36 3e 26 a3 56 bd 17 50 5e 3d
       0.04087052 0.17854556 -0.052401684 0.0542756
0002d0 9f 96 22 3e 9c 7f 36 3e 58 a1 aa bc 2e 6f 13 3e
       0.1587777 0.17822117 -0.020828888 0.1439788
0002e0 54 ea 66 bd 02 43 0d be 4b 91 24 3e 54 8e 52 bd
       -0.056375816 -0.13795093 0.1607105 -0.051405266
0002f0 bd 15 5e 3a 68 f9 6a 3d 73 9d c0 3d a5 2a 91 bd
       0.0008471867 0.05736676 0.09405031 -0.07088212
000300 ed 28 15 3e a5 ab 97 3d 5c 0f aa bd 2e b7 c2 3d
       0.14566393 0.074057855 -0.08303711 0.09507595
000310 8a 29 ca bd df 11 5a bc b2 76 7d bd 57 9e 48 3d
       -0.09871204 -0.013309925 -0.061880775 0.04897913
000320 3f 62 8f 3d 6f 76 47 be b5 15 df bd 7f 8c 09 be
       0.07001161 -0.19478773 -0.10892812 -0.13432501
000330 8e 60 2c 3e 36 72 f1 bc ff f1 c6 3d 0e 2e 17 3e
       0.16833708 -0.029473405 0.09714126 0.14763662
000340 b3 96 25 bd 91 80 5d bd 62 9f 07 be f0 26 5f bc
       -0.04042692 -0.05407769 -0.13244393 -0.013620123
000350 ac 53 08 3d 37 07 08 be 67 a7 aa bd 34 3c b0 3c
       0.03328292 -0.13284002 -0.08332711 0.021513082
000360 c2 3b ab bd 8f 6f 70 3d b7 70 e9 bd 4e 75 db 3c
       -0.08361007 0.05870014 -0.11398452 0.026789334
000370 01 9b 85 bd 6a 7b 86 ba e2 f6 05 bd d8 0c 24 3d
       -0.06523705 -0.0010260169 -0.03270615 0.04005131
000380 ca 84 9e be 0e b6 cb 3d ac 66 8b bd 0e 91 3f 3c
       -0.30960685 0.099468336 -0.068066925 0.011692299
000390 26 9f 39 3d b2 b5 3b 3d 67 27 2e bd f9 96 ca bc
       0.04531779 0.045827575 -0.042518046 -0.024730192
0003a0 a8 cd de 3d 21 79 98 bd b7 75 11 3d c6 6e bb 3d
       0.108790696 -0.074449785 0.035512652 0.09151988
0003b0 5f df 92 3d 7d 03 8a 3c 0f 2d 25 3d 7f 49 17 be
       0.07171511 0.016847366 0.040326174 -0.1477413
0003c0 1b 91 8c 3d 31 a1 8a bd 2a 9b a4 3c f3 f7 9f 3d
       0.06863614 -0.06769026 0.02009352 0.078109644
0003d0 c3 f5 ae bd fd 24 ea bd c2 c4 b7 ba d5 4f aa 3c
       -0.08542969 -0.11432836 -0.001402043 0.02079002
0003e0 97 d8 cc 3d 24 f1 02 3e b2 39 9a bd 7d 1d c7 3d
       0.10002249 0.127873 -0.07530536 0.09722421
0003f0 35 b4 39 be 1b b5 f6 bd 21 ac b4 bd fa a8 f1 3c
       -0.1813515 -0.12046262 -0.088218935 0.02949952

12.weight f4 [10, 500]
000000 a9 0a cd bd 20 39 cb bd 6d e3 01 be 66 05 b3 bd
       -0.10011799 -0.09923005 -0.12684412 -0.08741264
000010 9c 9c de bc a7 28 4f 3c bb 6d 68 3d 70 21 48 be
       -0.027174287 0.01264397 0.056745272 -0.19544005
000020 e8 f3 bd bd 54 61 4e 3d 38 fe f1 bd 27 ab 09 bd
       -0.09275037 0.050385788 -0.118160665 -0.03361049
000030 da e9 ed 3c 2a 1b fa 3d fb d8 e4 3d ee 45 47 bc
       0.029042173 0.122122124 0.11174198 -0.012162669
000040 85 6c cd 3b c1 76 91 bc 5b 20 a1 bd 3b b5 da 3d
       0.00626904 -0.017756822 -0.078674994 0.10679098
000050 6a 17 97 3d 97 d8 97 3c c6 8d 95 3c b4 07 76 3d
       0.07377513 0.018535895 0.01825608 0.06006594
000060 8a 77 e2 3c ba f7 11 3e 56 6f 92 ba c2 d1 2e bc
       0.027644891 0.14254656 -0.0011172097 -0.010670127
000070 71 6d 41 3d 9c 52 35 be 77 b7 47 bd 2a ee b3 3c
       0.047223512 -0.17707294 -0.04875895 0.021964151
000080 f0 21 d3 3d 65 b8 02 be dc 3f 45 be 07 37 30 bd
       0.103092074 -0.12765653 -0.19262642 -0.04302123
000090 f3 93 af 3c 43 28 90 bd 83 a7 62 3d 30 bc 74 bd
       0.021432852 -0.07038929 0.055335533 -0.059749782
0000a0 06 d1 09 3e 4b 0f 2e bd 01 76 1e be 5f 0f a9 bd
       0.13458642 -0.042495053 -0.15474702 -0.08254885
0000b0 92 09 84 bd ac 21 58 3d 73 6b fa 3b 94 f2 46 bd
       -0.06447138 0.052766487 0.0076422035 -0.048571184
0000c0 ae 0f b6 bd b6 b7 91 3d f6 ed ea bd 99 7c 8b 3c
       -0.088897094 0.07115118 -0.11471169 0.017027186
0000d0 c5 e7 5c be c9 4b 41 3d 0b 22 dd bd 0d d6 8b 3d
       -0.21572788 0.047191415 -0.10797509 0.06827936
0000e0 e5 de 64 3d 58 31 b1 3d 93 80 04 be c0 f9 9d 3d
       0.05587663 0.0865199 -0.12939672 0.07713652
0000f0 30 b0 7c bc 54 c6 a1 bd 45 1b 32 bc 23 a0 30 3e
       -0.015422866 -0.07899156 -0.010870759 0.17248587
000100 b1 b3 97 bd 1d d2 ab 3d 7f 72 cb bc 50 3d 1f bc
       -0.0740732 0.08389685 -0.02483487 -0.009719208
000110 b1 98 34 ba e9 02 b1 3c 5d c9 0a 3e f5 65 2f 3d
       -0.0006889208 0.021607833 0.13553376 0.042821843
000120 31 1a df ba be b1 1f bc ec a5 ca 3c 7b fe 24 be
       -0.0017021355 -0.009746967 0.02473732 -0.16112702
000130 e5 93 40 3d 79 29 a8 3d 90 2b 2e bd 2c ad e9 bd
       0.047016043 0.08211035 -0.042522013 -0.11409983
000140 20 0b 86 3d 80 30 aa 3c 8f e3 1d be 1a 21 0c 3d
       0.06545091 0.02077508 -0.15418838 0.034211256
000150 5b 31 6b 3c 47 f0 05 3d 3f 56 8e bc 24 40 7e 3d
       0.014355029 0.03269985 -0.01737511 0.062072888
000160 2a 8c 9b bd ab a2 4d bd ed 72 1d be 73 9c b9 bd
       -0.075950935 -0.05020396 -0.15375872 -0.090630434
000170 ff 84 f2 3d b5 43 be bd fa af 45 3d 56 fe b0 3a
       0.11841773 -0.09290258 0.048263527 0.0013503532
000180 5b c7 34 be 8a b4 88 bd c7 fa 11 be 46 e6 6b 3d
       -0.17654173 -0.0667506 -0.1425582 0.057592653
000190 45 e9 87 be 1e 45 3b be 80 75 06 bd 09 49 b6 3d
       -0.26545158 -0.18288085 -0.0328269 0.08900649
0001a0 33 17 28 bc 00 94 9d 3d f1 7a f1 3c 51 27 37 be
       -0.010259437 0.076942444 0.029477568 -0.17886092
0001b0 e5 c6 15 3d 0b 88 a6 bd 30 0c 26 3c f2 e7 ae be
       0.036566634 -0.08131417 0.010134742 -0.34161335
0001c0 08 4c 02 3c 7e 99 45 bd 0e fa 92 bd 92 28 23 bd
       0.007952698 -0.048242085 -0.071766004 -0.039833613
0001d0 f3 89 da bc 48 c9 cc bd 65 4a cf bd 2e af 38 bd
       -0.026677107 -0.09999329 -0.101216115 -0.04508894
0001e0 84 0d c8 bc 6b 46 fb 3c 76 ec ab bb 03 c0 73 bd
       -0.024420507 0.030673226 -0.005246694 -0.05950929
0001f0 1d 34 0d 3d dc 49 65 3d 9f 44 3b bd 83 3c 1c bd
       0.034473527 0.05597864 -0.04571974 -0.038143646
000200 24 16 b3 bd 8d 56 21 3d a6 26 1f 3d 84 92 80 3d
       -0.08744457 0.039389182 0.038855217 0.06277946
000210 93 7e 12 be ec 2e 2d be be 9a 8b bd 3a d2 51 3c
       -0.14306097 -0.1691243 -0.06816624 0.01280647
000220 4e e7 6f 3b 9c af 09 be 56 4b 79 3d fc b5 28 3e
       0.0036606374 -0.13445896 0.06086286 0.16475672
000230 0b b8 d1 bd 73 b2 13 3c 43 53 3b 3e 39 4d a3 3d
       -0.102401815 0.009014714 0.1829348 0.079737134
000240 c2 1e dc bc 1b 5c 42 be 8e d1 be bd dd 5f ee 3c
       -0.026870135 -0.18980448 -0.09317313 0.029098446
000250 6f c7 02 bd 13 27 a5 3b 58 ae 39 be e0 ef 5a be
       -0.031928476 0.0050400584 -0.18132913 -0.21380568
000260 ad 78 05 3e f5 67 43 be 03 b5 ac bd 80 9d 90 3d
       0.13034315 -0.19082625 -0.08432963 0.07061291
000270 ba 85 01 3e 8c 14 84 3b 5d bd a0 3c b4 84 ec 3d
       0.12648669 0.0040307697 0.019621545 0.115487486
000280 1f 7c 67 3c 5a a7 6b bd d9 f8 0c be e9 0e 85 bd
       0.014128714 -0.057532646 -0.13766803 -0.064969845
000290 2e 63 f1 bc 3e cd ed bd 4f e6 36 3d 7b 8c 00 be
       -0.029466238 -0.116114125 0.044653233 -0.12553589
0002a0 a3 31 a1 3d dc 51 c0 bc 54 09 c0 3d 8e bc c3 bc
       0.078707956 -0.023476534 0.09376779 -0.02389362
0002b0 33 83 73 bd 19 5d 5b bd 5e f4 7c bd 6f 3e 33 3d
       -0.059451293 -0.05355558 -0.061756484 0.043760713
0002c0 db 26 80 bd 22 6f ef bd 67 51 e8 3c 7e 0a c8 3d
       -0.06257411 -0.11691119 0.028359128 0.09767626
0002d0 61 0f 47 3d 42 85 db bd 4e f3 52 3c 8d 7f 53 bd
       0.04859865 -0.10718776 0.012875391 -0.051635314
0002e0 d0 87 0a 3d d2 6a 59 bd b0 31 a0 bd b3 89 e6 bd
       0.033820927 -0.053080387 -0.07821977 -0.11256733
0002f0 23 bc 1f be 4a 2c 00 3e 57 69 e4 bd 5d f8 2f 3d
       -0.15599112 0.12516895 -0.111529045 0.042961467
000300 6d 7d bf bd 37 9b 93 3c eb fa 12 be 6b 25 21 3d
       -0.09350095 0.018018348 -0.1435353 0.039342325
000310 4f 28 ad 3b b6 72 f6 bd 75 b2 3e bd cc 81 01 be
       0.005284346 -0.12033598 -0.04655691 -0.1264717
000320 2b 40 3c bb 5d 0c c0 3d 2d 73 9f 3d 75 8d 70 be
       -0.002872477 0.09377358 0.0778564 -0.23491462
000330 dc 8e 14 be e1 4b 62 bd 51 63 ba bd d5 2a e1 bc
       -0.14507622 -0.055248145 -0.09100974 -0.027486244
000340 a0 79 ef bd b1 e3 ca bc 85 f5 1e 3e 24 fa a5 3d
       -0.1169312 -0.024766775 0.15523346 0.08104351
000350 f9 9a 5c 3d 87 f3 a9 bd 68 23 e8 bb 60 65 ad be
       0.05385873 -0.08298402 -0.007084299 -0.33866405
000360 75 13 0c 3d 70 64 cb bd 88 6b 2e be cb 49 f8 bd
       0.034198243 -0.09931266 -0.17033207 -0.1212345
000370 63 8b 50 3c 92 e5 c4 bb 29 85 73 bd 3d 95 b7 bd
       0.012728545 -0.006008812 -0.059453163 -0.08964012
000380 83 eb ff bc 36 3f 00 3d b6 30 0b be b0 5a 29 be
       -0.03124023 0.031310283 -0.135928 -0.16538501
000390 ea 84 48 3d 5c 73 62 bd 29 18 67 bb 8a a6 37 3c
       0.04895488 -0.055285797 -0.0035262203 0.01120914
0003a0 35 39 df bd b0 6a ad bd d3 cc ff bc c1 c1 ad 3d
       -0.10899583 -0.08467615 -0.031225597 0.08484221
0003b0 58 4e b9 bd 17 3a 69 3d 21 92 f4 bd ad 6f a1 bd
       -0.09048146 0.056940164 -0.119419344 -0.078826286
0003c0 39 b6 98 bd 32 41 5b 3d 7b 68 f4 bd 5a 68 fe 3b
       -0.07456631 0.053528972 -0.119339906 0.0077639045
0003d0 a5 92 83 bd ff 5b 51 be 9c ad d5 bc 67 00 e5 bd
       -0.064244546 -0.2044525 -0.02608376 -0.11181717
0003e0 00 ab 19 3d 23 b9 2f be bd 0e 26 3d 5d d7 5b 3b
       0.037516594 -0.17160468 0.0405414 0.0033545115
0003f0 60 5c 31 3d 1f ff 7b bd 5e d8 a5 3c fd 6d 86 3c
       0.043300986 -0.0615226 0.020244773 0.016409868
