Resources/Models/8522812036_model.pt (torch, 148267 bytes, 17 tensors)

model.0.weight f4 [8, 2, 2, 2]
0	0x3da0a8d3	0.07844701
1	0x3dc09f6a	0.09405406
2	0xbeb0e0bb	-0.34546456
3	0xbea17782	-0.3153649
4	0xbd8fc4e4	-0.07019976
5	0x3d431957	0.047631588
6	0x3d9df7d3	0.07713284
7	0x3e959d31	0.2922149
8	0xbd9b0ab7	-0.07570403
9	0xbd91bccc	-0.07116088
10	0xbd88854f	-0.066660516
11	0xbd849c20	-0.06475091
12	0xbe42cbad	-0.19023009
13	0xbe882e76	-0.26597947
14	0xbe7109bc	-0.2353887
15	0xbe2ba191	-0.16760851
16	0x3e0b2178	0.13586986
17	0x3dad6a97	0.08467596
18	0xbec3c5bf	-0.38236806
19	0xbe7ec414	-0.24879485
20	0x3dee414f	0.116335504
21	0x3d4a82dd	0.049441207
22	0xbd71cb1b	-0.059031587
23	0x3e611e06	0.2198411
24	0x3cd7aca4	0.026327439
25	0x3d7b8ff2	0.061416574
26	0x3e9f02c4	0.31056798
27	0xbeb0de3d	-0.34544554
28	0xbe6b1464	-0.22956997
29	0xbe06f2c4	-0.13178545
30	0xbe546d1e	-0.2074475
31	0x3e920a2d	0.28523389
32	0xbe287306	-0.16450128
33	0xbe56fccb	-0.2099487
34	0xbe81f143	-0.2537938
35	0xbe9fad2e	-0.31186813
36	0xbc2d3c11	-0.010573403
37	0x3e95d855	0.2926661
38	0x3e8694d4	0.26285422
39	0x3e5e8ec9	0.21734156
40	0xbb872745	-0.0041245543
41	0xbd921ff7	-0.07135003
42	0xbdaeccc4	-0.0853515
43	0xbe884649	-0.26616123
44	0xbe897ed4	-0.26854575
45	0xbe598c07	-0.21244822
46	0x3e89b7fa	0.26898175
47	0x3e8041c6	0.2505018
48	0x3d7bee55	0.061506588
49	0x3d160964	0.03663005
50	0x3e9a418a	0.30128127
51	0x3e91f66f	0.28508326
52	0x3e88a2a0	0.26686573
53	0x3dc36fe5	0.095428266
54	0x3e7ad528	0.24495375
55	0xbe3b7611	-0.18306758
56	0xbe194693	-0.14968328
57	0xbebed2e3	-0.3727027
58	0xbea2f2b9	-0.31825808
59	0xbe902ed4	-0.28160727
60	0x3e01eeaa	0.126887
61	0x3db723c8	0.089423716
62	0xbe08d7c6	-0.13363561
63	0x3dd4360a	0.1036187

model.1.weight f4 [8]
0	0x3f7b45e1	0.981535
1	0x3f9cab11	1.2239705
2	0x3f5dc20d	0.86624223
3	0x3f849d67	1.0360535
4	0x3f849a63	1.0359615
5	0x3f8d2221	1.102604
6	0x3f792a57	0.9733023
7	0x3f7b9a64	0.98282456

model.1.bias f4 [8]
0	0x3c8ec303	0.017426973
1	0x3d88c12d	0.0667747
2	0xbcb95f47	-0.02262844
3	0xbb11af80	-0.002222985
4	0x3d2e4567	0.042546656
5	0xbce8ec13	-0.028432881
6	0x3e912ed7	0.28356048
7	0x3de44526	0.111460015

model.1.running_mean f4 [8]
0	0xbbab9e1f	-0.0052373554
1	0xbd27940a	-0.040912665
2	0xbb692093	-0.0035572394
3	0xbc1b935d	-0.009495583
4	0xbc01f4ff	-0.007931947
5	0xbc8414a7	-0.016123129
6	0x3d1c67ad	0.03818481
7	0xbd137e56	-0.036009155

model.1.running_var f4 [8]
0	0x3cdb286f	0.026752679
1	0x3d64ac5d	0.05582844
2	0x3ccb3de5	0.024809787
3	0x3ca451c8	0.020058528
4	0x3d4cc252	0.049990006
5	0x3cce2efe	0.025168892
6	0x3d83eb00	0.06441307
7	0x3db43455	0.08799044

model.4.weight f4 [8, 8, 3, 3]
0	0x3dd966f0	0.10615337
1	0x3db4db44	0.08830884
2	0x3d00fefc	0.031493172
3	0x3d129d4d	0.035794545
4	0x3d92c467	0.07166367
5	0x3dcb22fc	0.09918782
6	0xbe0c1153	-0.13678484
7	0xbda299ea	-0.07939513
8	0x3cbb72c9	0.022881882
9	0x3da092dc	0.07840511
10	0x3d983bfe	0.074333176
11	0x3d9d2b25	0.07674245
12	0x3d2537d6	0.040336452
13	0xbd95d71d	-0.0731642
14	0x3ccde13f	0.02513182
15	0x3c3b1244	0.011417929
16	0xbcf89da6	-0.03034861
17	0x3e117e2d	0.14208288
18	0x3de5179e	0.11186145
19	0xbd0f880c	-0.035041854
20	0x3cd3e81e	0.025867518
21	0xbcec7a2d	-0.028866852
22	0xbce4a081	-0.027908565
23	0xbda5a3eb	-0.080879055
24	0x3c62f9d3	0.013853508
25	0xbdcce345	-0.10004286
26	0x3ba0efe3	0.004911409
27	0xbcae4684	-0.021273859
28	0x3daf28d3	0.085527085
29	0x3c37fdb7	0.011229924
30	0xbe314ee8	-0.17315257
31	0xbdcf4186	-0.101199195
32	0x3ccd7905	0.02508212
33	0xbd48b9d9	-0.049005363
34	0xbdd1581f	-0.10221886
35	0xbd195a1e	-0.037439458
36	0x3e04df3c	0.12975782
37	0x3e2d4a64	0.16922909
38	0x3cc3257d	0.023821587
39	0x3d16c59f	0.03680956
40	0xbd96112e	-0.073274955
41	0x3d874ba6	0.06606226
42	0xbdca56f4	-0.09879866
43	0xbde32e21	-0.11092783
44	0x3d33ba97	0.043879118
45	0x3e08e85f	0.13369893
46	0x3df4403e	0.11926316
47	0x3e111637	0.1416863
48	0x3d5a0053	0.053222965
49	0x3e3efeb4	0.18651849
50	0x3df07360	0.11740756
51	0xbe14c8fc	-0.14529794
52	0xbd81bb3c	-0.0633454
53	0x3cf396e8	0.029735044
54	0x3c896590	0.016772062
55	0x3dd0d344	0.10196546
56	0x3d075099	0.03303585
57	0xbcfcad5d	-0.030844385
58	0xbd616f31	-0.05503768
59	0x3b36bbca	0.0027882927
60	0xbe2df348	-0.16987336
61	0xbdd01b4c	-0.101614565
62	0xbd7012bf	-0.058611628
63	0xbdd45065	-0.103668965
64	0xbd8490d0	-0.06472933
65	0xbde98bee	-0.114036426
66	0x3c47a7ec	0.012186032
67	0x3d1ba395	0.0379978
68	0xbc35698c	-0.011072528
69	0x3d805673	0.06266489
70	0x3e014cde	0.12626979
71	0x3d9e9417	0.0774309
72	0x3cc8a2ea	0.024491746
73	0xbaea77a1	-0.0017888435
74	0xbd438b99	-0.047740553
75	0x3dbdf208	0.092746794
76	0x3da48924	0.0803397
77	0x3cf338b4	0.029690124
78	0x3de8b858	0.11363286
79	0x390a054d	0.0001316268
80	0xbe02f6bc	-0.12789434
81	0xbe66f3ad	-0.22553892
82	0x3b8ed198	0.0043584816
83	0xbd21f6ae	-0.039541893
84	0xbe430211	-0.19043757
85	0xbe13da69	-0.14438786
86	0xbe00513e	-0.12530991
87	0xbe16a8d7	-0.14712845
88	0xbd3bbcf7	-0.045834508
89	0x3d83bd35	0.06432573
90	0x3dc8e5b3	0.09809437
91	0xbdde4e01	-0.10854722
92	0x3b3a589b	0.002843416
93	0xbd2428aa	-0.040077843
94	0xbd19d694	-0.037558153
95	0xbdafed17	-0.08590143
96	0xbb5393bc	-0.0032284101
97	0xbcedc30b	-0.029023668
98	0xbdfb8104	-0.12280467
99	0xbd0ee218	-0.03488359
100	0xbd8ddffd	-0.06927488
101	0xbdcdb19e	-0.100436434
102	0xbba33c67	-0.0049815658
103	0x3c29fd41	0.010375322
104	0xbdf9b4a4	-0.121926576
105	0x3c813ee3	0.015777057
106	0x3d1d818b	0.03845362
107	0xbdb65611	-0.089031346
108	0x3e08f1cc	0.13373488
109	0x3d32ae24	0.043623105
110	0xbe36b0cf	-0.17840885
111	0x3ded7d58	0.11596173
112	0xbbb8775e	-0.005629464
113	0xbdf1224a	-0.11774118
114	0x3dedf6a7	0.11619311
115	0xbd09a8df	-0.033608314
116	0xbc245a18	-0.010031246
117	0x3d1a94ee	0.037739687
118	0x3db59a16	0.0886728
119	0x3c11f17c	0.008907672
120	0x3ced6055	0.028976599
121	0xbc4271b1	-0.011867926
122	0xbd886860	-0.06660533
123	0xbd225281	-0.039629463
124	0xbd3f5a1b	-0.04671679
125	0x3d3c9a00	0.046045303
126	0x3e024c22	0.12724355
127	0x3d06bcc8	0.03289488
128	0xbe3aa7ce	-0.18228075
129	0x3d9069b7	0.070514135
130	0xbdc7b695	-0.09751622
131	0xbde09556	-0.109659836
132	0xbd1f0779	-0.038825486
133	0xbcdb3985	-0.026760826
134	0xbe03dc59	-0.12877025
135	0xbd8a890b	-0.0676442
136	0x399409a6	0.00028235948
137	0x3da26a27	0.07930403
138	0xbddb7561	-0.107157476
139	0xbc9e627f	-0.019334076
140	0xbc7128f0	-0.014719233
141	0x3d9a8266	0.07544403
142	0x3d834587	0.06409746
143	0x3e0d5ea1	0.1380563
144	0x3c11196a	0.008856157
145	0x3d070643	0.032964956
146	0xbd719d3e	-0.05898785
147	0xbc0f4dc5	-0.008746569
148	0x3c94d948	0.018170014
149	0xbd836817	-0.06416338
150	0xbd66793d	-0.056267966
151	0xbceb6b67	-0.028737737
152	0xbe16d447	-0.14729415
153	0xbd6dac48	-0.05802563
154	0x3d973b40	0.07384348
155	0xbd1b459a	-0.037908174
156	0xbdfdf2fa	-0.1239986
157	0xbdcb2a63	-0.09920194
158	0xbd771d8d	-0.060330916
159	0xbd359aa3	-0.044336926
160	0xbe983a8e	-0.29732174
161	0x3d16aa28	0.036783367
162	0xbdd19a34	-0.1023449
163	0xbcae1463	-0.021249956
164	0xbdb0cf87	-0.08633333
165	0x3c418728	0.011812009
166	0x3d33e031	0.043914977
167	0x3d9d02ab	0.076665245
168	0x39ed25bd	0.0004523228
169	0x3ddaf814	0.106918484
170	0x3d41503a	0.04719565
171	0xbd9be8fd	-0.07612798
172	0xbcaaf3d1	-0.020868214
173	0xbda3b61e	-0.079937205
174	0xbd7b72f8	-0.06138894
175	0x3c7719d1	0.015081839
176	0x3d84cc30	0.06484258
177	0x3b868ace	0.0041059023
178	0xbd4de8e8	-0.050270945
179	0x3c2108c4	0.00982875
180	0xbbbdda05	-0.005793812
181	0xbdc9877b	-0.09840294
182	0x3ca408f4	0.0200238
183	0xbe11d2f3	-0.14240627
184	0xbd37d32b	-0.04487912
185	0xbd25b9dc	-0.040460452
186	0xbe1e5c6c	-0.15464944
187	0xbdb51a24	-0.088428766
188	0x3d90b874	0.07066432
189	0x3bf1edf3	0.007383102
190	0xbc05630c	-0.00814129
191	0xbb6f35e4	-0.0036500627
192	0xbdf55745	-0.11979536
193	0x3db8e1a6	0.09027414
194	0x3cf009ea	0.029301602
195	0xbdf59a3c	-0.119923085
196	0xbd97aa21	-0.074054964
197	0x3dcd09f0	0.10011661
198	0x3d174195	0.03692778
199	0x3d9206e3	0.0713022
200	0x3c8d1723	0.017222947
201	0xbd89579f	-0.067061655
202	0x3cfbbcbc	0.030729644
203	0x3d9cb0da	0.07650919
204	0x3d082b0e	0.033244185
205	0x3da684e6	0.08130817
206	0xbc5c8cd8	-0.013461314
207	0xbe03c2cd	-0.1286728
208	0xbe47d5e4	-0.19515187
209	0x3d18c3f8	0.037296265
210	0xbe38646a	-0.18007055
211	0xbedbbac7	-0.42915937
212	0xbbf88839	-0.0075845984
213	0xbe39983c	-0.18124479
214	0xbe7358f8	-0.23764408
215	0x3d14d88d	0.03633933
216	0xbd0f459c	-0.034978494
217	0xbdc729d3	-0.09724774
218	0xbdc02f71	-0.09384049
219	0x3d80a46c	0.06281361
220	0x3d58a1be	0.052888624
221	0x3de6f320	0.11276841
222	0xbdb35f70	-0.08758438
223	0x3d7b62d8	0.06137356
224	0x3c665e0d	0.014060509
225	0x3d114296	0.035463892
226	0xbd5d4c19	-0.05402765
227	0x3d8daa4c	0.06917247
228	0xbd302f0c	-0.043013617
229	0xbe007a23	-0.12546591
230	0xbe03dc31	-0.12876965
231	0xbe136bc1	-0.14396574
232	0xbd6f792a	-0.05846516
233	0xbe500e1a	-0.2031788
234	0xbbc17258	-0.0059035234
235	0xbd945fd7	-0.072448425
236	0xbd864e02	-0.065578476
237	0xbc7a990d	-0.015295279
238	0xbcbea3b6	-0.023271423
239	0x3d707ec5	0.058714647
240	0xbd108579	-0.03528354
241	0xbd98d997	-0.07463377
242	0x3d1fdc5d	0.039028514
243	0xbd49628b	-0.049166244
244	0xbd500d7e	-0.050794117
245	0xbddc4a5b	-0.1075637
246	0xbe2e15ca	-0.170005
247	0xbd1f959a	-0.03896103
248	0xbce71e7c	-0.028212778
249	0xbd9ee7a1	-0.077590235
250	0x3c689683	0.014196041
251	0xbc06a82f	-0.008218809
252	0xbd3c49b2	-0.04596872
253	0x3d192219	0.037386034
254	0x3dbfdad2	0.093679085
255	0x3a511aa9	0.000797669

model.5.weight f4 [8]
0	0x3f75781e	0.9588641
1	0x3f976b3a	1.1829598
2	0x3f6b5d6a	0.91939414
3	0x3f68e107	0.90968364
4	0x3f8934f3	1.0719284
5	0x3f87af7d	1.060043
6	0x3f82ac53	1.0208839
7	0x3f746449	0.95465523

model.5.bias f4 [8]
0	0xbe477b4c	-0.19480628
1	0xbd0c3707	-0.034232166
2	0xbc2bfe79	-0.010497683
3	0x3cf9d151	0.030495318
4	0x3d53b9e2	0.051690944
5	0x3cf8d6ee	0.030375924
6	0xbc202bd7	-0.009776077
7	0xbdcca178	-0.09991735

model.5.running_mean f4 [8]
0	0x3d66631e	0.05624687
1	0xbe872126	-0.26392478
2	0xbeccc805	-0.39996353
3	0xbc730421	-0.014832527
4	0xbe9c09e1	-0.30476287
5	0xbe9c10aa	-0.30481464
6	0xbef3465f	-0.47514626
7	0xbd82d6ca	-0.06388624

model.5.running_var f4 [8]
0	0x3dfc7109	0.12326247
1	0x3e2386b2	0.15969351
2	0x3d9c29bb	0.07625147
3	0x3d9f7034	0.07785073
4	0x3e1332b7	0.14374815
5	0x3df73cac	0.12072119
6	0x3e11aaa5	0.14225252
7	0x3dd9790b	0.1061879

model.9.weight f4 [8, 8, 3, 3]
0	0xbd0916ed	-0.03346913
1	0xbd033dfa	-0.032041527
2	0xbc85ec1b	-0.016347935
3	0xbc40964d	-0.0117545845
4	0xbd97e2b1	-0.07416285
5	0x3d4e4043	0.050354254
6	0xbdb1bcb0	-0.086785674
7	0x3df98cc9	0.12185056
8	0xbd08f8d5	-0.03344043
9	0x3d03c96a	0.032174505
10	0x3dba3378	0.09091848
11	0xbde0b068	-0.10971147
12	0x3c45de62	0.012076946
13	0xbd91ca84	-0.07118705
14	0xbdb1bb34	-0.08678284
15	0x3cb41590	0.021982938
16	0xbd5f8da2	-0.05457843
17	0x3e465799	0.19369353
18	0xbd293acc	-0.04131584
19	0xbd2de1a0	-0.0424515
20	0xbd91d650	-0.07120955
21	0xbd21ab30	-0.039469898
22	0x3db99405	0.090614356
23	0xbdd3aa85	-0.103352584
24	0xbd2721e2	-0.040803798
25	0x3e187157	0.14886986
26	0xbad27c89	-0.0016058843
27	0x3dab472b	0.083631836
28	0xbde5eab3	-0.11226406
29	0x3cb03795	0.021510879
30	0xbdbc223f	-0.091862194
31	0x3d25a3c4	0.040439382
32	0xbc4ffd6a	-0.012694696
33	0xbd7533f7	-0.05986401
34	0x3dbf48ae	0.093400344
35	0x3d25fd6e	0.040524893
36	0x3c5922a6	0.01325289
37	0x3c4829de	0.012217013
38	0xbd0a6a22	-0.033792622
39	0xbd86b1c0	-0.06576872
40	0x3df47b26	0.11937551
41	0xbd817d66	-0.06322746
42	0xbd622fb1	-0.055221263
43	0xbcfe9f3e	-0.031081792
44	0x3db1eb21	0.086874254
45	0x3d813a89	0.06309993
46	0xbe1a4974	-0.15067083
47	0xbe4a34f5	-0.19746764
48	0x3d53ca55	0.05170663
49	0x3d9bbb8a	0.076041296
50	0x3b969bba	0.004596201
51	0xbdc399ae	-0.095507964
52	0x3e6c6bd6	0.23088011
53	0x3d9b5ef2	0.07586469
54	0xbc1bc8a5	-0.009508287
55	0xbe3e7dd7	-0.18602692
56	0xbc349918	-0.0110228285
57	0xbd7e0189	-0.062013183
58	0x3d82fb2c	0.063955635
59	0x3c61b517	0.013776085
60	0xbc95b50c	-0.018274806
61	0x3e3a5e89	0.18200125
62	0xbdb3aef2	-0.087736025
63	0x3d236214	0.039888456
64	0xbdb111a4	-0.08645943
65	0xbc0530b7	-0.00812929
66	0xbcc53577	-0.024073346
67	0x3d8b40d6	0.06799476
68	0xbd22d2eb	-0.03975193
69	0xbc26c947	-0.010179824
70	0xbce83f88	-0.028350607
71	0xbd60bb63	-0.054866206
72	0xbdc52ab1	-0.09627283
73	0xbe0fbbbc	-0.14036459
74	0x3dda7c0f	0.106681935
75	0x3b820ea1	0.003969029
76	0xbd018397	-0.031619634
77	0xbc53d435	-0.012929012
78	0x3ddbd02e	0.107330665
79	0x3dfbf77a	0.12303062
80	0xbd06b940	-0.032891512
81	0x3c0b3c81	0.008498312
82	0xbda69663	-0.08134153
83	0xbe358f01	-0.17730333
84	0xbd094c60	-0.033520103
85	0x3cef17c3	0.029186135
86	0x3cf95296	0.030434888
87	0xbd1e8c1f	-0.03870785
88	0x3e51a6c4	0.20473772
89	0x3db6fa6b	0.08934482
90	0xbd86abda	-0.06575747
91	0x3d237fa6	0.039916657
92	0xbd57bcd3	-0.05267031
93	0x3ccfb922	0.025356833
94	0xbcfbb20f	-0.030724553
95	0x3dae3b6c	0.085074276
96	0xbcc67513	-0.024225747
97	0xbbb917f6	-0.0056486083
98	0x3d26c2aa	0.04071299
99	0xbddb3df6	-0.107051775
100	0xbe0c2cee	-0.13689014
101	0x3d06a3cf	0.032871064
102	0x3dde14b3	0.10843792
103	0xbd7206cf	-0.059088524
104	0x3c64540a	0.013936052
105	0x3dcd7039	0.100311704
106	0x3d374c19	0.044750307
107	0xbdfaa67b	-0.12238785
108	0x3b4bc939	0.003109528
109	0xbd6ad869	-0.05733529
110	0xbe286ba0	-0.16447306
111	0xbb3ba20b	-0.002863052
112	0x3e6163b4	0.2201069
113	0x3e1520b5	0.14563258
114	0xbd59a24b	-0.05313329
115	0x3de0b024	0.10971096
116	0x3dd293c6	0.10282092
117	0x3ce24b18	0.027623698
118	0xbde40c8c	-0.111352056
119	0xbcc0502c	-0.023475729
120	0x3cf8584e	0.030315544
121	0x3ce26eda	0.027640749
122	0xbdc56b42	-0.096395984
123	0x3d9524b2	0.0728239
124	0x3cb14db7	0.021643503
125	0xbd7d1e40	-0.061796427
126	0xbd0f7b3f	-0.035029646
127	0xbbe0154c	-0.0068384763
128	0xbdaad8c9	-0.0834213
129	0x3c68e9a8	0.014215864
130	0xbcacb2b4	-0.021081306
131	0xbe103b4e	-0.14085123
132	0x3dad6217	0.08465975
133	0x3d58640d	0.05282979
134	0x3d843d88	0.06457049
135	0xbdb60f8b	-0.08889683
136	0x3d38b8b3	0.045098018
137	0xbd8d6d6e	-0.06905638
138	0x3e0d59c0	0.13803768
139	0xbe17c737	-0.14822088
140	0xbe02672b	-0.12734668
141	0x3dfbeba9	0.12300808
142	0xbbdc43b6	-0.006721939
143	0xbd7dfe08	-0.06200984
144	0xbdc791ba	-0.09744592
145	0xbdbc39d1	-0.09190715
146	0x3cce8fce	0.025215056
147	0xbe1e37ef	-0.15451024
148	0xbcd22aef	-0.025655238
149	0x3d67befe	0.05657863
150	0xbdcec2cc	-0.10095748
151	0x3d2fd7ee	0.042930536
152	0x3d7dcf70	0.061965406
153	0xbc9610e2	-0.018318597
154	0xbdff37e0	-0.12461829
155	0x3c230552	0.009949999
156	0xbdeb79f0	-0.11497867
157	0x3d12352d	0.035695244
158	0x3e3f3c2d	0.18675299
159	0xbc589527	-0.013219154
160	0x3ea9990d	0.3312458
161	0x3e0f9788	0.14022648
162	0x3d6ed106	0.05830481
163	0xbdacbc03	-0.08434298
164	0xbca77c2d	-0.020444954
165	0x3dff0025	0.124511994
166	0x3db753b7	0.08951514
167	0xbdeff961	-0.11717487
168	0x3d83159a	0.064006045
169	0xbd2d6ecc	-0.042341992
170	0xbe0ec5aa	-0.1394259
171	0xbd68c461	-0.056827907
172	0x3d42ffcd	0.047607232
173	0xbd80bdd2	-0.06286205
174	0x3d7858a0	0.060631394
175	0x3d5713b3	0.05250902
176	0xbdc0b425	-0.0940936
177	0x3df83f08	0.12121397
178	0xbd79d896	-0.060997568
179	0xbd2af5f1	-0.041738454
180	0x3d909c0a	0.07061012
181	0xbd810ad1	-0.06300891
182	0x3cdbd149	0.026833193
183	0xbd71f2b4	-0.05906935
184	0xbc285ad4	-0.010275561
185	0xbc725728	-0.0147912875
186	0xbd175311	-0.036944453
187	0xbcf8603f	-0.030319331
188	0xbb5883b1	-0.0033037479
189	0xbd02c0cb	-0.031922143
190	0x3d4632a0	0.048388124
191	0xbd65f986	-0.056146167
192	0x3d7aaa6a	0.061197676
193	0x3be89737	0.0070981043
194	0xbdc860e8	-0.097841084
195	0x3da32787	0.079665236
196	0xbaec8995	-0.0018046374
197	0xbda0e724	-0.078565866
198	0xbd1f7ee5	-0.038939375
199	0x3cfe4403	0.03103829
200	0xbda94057	-0.08264225
201	0x3dc125d4	0.09431043
202	0xbc4f3c9a	-0.012648726
203	0xbd639d27	-0.055569794
204	0x3da726cd	0.081616975
205	0xbda3e073	-0.08001795
206	0xbcd1fd37	-0.025633438
207	0x3d1aaf62	0.037764914
208	0xbd29f1e1	-0.04149044
209	0x3c420f7f	0.011844515
210	0xbc695dc2	-0.014243545
211	0x3d0bac63	0.034099948
212	0xbd665ced	-0.056240965
213	0xbd88ef27	-0.0668624
214	0x3ca49318	0.020089671
215	0xbd94bf0a	-0.07263
216	0xbc550750	-0.013002232
217	0xbd1c0c09	-0.038097415
218	0x3dd80143	0.10547116
219	0xbe22e50f	-0.15907691
220	0x3e0ef5ec	0.13960999
221	0x3e93458d	0.28764
222	0xbd82f7b7	-0.06394904
223	0x3cdf825c	0.02728384
224	0x3e31ac60	0.17350912
225	0xbd9cf8a4	-0.07664612
226	0xbe1bd2fd	-0.15217204
227	0xbd8d5917	-0.06901758
228	0x3c9b1240	0.0189296
229	0xbd791985	-0.060815353
230	0x3d71f17f	0.0590682
231	0x3bb50747	0.005524549
232	0xbd87977f	-0.066206925
233	0x3cb93d83	0.022612339
234	0xbcb85432	-0.022501085
235	0x3dc2b823	0.095077775
236	0x3db69ff8	0.0891723
237	0x3db6e250	0.089298844
238	0xbcf59c42	-0.029981736
239	0xbc9d79dc	-0.019223146
240	0xbd3f0093	-0.046631407
241	0xbddf8bd4	-0.10915342
242	0xbdbd5ba2	-0.09245993
243	0x3d07131f	0.03297722
244	0x3e2856aa	0.1643931
245	0x3d81ed77	0.06344121
246	0x3c80993f	0.015698073
247	0xbdb5eb77	-0.08882802
248	0xbc8c4b0d	-0.01712563
249	0x3d70510e	0.05867105
250	0xbdacb71f	-0.08433365
251	0x3d734348	0.059390336
252	0xbceaea47	-0.028676165
253	0x3d049b56	0.032374702
254	0xbd8a3758	-0.06748837
255	0x391ebc06	0.00015138098

model.10.weight f4 [8]
0	0x3f863647	1.0485314
1	0x3f8934f9	1.0719291
2	0x3f837452	1.0269873
3	0x3f8848d4	1.0647225
4	0x3f80ba76	1.0056903
5	0x3f87fb13	1.0623497
6	0x3f6db7c6	0.9285854
7	0x3f60ed1b	0.87861794

model.10.bias f4 [8]
0	0xbe0ff119	-0.14056815
1	0xbdd23b74	-0.10265246
2	0xbe1ba1a4	-0.1519838
3	0xbdc8cd98	-0.09804839
4	0xbdef34ff	-0.1168003
5	0xbdc39a3e	-0.09550904
6	0xbe084e37	-0.13311087
7	0xbe0a9192	-0.13532093

model.10.running_mean f4 [8]
0	0xbcbc7a32	-0.023007486
1	0x3c64ca2f	0.01396422
2	0xbcb05fda	-0.02153008
3	0xbd3c9793	-0.04604299
4	0xbda15124	-0.078768045
5	0xbc1e9261	-0.009678454
6	0xbe427aec	-0.18992203
7	0xbea47faa	-0.3212865

model.10.running_var f4 [8]
0	0x3e3473b1	0.17622258
1	0x3e953484	0.2914163
2	0x3e81dd01	0.25363925
3	0x3e968494	0.29398024
4	0x3eb2d949	0.349314
5	0x3ea13aee	0.31490272
6	0x3edffe27	0.4374859
7	0x3f1ea0bd	0.6196402

model.14.weight f4 [64, 512]
0	0x3cf82bfc	0.03029441
1	0x3d169f38	0.036772937
2	0x3b142032	0.0022602198
3	0xbcfed279	-0.03110622
4	0x3c4605ee	0.012086375
5	0xbcf4da25	-0.029889176
6	0xbdcb99a3	-0.09941413
7	0xb9a9ae60	-0.0003236411
8	0x3d14df8d	0.036346007
9	0x3d151949	0.036401067
10	0xbc24f46d	-0.010068041
11	0x3db091b9	0.086215444
12	0x3b7844ab	0.0037882726
13	0xbd372078	-0.0447087
14	0x3cb954d0	0.02262345
15	0x3d00540f	0.031330165
16	0xbc8f2898	-0.017475411
17	0xbce278d2	-0.027645502
18	0x3d1da6f7	0.03848931
19	0xbd696d04	-0.05698873
20	0x3d9b97b5	0.07597295
21	0xbd23a630	-0.03995341
22	0x3a944ee3	0.0011315014
23	0xbc6a9f45	-0.014320199
24	0xbd1c021e	-0.038087957
25	0xbd05d53c	-0.03267406
26	0xbaf8f19c	-0.0018992904
27	0xbe37e552	-0.17958573
28	0x3d1fadb0	0.038984
29	0xbde912b7	-0.11380523
30	0xbdd7857c	-0.10523507
31	0xbdb49a26	-0.08818464
32	0x3b92c313	0.004478821
33	0x3c0860dc	0.008323874
34	0x3d97c9d3	0.07411542
35	0x3d0dad7a	0.03458927
36	0xbc5fdbf1	-0.013663278
37	0xbe0488c4	-0.12942797
38	0xbd1fb053	-0.038986515
39	0xbd0fcba7	-0.035106327
40	0xbd9244d5	-0.07142035
41	0x3b3816b5	0.0028089706
42	0x3cb931ef	0.022606818
43	0x3cdfae42	0.027304772
44	0xbd24e4d7	-0.0402573
45	0x3d24ebb5	0.04026385
46	0xbb84cd78	-0.004052814
47	0x3d694f94	0.056960657
48	0xbb39643d	-0.0028288506
49	0x3cac692b	0.021046242
50	0xbb995195	-0.004678915
51	0x3d898d9e	0.067164645
52	0x3de97e90	0.11401093
53	0x3d7339a2	0.059381135
54	0x3d0f157d	0.034932602
55	0x3db32bd5	0.08748595
56	0xbd85017c	-0.06494424
57	0xbd70e180	-0.058808804
58	0xbd08e43e	-0.033420794
59	0x3d37c684	0.044867054
60	0x3c78cdb2	0.01518576
61	0x3d1611a4	0.036637917
62	0x3d9f1576	0.07767765
63	0x3ddd5f5c	0.10809204
64	0xbc78b6d1	-0.015180306
65	0xbcdf65f3	-0.027270293
66	0x3cf7596d	0.030194009
67	0x3c3bd2fb	0.011463876
68	0x3d07349a	0.03300915
69	0xbda0bf47	-0.07848983
70	0xbdb381a8	-0.08764964
71	0x3d04a5cb	0.032384675
72	0x3c87697d	0.016529793
73	0x3c6bc75b	0.014390792
74	0x3d8be0c1	0.06829978
75	0x3db0c346	0.086309955
76	0x3d39fd76	0.045407735
77	0xbcfe8ef8	-0.031074032
78	0xbd4978d6	-0.049187504
79	0xbc9e1280	-0.01929593
80	0x3c9adf10	0.018905193
81	0x3abe77aa	0.0014531512
82	0x3da40d8c	0.08010396
83	0xbc22d640	-0.0099387765
84	0x3bc5f8ff	0.0060416455
85	0x3954e7fa	0.00020304314
86	0xbda8f14a	-0.08249147
87	0x3d6ca265	0.05777206
88	0x3c502484	0.0127040185
89	0x3ba38eec	0.004991403
90	0x3c724831	0.01478772
91	0xbd6600e7	-0.056153204
92	0xbca9bb8c	-0.020719312
93	0x3d130417	0.035892572
94	0x3c1b0993	0.009462732
95	0xbdd157b4	-0.10221806
96	0xbd78f08b	-0.060776275
97	0xbd5790a2	-0.052628167
98	0x3d1aa3fa	0.037754036
99	0x3d1a7e83	0.037718307
100	0xbd05b885	-0.032646675
101	0xbda92c5f	-0.08260416
102	0x3d8a2034	0.067444235
103	0xbd9cfac9	-0.07665021
104	0xbdfc2913	-0.12312522
105	0xbdd5cc81	-0.10439397
106	0xbcc9cabc	-0.024632804
107	0xbd08aaa0	-0.033365846
108	0x3aca1bb7	0.0015419637
109	0x3d82292e	0.06355511
110	0x3c1e7012	0.009670274
111	0xbcf8bbee	-0.03036305
112	0xbd50b1c1	-0.05095077
113	0xbd3f65da	-0.046727993
114	0xbb671d00	-0.0035265088
115	0xbcd7538c	-0.026284955
116	0x3d07684e	0.033058457
117	0x3d841756	0.064497635
118	0xbc0529e6	-0.008127665
119	0x3d0076e2	0.031363375
120	0x3ca7edaf	0.020499079
121	0xbd654b63	-0.055980098
122	0xbd8c43fb	-0.06848904
123	0xbbfcd6d9	-0.0077160415
124	0xbd9bc0d3	-0.07605138
125	0x3b0a05a7	0.0021060498
126	0xbc4ad705	-0.012380366
127	0x3d9c83a2	0.076422945
128	0xbcc73f4b	-0.024322173
129	0xbd0ee149	-0.034882817
130	0x3cb9c556	0.022677105
131	0xbd69284e	-0.056923203
132	0xbd3c785b	-0.046013217
133	0xbcdbc7e5	-0.026828716
134	0xbd73cf8d	-0.059524108
135	0xbbfb5da6	-0.007671076
136	0x3cd95f19	0.026534604
137	0x3d6e9d5a	0.05825553
138	0x3b0941c3	0.0020943738
139	0x3d72137e	0.05910062
140	0x3c066f37	0.008205227
141	0xbcd993b6	-0.026559692
142	0xbc332813	-0.010934847
143	0xbd518149	-0.051148687
144	0x3b94d536	0.0045420183
145	0xbb084bb5	-0.0020797078
146	0xbd46022b	-0.04834191
147	0x3ced29fb	0.028950682
148	0x3cbf4f49	0.023353236
149	0x3c413850	0.011793211
150	0xbd189e8e	-0.037260585
151	0xbd5db04c	-0.054123208
152	0xbd7451f8	-0.059648484
153	0xbd3982ca	-0.045290746
154	0xbd7096da	-0.058737613
155	0xbcab05f2	-0.020876858
156	0xbd0b07b3	-0.03394289
157	0x3be8d190	0.00710506
158	0xbcc1e9c7	-0.023671044
159	0xbdbb58f9	-0.091478296
160	0xbd1c4abb	-0.038157206
161	0xbd192092	-0.037384577
162	0xbcb05888	-0.02152659
163	0xbc87b619	-0.016566323
164	0x3c3df41d	0.011593846
165	0xbdc4d29f	-0.09610485
166	0xbb98443c	-0.004646806
167	0xbe2525a0	-0.16127634
168	0xbd98e1fa	-0.074649766
169	0xbb93a5df	-0.0045058574
170	0x3b86f139	0.0041181115
171	0xbc2b7686	-0.01046527
172	0xbc85e695	-0.016345302
173	0x3d8eba11	0.06969083
174	0x3d05406f	0.03253215
175	0xbc955436	-0.018228631
176	0x3cc8351b	0.024439385
177	0x3cb0e621	0.021594109
178	0x3d94a6ce	0.07258378
179	0xbac647f7	-0.0015127648
180	0x3ceab05b	0.028648546
181	0x3d77ed33	0.060528945
182	0x3c780a0e	0.015139116
183	0xbccd2fb3	-0.025047159
184	0xbcf8b4c5	-0.030359635
185	0xbd9c37d4	-0.07627836
186	0xbd8e7723	-0.06956317
187	0x3c602e71	0.0136829475
188	0x3ca18ea0	0.01972133
189	0x3c92ba29	0.017911034
190	0x3d07ed83	0.033185493
191	0x3bf44e01	0.007455588
192	0x3d55b390	0.052173197
193	0x3b0d4647	0.002155678
194	0x3ccd4548	0.02505745
195	0x3cc94bcf	0.024572281
196	0x3d9dfcdf	0.07714247
197	0x3c37511c	0.011188772
198	0x3d618305	0.05505659
199	0x3cccc5aa	0.024996597
200	0x3d8a1fe3	0.06744363
201	0xbc349c40	-0.011023581
202	0x3beea5ec	0.007282963
203	0x3d11a067	0.035553362
204	0x3c082a82	0.008310916
205	0xbd0fad43	-0.035077345
206	0x3a7d3819	0.0009659543
207	0x3cb581d1	0.022156628
208	0xbb8acf88	-0.0042361654
209	0x3d186842	0.037208803
210	0x3d04832a	0.03235165
211	0x3c983ed2	0.018584643
212	0xbd3f6697	-0.046728697
213	0xbd913393	-0.07089915
214	0xbcf9ac92	-0.030477796
215	0x3c826678	0.015918002
216	0x3d7eb210	0.062181532
217	0x3a8d1dd6	0.0010766338
218	0xbcf7dcb9	-0.030256616
219	0xbdab6169	-0.08368189
220	0xbc16da40	-0.009207308
221	0xbdcdcbe9	-0.100486584
222	0xbd4030a9	-0.046921406
223	0x3cfd3d11	0.030912908
224	0xbd4d584e	-0.050133042
225	0xbcfcc0b8	-0.030853614
226	0xbd04df89	-0.032439742
227	0xbdd55bfa	-0.10417934
228	0xbcac4b5b	-0.021032026
229	0xbb929ee6	-0.0044745086
230	0xbd8b6e7d	-0.06808183
231	0xbd9167fd	-0.07099912
232	0xbd78b2e2	-0.06071747
233	0xbd8c1368	-0.06839639
234	0x3d8ef79e	0.06980823
235	0xbd12cad0	-0.03583795
236	0x3d4f8271	0.050661508
237	0xbbedbfe4	-0.007255541
238	0xbc0eab62	-0.008707853
239	0xbdbbebd2	-0.091758385
240	0xbd8fdc62	-0.070244566
241	0x3dc1430f	0.094366185
242	0x3b995f1c	0.0046805274
243	0x3c1215aa	0.008916298
244	0x3ccbbf3b	0.02487146
245	0x3dac932a	0.08426507
246	0xbcb7ba0f	-0.022427587
247	0x3c78319c	0.015148547
248	0xbd80e046	-0.06292777
249	0xbd6d3a18	-0.05791673
250	0x3c51e583	0.0128110675
251	0x3c808e06	0.015692722
252	0x3da46169	0.08026392
253	0xbae99b2a	-0.0017822732
254	0x3c2cc1d4	0.010544259
255	0x3b73b6ec	0.0037187887

model.16.weight f4 [11, 64]
0	0xbd7ded94	-0.06199415
1	0xbe02f478	-0.1278857
2	0x3d509103	0.050919544
3	0xbe4e374e	-0.20138285
4	0x3e301c24	0.17198235
5	0xbcc8b943	-0.024502402
6	0xbe08549a	-0.13313523
7	0xbda5a3fa	-0.08087917
8	0xbe962f2a	-0.29332858
9	0x3de6be71	0.112667926
10	0x3dcd301b	0.10018941
11	0x3cf05604	0.02933789
12	0x3d2abe6d	0.04168551
13	0x3d5d3ee6	0.054015063
14	0xbd4f1d35	-0.050564963
15	0x3e01ed1d	0.12688108
16	0x3d6d30c2	0.057907827
17	0xbc374919	-0.011186861
18	0x3e2f98e0	0.17148161
19	0x3e268b10	0.16263986
20	0xbe12428e	-0.14283201
21	0xbd817be3	-0.06322458
22	0xbe16e2e0	-0.14734983
23	0xbdc690bc	-0.09695575
24	0xbd25025b	-0.04028545
25	0x3dd0ce16	0.10195558
26	0x3d8c8e22	0.06863047
27	0xbdc19afd	-0.0945339
28	0xbdc69004	-0.096954376
29	0x3e01972e	0.12655327
30	0x3d939b05	0.07207302
31	0x3dc48b3f	0.095968716
32	0xbdd8ed93	-0.10592189
33	0x3d9b917a	0.07596107
34	0xbde1ebd7	-0.11031311
35	0xbd0ad523	-0.03389467
36	0xbd88b7a9	-0.066756554
37	0xbdae8768	-0.085219204
38	0xbd1f84fe	-0.03894519
39	0x3ac0c667	0.0014707566
40	0xbe073bb8	-0.13206375
41	0x3d6e6d46	0.05820968
42	0xbdbe5b20	-0.092947245
43	0x3dc4a987	0.09602647
44	0xbdc48d8e	-0.09597312
45	0x3d8457d4	0.064620644
46	0x3db76a98	0.08955878
47	0xbc32faa4	-0.010924015
48	0x3db3b83a	0.08775373
49	0xbd08a330	-0.033358753
50	0x3d7bceef	0.061476644
51	0xbce4f760	-0.027949989
52	0x3df931fc	0.12167737
53	0xbe17563c	-0.1477899
54	0x3d2fbcaf	0.042904552
55	0x3c89c571	0.01681778
56	0x3d19af8f	0.03752094
57	0x3b133158	0.002245983
58	0x3e2f566b	0.1712281
59	0x3d0d85ae	0.034551315
60	0x3e02e3b3	0.12782173
61	0x3e0f3284	0.13984114
62	0x3db218b9	0.08696122
63	0xbdbb1b5d	-0.091360785
64	0x3d8d4273	0.0689744
65	0xbd6d1fd8	-0.057891697
66	0xbc2a0fae	-0.010379715
67	0xbdd244c6	-0.10267024
68	0x3d512941	0.051064733
69	0x3e176bbf	0.14787196
70	0x3ca0ab6b	0.019612988
71	0xbcf89cca	-0.0303482
72	0x3e18b909	0.14914335
73	0x3bc724d3	0.006077388
74	0x3e1dd5b5	0.15413554
75	0xbd29a61d	-0.041418184
76	0x3862d3fe	5.4080032e-05
77	0xbc40a0db	-0.011757101
78	0x3da8b605	0.082378425
79	0xbd577196	-0.05259856
80	0xbdd98b43	-0.10622265
81	0xbd4fabd2	-0.05070097
82	0x3dd3dcd2	0.103448525
83	0x3e18065e	0.14846179
84	0xbca1aa6f	-0.01973459
85	0x3ce1e8f4	0.027576901
86	0xbd036f02	-0.032088287
87	0xbd1d79e6	-0.03844633
88	0xbdec14ae	-0.11527382
89	0xb8e9c8e9	-0.00011147728
90	0x3d8d12ac	0.06888327
91	0xbd3f1fd9	-0.04666123
92	0x3da83909	0.082140036
93	0xbe5aedf1	-0.2137983
94	0xbdd71d34	-0.10503617
95	0x3dcbf28d	0.09958372
96	0xbc4a4dee	-0.012347681
97	0x3d0bf199	0.034165952
98	0xbddc882d	-0.10768161
99	0x3dad4e97	0.084622554
100	0x3dc5f70e	0.096662626
101	0x3b3724f4	0.002794561
102	0x3e0998e4	0.1343723
103	0x3e0f995a	0.14023343
104	0x3c8a97d0	0.016918093
105	0xbd99e355	-0.07514063
106	0xbda5ac5f	-0.08089518
107	0x3de55535	0.111978926
108	0xbc681dfc	-0.014167305
109	0xbdc3b275	-0.09555522
110	0xbe4d4ffd	-0.20050044
111	0x3dbc8c7d	0.092064835
112	0x3dc416aa	0.09574635
113	0x3dc622a6	0.096745774
114	0xbd12a95e	-0.035806052
115	0x3dabcf5c	0.0838916
116	0xbdc03785	-0.093855895
117	0x3dfac517	0.12244623
118	0xbd31ceef	-0.043410238
119	0xbd219903	-0.039452564
120	0xbdc3964b	-0.095501505
121	0xbda40520	-0.0800879
122	0xbd5e68b8	-0.054299086
123	0x3d4ad717	0.049521532
124	0x3c17f243	0.009274068
125	0x3dfd9c6f	0.12383353
126	0xbdf3df52	-0.11907829
127	0xbe1397a9	-0.14413323
128	0xbe605c39	-0.2191018
129	0x3df18830	0.11793554
130	0xbd9cbed1	-0.07653583
131	0x3dfd4255	0.123661675
132	0x3d41178e	0.047141604
133	0x3d8c04f3	0.068368815
134	0x3dfd5754	0.12370172
135	0xbe5cf8a0	-0.21579218
136	0x3e1745c5	0.14772709
137	0xbd7c51f9	-0.061601613
138	0xbe63fb5c	-0.22263855
139	0x3ca1ddd4	0.019759096
140	0x3d9e938e	0.077429876
141	0xbd91d886	-0.07121377
142	0x3e04dd2b	0.12974994
143	0x3cf72430	0.030168623
144	0xbe2be514	-0.16786605
145	0x3dce70cc	0.10080108
146	0x3da25805	0.07926945
147	0xbe1aaf57	-0.1510595
148	0xbcbf90ef	-0.02338454
149	0xbdd9bf65	-0.10632209
150	0x3d86da5c	0.065846175
151	0x3d04445f	0.032291766
152	0xbd74d9d6	-0.059778057
153	0x3c966501	0.01835871
154	0xbe8c0727	-0.27349207
155	0xbc2836a9	-0.010266938
156	0x3d4cce9b	0.05000172
157	0x3c341b30	0.01099281
158	0x3d2b6624	0.041845456
159	0x3d497966	0.04918804
160	0x3d99f95c	0.07518265
161	0xbd45fca0	-0.048336625
162	0x3da6c46f	0.081429355
163	0xbc833d97	-0.01602058
164	0xbdd5797a	-0.104235604
165	0x3c52801d	0.012847927
166	0xbd3d2176	-0.04617449
167	0xbe21bacd	-0.15793915
168	0xbd955949	-0.072924204
169	0xbdbec102	-0.09314157
170	0x3c12e4d2	0.008965688
171	0x3d8169b6	0.06318991
172	0x3da214d9	0.079141326
173	0x3d8d1fd8	0.06890839
174	0x3dd2125c	0.10257408
175	0x3be6f80c	0.0070486125
176	0x3d9a6c32	0.07540168
177	0x3da0ef73	0.07858171
178	0xbd8d9fe1	-0.0691526
179	0xbea16b8c	-0.31527364
180	0x3d3097e7	0.043113615
181	0x3d99b8ef	0.075059764
182	0x3d06fae1	0.0329541
183	0x3e13773e	0.14400956
184	0xbe326fc0	-0.17425442
185	0xbdbf74e2	-0.093484655
186	0x3d839ea8	0.06426746
187	0xbd927aeb	-0.07152351
188	0x3e334ea5	0.1751047
189	0x3cb4b846	0.022060525
190	0x3ddef975	0.10887424
191	0xbca9fe91	-0.02075127
192	0x3de7df31	0.11321867
193	0x3d84ff47	0.06494003
194	0xbe894f88	-0.2681849
195	0xbe01590a	-0.12631622
196	0xbe4410ad	-0.19146986
197	0xbd203d9f	-0.039121266
198	0xbe0dbeca	-0.13842312
199	0xbe0f3426	-0.13984737
200	0xbd5f7367	-0.054553416
201	0x3da70442	0.08155109
202	0xbe21b8f7	-0.15793215
203	0xbdecb408	-0.11557776
204	0xbd4d8733	-0.050177764
205	0xbe42067d	-0.18947788
206	0xbd87fa69	-0.06639559
207	0x3daf8e1f	0.08572029
208	0xbd150ffa	-0.03639219
209	0xbde7ec3f	-0.11324357
210	0xbc5aa9ff	-0.013346194
211	0xbdd8aa41	-0.10579348
212	0x3df9fe97	0.12206762
213	0xbd64f1e2	-0.05589474
214	0xbe104226	-0.14087734
215	0xbcbdb43d	-0.023157233
216	0x3d01c09e	0.031677835
217	0xbde6aa63	-0.112629674
218	0x3db32d23	0.087488435
219	0xbd1c8173	-0.03820939
220	0xbcfbf32d	-0.030755604
221	0xbd6b5cf7	-0.057461705
222	0x3d87999b	0.06621095
223	0xbd2b5335	-0.0418274
224	0xbd1b8914	-0.037972525
225	0x3d29d563	0.041463267
226	0x3de0748c	0.109597296
227	0x3d8c4386	0.068488166
228	0x3dc9a738	0.098463476
229	0xbe158af0	-0.14603782
230	0xbd04955a	-0.032368995
231	0xbd004c97	-0.03132304
232	0x3df2dc0a	0.11858375
233	0x3e0764f2	0.13222101
234	0xbd169a58	-0.036768287
235	0xbdd3dfbd	-0.10345409
236	0x3d98029a	0.07422371
237	0xbdcceff6	-0.100067064
238	0xbe268869	-0.16262974
239	0x3e16f314	0.14741164
240	0x3db91b75	0.0903844
241	0x3b82579d	0.0039777295
242	0xba040d48	-0.00050373795
243	0x3d92c6cd	0.071668245
244	0xbe3e7754	-0.18600208
245	0x3ca3caa1	0.019994082
246	0xbd54ff05	-0.052001018
247	0xbcb51337	-0.022103889
248	0xba38d5ca	-0.00070509
249	0x3dc31d56	0.0952708
250	0xbde3ba04	-0.11119464
251	0x3d8d90f6	0.06912415
252	0xbcd82d61	-0.026388826
253	0xbdd23cac	-0.102654785
254	0xbe3719dc	-0.17880958
255	0xba0f59d8	-0.0005468405
